examples/models/gibbsphen_mlp_filter_64_32.pth (torch, 17442 bytes, 13 tensors)

model.0.weight f4 [64, 5]
000000 af de 02 3d 8e 6d 93 be ca f8 b2 be ff 06 df be
       0.03195065 -0.2879452 -0.34955436 -0.43560025
000010 bb d5 b7 be 85 1f cd 3e b7 18 ca be 2b 39 36 be
       -0.3590525 0.4006311 -0.3947198 -0.17795245
000020 12 ef 94 3e 7b 2f 29 3e c1 75 ce bd bb 6e 11 3e
       0.29088646 0.16522019 -0.100810535 0.14202397
000030 3d 05 21 3e 4b 11 a4 3e a4 7c 7c be f2 00 52 be
       0.15724654 0.32044443 -0.24656922 -0.20508173
000040 f4 52 5a be 33 aa 6c 3e 65 80 2d be d5 21 b3 3e
       -0.21320707 0.23111801 -0.1694351 0.3498675
000050 1f e3 c2 be b7 a7 85 3e 28 be 7d 3c 12 56 68 bd
       -0.38063905 0.2610452 0.015487231 -0.056722708
000060 9a ac e5 3d 03 67 c2 bd e7 bc 1d 3e ae 83 9c be
       0.11214562 -0.09492304 0.15404092 -0.30569214
000070 60 db b7 be 66 bb 49 3e 99 54 81 3e 30 55 07 bd
       -0.35909557 0.19700393 0.25259855 -0.033040226
000080 a5 99 4f be 10 38 97 be 49 89 a2 3d 74 d8 a3 be
       -0.20273454 -0.2953496 0.07936341 -0.32001078
000090 3a 2a 49 be 66 a8 3d be b1 12 6d be 48 68 97 3e
       -0.19645014 -0.1852127 -0.23151661 0.29571748
0000a0 f6 b0 a0 bd 57 b0 0b 3e 8b 7d c3 be 92 21 c7 be
       -0.078462526 0.13641487 -0.3818172 -0.388928
0000b0 82 e7 a0 3e 3b e5 a4 3d fe f1 cf 3c 79 16 7d 3e
       0.31426626 0.08051535 0.025383946 0.24715604
0000c0 7f 43 b5 3e e6 8b 27 be 15 17 43 3c 30 64 74 3d
       0.35403058 -0.16361961 0.011907359 0.05966586
0000d0 36 b6 3e be c8 5e 8d be a4 cb 7a be 79 ed c8 3e
       -0.18624195 -0.27611375 -0.24491745 0.39243677
0000e0 fb 61 c1 3e b3 c5 ad 3e 26 fb aa be 6a 84 7f bd
       0.37770066 0.33939895 -0.33394736 -0.06238214
0000f0 ad d0 25 be 35 86 89 be 06 a6 ca 3e 51 ef 26 3e
       -0.16192885 -0.26860204 0.3957979 0.1630223
000100 12 20 ce be 86 f4 a3 3e 82 96 34 bd 18 2d d0 bd
       -0.40258843 0.32022494 -0.044088848 -0.10164851
000110 8e 11 7d 3e 1e b2 c5 3d 96 1e 79 3e f5 a9 7b 3e
       0.24713728 0.09653114 0.24328074 0.24576552
000120 c6 c9 4e 3b f6 29 fb 3d b7 a6 4c be 0a 20 a7 3e
       0.0031553372 0.12263863 -0.19985472 0.3264163
000130 8b 4a d8 3e 24 8f 67 3e 8c e5 c2 bd 0d 68 2a be
       0.42244372 0.22613198 -0.09516439 -0.16641255
000140 0a f9 49 3e 7e fd 65 be 46 af 11 3e d2 12 3f bb
       0.19723907 -0.22459981 0.14227018 -0.0029155505
000150 25 ac 03 3e 12 5a bc bd b8 40 44 3e 4e 1a 55 be
       0.12858637 -0.09196867 0.19165313 -0.20810816
000160 16 61 71 be 4d 13 98 be d3 39 45 3e c0 1f 7b be
       -0.23572192 -0.29702225 0.1926034 -0.2452383
000170 9c 73 a1 be bf 36 ae be 2b 99 4c be ee 65 a2 be
       -0.31533515 -0.34026143 -0.19980304 -0.3171839
000180 15 e9 8f 3e 65 4b bd bd 51 f0 2e 3d 2b b9 be 3e
       0.28107515 -0.09242896 0.042709652 0.37250647
000190 84 53 84 be ee d7 4f be f1 8b 77 bc af f9 f1 bd
       -0.25844967 -0.20297214 -0.015109048 -0.118152015
0001a0 9c e3 57 3d ef 02 78 bd b5 7d fd bc 0a 15 04 3e
       0.0527073 -0.060549673 -0.03094373 0.12898651
0001b0 9a 17 a8 bd 44 d7 eb 3d de a7 e4 3d ec 28 21 3e
       -0.08207627 0.11515668 0.111648306 0.15738267
0001c0 a1 7d 4f 3e 37 34 f2 bd 77 75 e1 3d ad 05 8c bc
       0.20262767 -0.118263654 0.11008733 -0.01709255
0001d0 39 ff 67 be 9e 28 31 3e 92 db 4e 3e f0 c9 c8 3b
       -0.22655953 0.1730065 0.20200947 0.0061275885
0001e0 46 6a 5d be 46 3d 10 3e 2b 9a 7f be 4a 04 4f 3d
       -0.21622571 0.14085874 -0.24961154 0.0505412
0001f0 fc 39 59 3e 0e 68 e9 3b e9 ba b7 3e 56 ff 92 bd
       0.21213526 0.007123 0.3588479 -0.07177608
000200 ae 2a 6e 3e 22 e5 84 be 0c 4f d9 3e 79 49 da 3e
       0.23258469 -0.25956064 0.4244312 0.4263418
000210 2a a0 bd be 9a 72 23 be 47 c3 e0 bd 49 70 72 be
       -0.37036258 -0.15961686 -0.10974746 -0.23675646
000220 36 85 2a 3e d9 58 ce bd 8b 2b 11 3e 1a b8 ae bd
       0.16652378 -0.1007554 0.14176767 -0.08531208
000230 11 26 5a be e3 cb c9 3e c5 b3 9a 3d a3 23 ce 3e
       -0.21303584 0.39413366 0.075538196 0.40261564
000240 e5 8e 05 be 0c 69 db 3d c1 06 13 3d 53 e8 8c be
       -0.13042791 0.107133955 0.035895113 -0.27521
000250 4e 97 9d be 08 f7 49 bb 54 3b 63 3e 99 76 5c 3e
       -0.307795 -0.0030817408 0.221906 0.21529616
000260 51 45 1e 3e 90 1b 44 bd 9c 0d 13 3d 46 47 a1 3e
       0.1545613 -0.04787785 0.03590165 0.3149969
000270 9c 97 19 bc 42 c9 65 3e 96 8b 7b be 1f 44 9c 3d
       -0.009374525 0.22440055 -0.24564967 0.076301806
000280 f4 18 d5 3e 55 57 8a 3e b2 be b8 3e e1 fd c4 3e
       0.416206 0.27019754 0.3608299 0.38474944
000290 9b 64 d3 be f6 11 32 be 35 3d 02 be 93 01 49 3e
       -0.41287693 -0.17389664 -0.12718661 0.19629507
0002a0 8f 90 04 3e 65 4f 6f 3e 6f bd 3f be d5 60 e1 3b
       0.1294577 0.2337013 -0.18724607 0.0068779984
0002b0 87 88 c6 be e9 fb 16 be b7 12 59 bd 58 25 4c be
       -0.38776037 -0.14744534 -0.052996363 -0.1993612
0002c0 0f 36 07 be 40 d9 9a 3e 06 12 49 bc 3e 02 cd be
       -0.13204215 0.30243874 -0.0122723635 -0.40040773
0002d0 58 c9 7b be e6 1e 40 3e 6e 62 d3 bd f5 d0 c6 3d
       -0.24588525 0.18761787 -0.10321508 0.09707824
0002e0 ec 31 36 be 63 8f c1 be 79 77 92 bd fb f5 c0 be
       -0.17792481 -0.37804708 -0.07151694 -0.37687668
0002f0 7b a9 60 be d1 df d8 3d f4 fe 6b be 36 f8 97 be
       -0.21939652 0.105895646 -0.23046476 -0.29681557
000300 16 d2 57 bd e5 ed cc bd 6f a6 63 bc b3 f8 39 3e
       -0.052690588 -0.10006312 -0.013894661 0.18161277
000310 e8 d6 80 be ba 2f a0 3c de 3d ac be 23 7f fe 3d
       -0.2516396 0.019554008 -0.3364095 0.12426593
000320 a1 ba bb 3c 67 f6 19 3e a6 27 cd bc 08 0d d6 3d
       0.02291614 0.15035401 -0.02504332 0.10451704
000330 bc 6c 3d 3e d1 e8 1f be 30 99 31 3e 73 1b 12 3b
       0.1849851 -0.15616156 0.17343593 0.0022294193
000340 dc 97 d3 3c 5e e0 cf 3d 71 80 bb be b0 65 b1 3d
       0.025829248 0.101502165 -0.3662143 0.086619735
000350 6d 05 1c 3e a0 dc be 3e 73 54 eb 3d 14 47 a7 3d
       0.15236445 0.372777 0.11490717 0.08167854
000360 b1 48 99 bd 54 16 6d be eb 0e e2 bc 4d c1 cf bd
       -0.07484568 -0.23153049 -0.027595004 -0.10144291
000370 53 47 86 3e 43 37 82 3e 2b 9e 8d 3e f9 50 4f be
       0.2622629 0.25432786 0.27659735 -0.20245732
000380 cf 3b 4b bc 4e db ef 3d b3 42 44 bd e2 b1 9b bd
       -0.012404396 0.11711751 -0.04791517 -0.07602288
000390 5c 9e 88 be 48 f0 8d 3e 32 e2 de 3d 06 f8 42 3c
       -0.2668332 0.27722383 0.10882987 0.011899954
0003a0 d5 2a 92 3c cc 1f 14 bd 4b 94 b0 3d 74 db d1 bd
       0.01784269 -0.036163136 0.08622035 -0.102469355
0003b0 16 43 9c 3d 41 5c 39 bd e7 e2 a4 3c de cd 23 be
       0.07629983 -0.045253996 0.020127727 -0.15996501
0003c0 ce f3 d6 3d bd 1d 02 3e a6 04 3a be 27 8b bc be
       0.10495721 0.12706657 -0.18165836 -0.36824915
0003d0 b4 d8 ca bb c2 1b 2c 3e 0a 3f 3b bb f6 57 6d 3d
       -0.006190384 0.16807464 -0.002857151 0.057945214
0003e0 97 8a a4 3e 5f b0 ef 3d 0d 76 a5 3e a5 4b 49 3c
       0.32136986 0.11703562 0.32316628 0.0122861015
0003f0 01 71 04 3e 99 cc be 3c 7e 92 16 be 82 ed de 3d
       0.12933733 0.02329092 -0.1470432 0.10885145

model.0.bias f4 [64]
000000 36 a7 cf ba 72 bf 53 3a 30 fb ff af ec c4 3a 34
       -0.001584268 0.0008077539 -4.656271e-10 1.739424e-07
000010 5c b5 1d ba 29 43 0b 2f 8c f1 68 37 b2 09 01 b1
       -0.00060160994 1.2665836e-10 1.3884517e-05 -1.8777482e-09
000020 bc 03 8e bb 1d 60 83 bb 8b da 9a 39 de bd ae 38
       -0.0043339413 -0.0040092603 0.00029535996 8.332332e-05
000030 80 57 7a ac 67 ea 95 31 d0 37 c3 3b d1 16 1a 30
       -3.557571e-12 4.363119e-09 0.005957581 5.60573e-10
000040 23 5d 52 3a 98 82 ce 3a 00 9d 13 37 8e 5b 2c 3b
       0.0008024743 0.0015755473 8.798437e-06 0.0026299688
000050 ba 3d 91 2e 49 51 0a 32 4d 30 af 2f 59 9d 5c 38
       6.6048014e-11 8.051139e-09 3.1866634e-10 5.259863e-05
000060 95 82 24 b1 69 5f 59 b2 bf 6a 5f 30 4b 68 10 39
       -2.3939368e-09 -1.2652756e-08 8.127862e-10 0.00013771762
000070 19 57 88 bb 3e 93 7a af e4 68 e1 2e 9c 9e f8 38
       -0.0041607735 -2.2789678e-10 1.0250448e-10 0.00011855105
000080 98 89 85 b7 d2 71 22 3a 5c 02 3f af 1c 4d 44 36
       -1.5918908e-05 0.000619677 -1.7372187e-10 2.925116e-06
000090 e1 fe fc 36 e2 0c e3 b0 9f e8 1e ba 82 c7 32 31
       7.539857e-06 -1.6520085e-09 -0.0006061885 2.6015816e-09
0000a0 b3 f0 ad 32 8d 7f 39 31 67 1a 88 b1 b8 ca 26 31
       2.0249308e-08 2.6993547e-09 -3.9611225e-09 2.4271412e-09
0000b0 6c a6 65 b0 05 3e c9 bb 14 e8 8f 3a a5 b5 c0 33
       -8.3546214e-10 -0.0061414265 0.0010979199 8.973738e-08
0000c0 8e 7b d4 b0 ad 16 fc 35 5d 00 b3 33 d2 2d b7 2f
       -1.5460146e-09 1.8782063e-06 8.335403e-08 3.3320063e-10
0000d0 2e 5a b7 bb ae f9 6b 30 99 96 93 b7 13 d2 23 3a
       -0.005595467 8.584732e-10 -1.7593893e-05 0.000624926
0000e0 76 36 b2 3a e6 8c 0c 3b 85 48 18 31 40 ab 91 b4
       0.0013596553 0.0021446287 2.2160134e-09 -2.7132955e-07
0000f0 2e d7 08 3a db 0e 29 3a 03 fe 37 33 71 37 4f b6
       0.00052200526 0.0006449052 4.283903e-08 -3.0877675e-06

model.1.weight f4 [64]
000000 6f 9f 60 3f 4f 00 0e 3f 86 8a 67 3f 5f 48 16 3f
       0.87743276 0.5546922 0.90445745 0.5870418
000010 44 fd 73 3f 5b ca 5b 3f d0 3b 65 3f 6d 59 77 3f
       0.9530833 0.85855645 0.8954439 0.9662083
000020 b2 f7 6c 3f 94 8d 74 3f 08 9a 77 3f ec ff 75 3f
       0.92565453 0.9552853 0.9671941 0.9609363
000030 b1 f5 38 3f 68 ad 13 3f 26 fa 70 3f 30 ef 2d 3f
       0.72249895 0.5768647 0.94131696 0.67943096
000040 26 ae 7d 3f 18 bc 02 3f 85 be 72 3f 25 c5 79 3f
       0.99093854 0.5106826 0.9482196 0.97566444
000050 2b b2 3a 3f 47 ef 74 3f c5 01 56 3f df 44 62 3f
       0.7292811 0.9567761 0.8359645 0.8838634
000060 81 73 74 3f a0 01 5e 3f e5 fa 73 3f 21 cd 76 3f
       0.95488745 0.8672123 0.9530471 0.9640675
000070 2d 2e 7a 3f 13 21 67 3f 9f b2 6f 3f 40 9d 75 3f
       0.9772671 0.9028484 0.9363193 0.9594307
000080 11 ae 62 3f f8 ff 53 3f 41 a6 76 3f 96 ce 66 3f
       0.88546854 0.8281245 0.96347433 0.90158975
000090 be de 77 3f a5 29 67 3f 37 d0 79 3f bf b3 53 3f
       0.9682425 0.9029792 0.97583336 0.82696146
0000a0 9d de 6d 3f f7 ff 6b 3f fb 91 7a 3f 75 b8 7c 3f
       0.92917806 0.92187446 0.97879 0.9871896
0000b0 a6 9e 40 3f 25 22 71 3f a1 2c 66 3f db 46 75 3f
       0.7524208 0.94192725 0.8991185 0.9581124
0000c0 dc 22 7b 3f b1 29 7b 3f fa 7d 7b 3f 79 ad 65 3f
       0.98100066 0.9811049 0.982391 0.89717823
0000d0 88 d8 79 3f 7c 5e 70 3f c6 57 72 3f 07 0e 78 3f
       0.97596025 0.9389417 0.9466518 0.96896404
0000e0 ba 23 78 3f 66 60 6e 3f 9f ee 5f 3f 0d d0 66 3f
       0.96929514 0.9311584 0.8747348 0.9016121
0000f0 32 a9 7a 3f 34 bf f6 3e 5e 24 77 3f ea 1f 72 3f
       0.9791442 0.4819275 0.96539867 0.94579947

model.1.bias f4 [64]
000000 50 9e 25 3c 23 98 6c 3c 4c a0 c5 bb 5f 87 40 bc
       0.010108545 0.014440569 -0.006031072 -0.011751025
000010 d2 41 41 3c 1b ec d7 3b 75 6b 2c bb 62 f3 bb bb
       0.011795478 0.0065894253 -0.0026309167 -0.0057358006
000020 01 bb 01 3c 59 6d 1e bc c7 49 2f bb 39 2e a7 bb
       0.00791812 -0.009669625 -0.0026746856 -0.0051019457
000030 74 11 5e 3b f5 2d 1a 3a 78 14 a9 bb 60 fa 04 3c
       0.0033884915 0.0005881482 -0.005159911 0.008116335
000040 93 24 9b bb 76 d7 02 39 0e 71 9f 3b 5d fe 05 3c
       -0.0047345846 0.00012478032 0.004865772 0.008178321
000050 8a 92 41 bc 10 37 0c bc 76 d9 d0 3b 07 cf 85 bb
       -0.011814723 -0.00855805 0.0063735796 -0.0040835175
000060 e9 7f c4 bc 73 32 fb 3a d1 85 ac bb 8d f0 11 bc
       -0.023986774 0.0019164815 -0.0052649756 -0.008907449
000070 c9 05 a2 bb 44 33 a4 3b 6c 2b b4 bb 32 5a 34 ba
       -0.0049445373 0.005010994 -0.0054983404 -0.0006879895
000080 6d 2f 64 bb 25 5f 88 ba f1 fa 3b bc f5 67 80 3c
       -0.0034818307 -0.0010404332 -0.011473403 0.01567457
000090 60 0e f8 3a 18 45 30 3c 8a 86 19 bc 34 0f db ba
       0.0018925183 0.010758661 -0.0093704555 -0.0016712905
0000a0 21 48 f9 bb ae 47 86 bc 1f e4 ae 3b 7d f6 c3 3b
       -0.0076074754 -0.016391601 0.0053372527 0.0059803114
0000b0 06 8f d5 3b 34 bb 3d 3c 18 d2 68 b9 a1 93 0e bc
       0.006517294 0.011580277 -0.0002220351 -0.00870219
0000c0 fe 5f 38 bc 97 1c 94 3b 8a c7 e9 3b b0 08 d2 3a
       -0.011253355 0.0045200097 0.0071343826 0.0016024318
0000d0 d3 4c 99 bb 14 55 28 3c f5 a6 f2 bb 98 7c 81 3b
       -0.0046783476 0.01027419 -0.0074051567 0.0039516203
0000e0 1f 89 b2 bb ce 6f 91 3b 5d b0 4f bc b1 c3 8a bc
       -0.005448475 0.004438377 -0.012676326 -0.016939016
0000f0 38 d5 80 b9 07 07 3a bc 1c 09 93 3b 4b 9d 7f bc
       -0.00024572923 -0.0113542145 0.00448717 -0.015601466

model.1.running_mean f4 [64]
000000 89 33 90 be e7 1a 6c 3d 61 33 5f 3d 0c fc af ba
       -0.28164318 0.057642844 0.054492358 -0.0013426556
000010 b8 ad 29 bc ee 65 a7 bd 76 42 23 bd d8 8e 02 be
       -0.010356359 -0.081737384 -0.039858304 -0.12749803
000020 e7 1f ac bd 86 57 d6 3d 66 e1 01 be d0 2f 12 3e
       -0.084045224 0.104659125 -0.12683639 0.14276052
000030 18 b7 60 bd b2 56 d4 3d b5 47 b6 3d 4a 1d 12 3e
       -0.05486211 0.10368098 0.08900396 0.14268985
000040 27 6b 48 3d 75 b9 01 be 30 f1 39 be 27 aa 75 3d
       0.048930313 -0.12668402 -0.18158412 0.059976723
000050 56 03 de bd f3 94 68 3c d0 d7 bd 3d 42 73 e1 3c
       -0.1084048 0.0141956685 0.092696786 0.02752078
000060 a2 93 4c bc 7e e9 5a 3d de c4 2c 3d 16 0b ba bc
       -0.01248637 0.05344533 0.042179935 -0.022710364
000070 76 0d d0 3d ab 79 b5 bd 43 8d ed 3d 10 26 94 3d
       0.101588175 -0.08861097 0.11599209 0.07233822
000080 52 b4 50 3e 84 6c 56 3d 4f 6e 1d be 30 03 b5 bd
       0.20381287 0.052349582 -0.1537411 -0.088384986
000090 64 84 46 bd df 83 40 be 46 bf 0e be a5 53 57 bd
       -0.0484661 -0.18800305 -0.13940153 -0.052570004
0000a0 2c 51 b3 3d 7c 89 f0 3c ad a8 93 3d 19 fc 90 bd
       0.08755717 0.029362433 0.07209907 -0.07079334
0000b0 c1 f2 ec 3d 22 f6 b2 bb c7 47 1f 3d 78 14 2d bd
       0.11569739 -0.00546147 0.03888681 -0.04225585
0000c0 d6 bd 84 bd 18 7e 07 3e 6f b3 8b 3d 21 f9 2f 3e
       -0.06481521 0.13231695 0.068213336 0.17184879
0000d0 60 ac c0 3c 18 b7 34 3d d8 fb ea bd d8 87 37 3d
       0.023519695 0.044119924 -0.11473817 0.044807285
0000e0 82 2b 23 3d 53 c5 35 3d 08 85 b2 bc ee 83 8f 3c
       0.039836414 0.044377636 -0.02179195 0.017518964
0000f0 7e 1c 32 3d 6a 16 b1 3a 41 51 bc bc fa 09 30 bd
       0.043484204 0.0013510708 -0.022987964 -0.042978264

model.1.running_var f4 [64]
000000 e3 e4 88 3e 7e 05 26 3c 0f dd 37 3c ef c5 65 3b
       0.26737127 0.010133145 0.011222138 0.0035060605
000010 ae f4 b6 3a f2 a5 c0 3c 9a b3 eb 3b ab a1 72 3d
       0.0013958418 0.023516629 0.007193041 0.05923621
000020 ce 0b bd 3c bb 5d 28 3d 27 2b 66 3d 2c 2e 9a 3d
       0.023076918 0.041105013 0.056193497 0.07528338
000030 dd a0 15 3c 0a 69 0f 3d 3c d6 d4 3c bd 5a 99 3d
       0.009132591 0.035012282 0.025981061 0.0748801
000040 40 63 f7 3b 3d 71 67 3d b4 dc eb 3d 67 b3 69 3c
       0.0075496733 0.056504477 0.11516705 0.014263964
000050 1a f7 25 3d 73 5f 72 3a 6b ab ed 3c 64 3f 58 3b
       0.040518858 0.00092457904 0.029012403 0.0032996768
000060 fa e9 08 3b fd 3f 3d 3c c2 bc 4f 3c 69 bd f6 3a
       0.0020891414 0.0115509005 0.012679281 0.0018824759
000070 37 45 24 3d 44 5d e8 3c 95 9a 3c 3d e2 17 97 3c
       0.04010507 0.028364785 0.04604586 0.018444005
000080 23 33 18 3e c4 ab 46 3c a6 eb a3 3d ae b3 ca 3c
       0.14863257 0.012125913 0.08003931 0.024743881
000090 17 32 f6 3b 3e 29 f8 3d 1c 2c 86 3d 8d 27 2a 3c
       0.0075132954 0.12117241 0.06551382 0.010385406
0000a0 b1 df d1 3c 62 7e 5b 3b 0e 50 ba 3c 86 85 8f 3c
       0.02561936 0.0033492078 0.022743251 0.017519724
0000b0 24 52 43 3d 07 04 68 39 4f 2c 98 3b c8 fc be 3b
       0.047685757 0.00022126744 0.004643954 0.0058284737
0000c0 b5 7b 84 3c 31 ab 6f 3d ce 1a 91 3c f6 c0 cd 3d
       0.01617227 0.05851287 0.017712977 0.1004657
0000d0 da 5f ce 3b ee 2e 53 3c f0 f8 5b 3d b7 2a e6 3b
       0.0062980475 0.012889607 0.053704202 0.007024135
0000e0 a1 74 cf 3b 7b 93 ea 3b 84 67 4c 3b d1 21 8f 3b
       0.006331042 0.0071586943 0.003118963 0.004368045
0000f0 04 81 f5 3b d5 ec cc 3a f0 0e 1a 3b f3 22 02 3c
       0.0074921865 0.0015634546 0.0023507439 0.007942903

model.4.weight f4 [32, 64]
000000 83 5e e7 3b 19 db d4 bc f6 b4 cb 3c 53 5d 82 bd
       0.007060827 -0.02598338 0.024866562 -0.063654564
000010 d3 a8 62 bc c0 27 c7 3d e1 30 6f bd eb 33 dc bd
       -0.013834196 0.097243786 -0.058396224 -0.1075209
000020 4c cf e4 3d be f0 e1 3d 21 12 e8 3c 55 5d 04 be
       0.11172351 0.11032246 0.028328957 -0.12926228
000030 9e c3 09 3c d4 84 e7 3c 99 1c fb 3c 48 d5 b7 3d
       0.008408455 0.02826158 0.030653285 0.08976227
000040 7b e2 87 bd b8 04 c1 3d eb 23 bc 3d f8 72 d2 bd
       -0.066349946 0.09424728 0.09186538 -0.10275835
000050 2f fb ab bd 74 35 a7 bd d8 eb 95 bb af 0f 99 bb
       -0.08397519 -0.08164492 -0.004575234 -0.004671059
000060 d2 12 86 bd 15 29 97 3d 92 46 bf bd be 75 4a 3d
       -0.065465584 0.07380883 -0.09339632 0.049428694
000070 fe 18 36 3d a9 14 b2 3d 25 6b 32 3c 5b b0 c0 3c
       0.04445743 0.08695347 0.010889803 0.023521593
000080 7e e2 92 bd c4 54 53 3d 4e 95 b9 3d 48 64 9d bd
       -0.07172106 0.05159451 0.09061681 -0.07685143
000090 cd ae 2a bd d9 8c b0 3d 78 2f 4e 3d 16 60 ee 3d
       -0.04167061 0.086206146 0.05033824 0.11639421
0000a0 57 59 be bc 9e 5b 03 3d a8 5c c0 bd 03 3d 6c bd
       -0.02323596 0.032069795 -0.09392673 -0.057675373
0000b0 88 4c 0d bb 03 ea 89 bc e8 47 ac 3d 7b 87 9d 3d
       -0.0021560509 -0.016835218 0.084121525 0.076918565
0000c0 be 4b 04 be f4 68 b1 3d 6c 8a ca 3b 57 6d ce 3d
       -0.12919518 0.08662596 0.006181052 0.10079449
0000d0 31 44 5d 3d eb 9b 8f 3c 58 69 10 3d 12 d0 bf bd
       0.05402011 0.017530402 0.035256714 -0.09365858
0000e0 e2 72 89 3d d2 09 01 bd d7 52 c5 bd 2e 42 2f bd
       0.06711365 -0.031503506 -0.09634941 -0.042787723
0000f0 ad bf fd bd 85 de 1b bd 1d 53 23 3d 14 86 b3 bd
       -0.12390075 -0.038054008 0.039874185 -0.08765808
000100 c8 f1 d1 bc 64 bf c0 3d 27 03 9c 3d a9 27 af bd
       -0.025627986 0.09411505 0.07617789 -0.085524864
000110 83 88 e5 3d 0f 79 2f bc 75 2a ae bc 79 3b ff bd
       0.11207678 -0.010710015 -0.02126048 -0.124625154
000120 00 bc cf 3d b8 e8 77 bd 34 74 b6 3d cb 0f bc 3d
       0.1014328 -0.060524672 0.08908883 0.091827
000130 20 18 1f 3d e0 9c b6 bb 18 21 07 3d f9 06 b5 bc
       0.038841367 -0.0055729 0.032990545 -0.022098051
000140 b7 eb bc bd ec c6 74 bd de 56 cb 3d 3a a3 eb 3d
       -0.092246465 -0.05976002 0.09928678 0.11505742
000150 46 d1 d4 bd d0 79 b1 3d e3 06 f4 bd 92 62 e8 bc
       -0.10391478 0.08665812 -0.11915376 -0.028367314
000160 d7 a2 7e bd 6b 9d 26 bd 7f 74 c5 3b 97 40 71 3d
       -0.062167015 -0.04067747 0.0060258503 0.05889949
000170 74 7b 66 3d 5a 6b cf 3c fe c3 59 3d 74 65 00 3d
       0.056270078 0.025319744 0.05316543 0.031346753
000180 e6 45 4a 3d f3 78 19 3d 08 dc 9a bd ff eb 0f 3d
       0.049383067 0.03746886 -0.07561499 0.035137173
000190 63 01 cf bd bc 88 7c bc 3b 1c ba 3d 8d 4e 08 3c
       -0.10107686 -0.015413459 0.09087416 0.008319509
0001a0 dd 98 21 3b c6 19 49 3d 28 46 f9 bd 25 be bb bd
       0.0024657764 0.049096845 -0.12171584 -0.091671266
0001b0 19 03 e6 bd 98 40 6b bd 92 2d 4a bd b0 15 99 3d
       -0.112310596 -0.05743465 -0.049359865 0.0747484
0001c0 4e c1 03 be 7e 46 eb bd 26 4b b1 bd 6b 5d 49 bd
       -0.12866709 -0.11488055 -0.086569116 -0.049161356
0001d0 3c c2 96 3d 5e e7 b4 3d e7 a7 90 bd 9f 40 a6 3d
       0.07361266 0.08833192 -0.07063275 0.08117794
0001e0 5e b6 1f 3c 65 9c eb 3d b1 f0 f5 bc 85 29 07 bc
       0.00974807 0.11504439 -0.030021997 -0.008249645
0001f0 cb c2 00 be 64 62 8d 3c b1 e1 c1 3d a1 b6 ad bd
       -0.12574308 0.01725883 0.09466875 -0.08482099
000200 4b b5 f4 3d 86 20 c5 bd ea 09 ee bd b0 52 08 3d
       0.119486414 -0.09625344 -0.11622985 0.033281982
000210 b2 ac cd bd f9 9f 17 bd df 2d da 3d a2 9a 1c 3c
       -0.10042705 -0.037017796 0.106532805 0.009558352
000220 a7 3f 3b bd 73 12 4c 3d 9d 2c bd bd de 00 ee bd
       -0.045715 0.049822282 -0.09237025 -0.11621259
000230 35 33 95 3c 66 07 42 3d 00 2f a0 3d 44 5f de bd
       0.018212894 0.047370337 0.078214645 -0.10858014
000240 e0 68 e2 bd f4 1a fc 3c af 5e 07 3d fb ec 20 3d
       -0.110551596 0.030774571 0.03304928 0.039288502
000250 b7 e7 06 3d 6c b5 7e bc 5a 49 5c bd 29 98 bd 3c
       0.032935824 -0.015546184 -0.05378089 0.023143845
000260 46 97 cc bd a0 13 bb 3d 3e 35 26 3d 3e 0a 0e 3d
       -0.099897906 0.091346025 0.04057812 0.034677736
000270 5b 77 73 bd 9d 5f 81 bb 04 13 d6 3d 56 22 40 bd
       -0.059439998 -0.0039481656 0.10452846 -0.046907745
000280 f0 39 b5 bc c3 05 10 bd 45 2e 32 bd a9 a7 af 3d
       -0.022122353 -0.035161745 -0.043501157 0.085769005
000290 e3 17 a4 3a d6 bd 95 3c 65 d1 90 bd 6d 4f 37 3d
       0.0012519326 0.018278997 -0.07071189 0.04475348
0002a0 43 6d 95 3d e5 d1 9f bd a9 7e 8e 3d c0 67 70 3d
       0.07296231 -0.07803706 0.06957752 0.058692694
0002b0 da d9 b0 bd 56 8e a7 bc 70 e7 f9 3c 37 2a df 3c
       -0.08635302 -0.020453613 0.030505866 0.02724181
0002c0 7e 1a cc bb b9 23 9b 3d af 1c 09 bd a9 a3 e9 36
       -0.006228744 0.07575173 -0.03347462 6.9629937e-06
0002d0 7f a9 37 bd c0 66 96 3d b1 75 35 bd ed 63 19 bd
       -0.04483938 0.07343817 -0.044301692 -0.037448812
0002e0 1e a7 ad bd e3 f9 9a 3b 6c 42 9b 3d f8 e4 3c bc
       -0.08479141 0.004729496 0.07581028 -0.0115292
0002f0 ad 8e 36 bd fe b8 ef 3d 53 6d c6 39 8d a4 be bc
       -0.04456966 0.11705206 0.00037846956 -0.023271823
000300 0d 2d ce 3d 33 87 56 3d 53 e0 01 3e 5f 57 8c bd
       0.100671865 0.05237503 0.12683229 -0.06852602
000310 c0 b3 f1 bd cd 16 21 3c e9 f0 b6 3d dc 86 91 3c
       -0.11801863 0.009832096 0.08932669 0.017764501
000320 3c c8 eb 3d 33 ef c3 3c 79 13 5c bc b1 0d 11 bc
       0.11512801 0.02391777 -0.013432377 -0.008853362
000330 5b b9 c2 bd 4a 7a 29 3d 76 49 a9 3d 54 28 81 bd
       -0.0950801 0.04137639 0.08265965 -0.0630652
000340 4c 0e e0 3d 4c 4b 0b bd b7 10 b8 bd 57 d4 eb 3d
       0.10940227 -0.034007356 -0.08987563 0.1151511
000350 a1 42 96 bd 15 d5 e6 3c 92 96 32 3d 54 0a d6 3d
       -0.07336927 0.028177777 0.043600626 0.10451189
000360 1a 22 92 3c ab 97 c5 3d b0 23 99 3d ce fc 96 bd
       0.017838527 0.09648069 0.0747751 -0.073724374
000370 a4 2c 7b bd e0 f2 41 bd e2 be ce bd 21 1e ca 3d
       -0.06132187 -0.047350764 -0.10095002 0.09869028
000380 e8 e5 bc 3d 69 be 20 3d c6 b6 7f bd 64 a4 a4 3d
       0.09223539 0.03924409 -0.062430166 0.080391675
000390 4c 56 e8 3d a0 85 6d bd b1 95 63 bd 0c 41 b3 bd
       0.11344585 -0.057988763 -0.05556268 -0.08752641
0003a0 e9 87 ae bc b6 0b c4 3d ce 12 0d bd 9e 08 01 3d
       -0.021305041 0.09572546 -0.03444176 0.03150236
0003b0 be 93 b3 bd 47 03 69 bd 62 fd 03 3e ee 70 62 bd
       -0.08768414 -0.05688789 0.12889627 -0.05528348
0003c0 5d cb 5c bd a0 f8 eb bd b6 d0 9d bc d0 ea af bb
       -0.05390488 -0.11522031 -0.01926456 -0.005368568
0003d0 3a db a1 bc f9 fb 6b ba c4 d1 83 3d 49 a2 83 3b
       -0.019757856 -0.00090020854 0.06436494 0.0040171486
0003e0 8b e7 df 3d c2 b7 f7 3d f9 a0 d4 bd 31 c9 8e 3d
       0.10932835 0.12095596 -0.103822656 0.06971968
0003f0 8b 10 a8 3d 04 08 2c bc ee 07 4b 3d 81 45 91 3a
       0.0820628 -0.010499958 0.04956811 0.0011083336

model.4.bias f4 [32]
000000 35 1a eb b0 b4 8b b5 30 ec 6e ae 37 33 e2 45 2f
       -1.7105949e-09 1.3209189e-09 2.0794068e-05 1.7997408e-10
000010 a1 fb 9a af 38 dc 02 b2 8a 82 37 30 e1 00 24 31
       -2.819123e-10 -7.617068e-09 6.676052e-10 2.386564e-09
000020 4f f9 0c 30 ab 59 14 31 bd 11 ae 2f 21 10 e6 b0
       5.128599e-10 2.1587805e-09 3.166302e-10 -1.6739287e-09
000030 e9 5c 9f 31 f4 32 b2 af 8f 67 a3 b0 73 27 b7 b0
       4.6380717e-09 -3.2414216e-10 -1.1889244e-09 -1.3326215e-09
000040 97 c5 38 b0 1b c8 82 b1 d4 38 59 2e d4 22 30 af
       -6.72196e-10 -3.8062473e-09 4.939056e-11 -1.601948e-10
000050 5b ae 48 2c 0d 4f db ad 66 39 75 ae e9 fe eb 31
       2.8518496e-12 -2.4932523e-11 -5.575753e-11 6.86838e-09
000060 c0 f1 cd af 78 1e c6 30 86 60 52 b0 c8 e3 4d af
       -3.7461056e-10 1.4415056e-09 -7.6534723e-10 -1.8725566e-10
000070 fb cb 9d b0 b5 1a aa 30 e4 64 57 30 cc 2a c5 2e
       -1.1481228e-09 1.2376719e-09 7.835992e-10 8.966125e-11

model.5.weight f4 [32]
000000 ca 96 7c 3f 13 36 7b 3f 87 b1 57 3f 84 c6 7f 3f
       0.98667586 0.98129386 0.8425526 0.99912286
000010 49 30 7a 3f 00 0a b8 3e 86 43 7d 3f 95 14 76 3f
       0.9772993 0.3594513 0.9893116 0.96125156
000020 cd 4f 76 3f 8e 46 7a 3f 86 b7 72 3f d8 4e 72 3f
       0.96215516 0.9776391 0.94811285 0.94651556
000030 69 89 76 3f ea 5b 94 3e 4d b2 d4 3e 4d 58 78 3f
       0.9630342 0.28976375 0.41542283 0.97009736
000040 ca a1 79 3f e0 bc 7a 3f db 53 7a 3f 15 c3 66 3f
       0.97512496 0.9794445 0.97784203 0.9014142
000050 2d 5d 56 3f 81 94 57 3f 2e 3d 74 3f 34 0a 19 3f
       0.83735925 0.84210974 0.9540585 0.59781194
000060 7e d3 79 3f b4 eb 74 3f 30 96 27 3f 85 81 79 3f
       0.97588336 0.95672154 0.6546354 0.97463256
000070 e4 a2 7c 3f 96 46 78 3f a0 03 7d 3f ba 6c 76 3f
       0.9868605 0.96982706 0.98833656 0.96259654

model.5.bias f4 [32]
000000 1c 44 03 bc 87 2d f7 bb 94 46 39 3c 22 24 cc 3b
       -0.008011844 -0.007543269 0.011308331 0.0062298933
000010 6f 66 02 bc 8f 0a 9b 3d d3 62 d8 3b d8 78 f6 3b
       -0.007958992 0.07570373 0.0066035776 0.00752173
000020 24 e6 10 3c 3d d8 0c bc e2 5b 3a bc 68 b2 1c bc
       0.008843932 -0.008596477 -0.011374446 -0.00956402
000030 fc af 6c 3c b9 b6 a3 3b 30 bf 3e 3d 90 1d ef bb
       0.014446255 0.0049961475 0.04656905 -0.0072972253
000040 92 af c8 bb 45 41 02 bc d5 74 bc 3b 2f a7 d2 3b
       -0.0061244452 -0.007950132 0.005751232 0.0064286212
000050 0e 79 55 bb f7 ba 94 3b 59 fd 03 bc 2d a9 b9 3c
       -0.0032573375 0.0045388895 -0.008056008 0.022663677
000060 0a 73 d6 bb 40 c7 0f 3c d9 ae 84 3c 0d 55 03 bc
       -0.0065444754 0.008775532 0.016196655 -0.008015883
000070 5d ba 0d 3c 39 a5 ff 3b 6f 8d cc 3b 66 68 ed bb
       0.0086503895 0.0078016785 0.006242446 -0.0072451113

model.5.running_mean f4 [32]
000000 fa e3 14 3d a1 57 21 bd 39 85 97 bd e8 30 9d 3e
       0.036350228 -0.03939021 -0.07398457 0.30701375
000010 a3 31 1b 3d 18 16 cd 3d d3 a2 66 3e e5 56 90 3e
       0.037889134 0.1001398 0.2252305 0.28191295
000020 5f 7b 87 3d 00 d4 02 be 61 2e 8b be 06 0e 5d be
       0.06615328 -0.12776184 -0.27183822 -0.21587381
000030 0a 0d 2e 3d ca 19 ce 3b 48 9f d9 bc b6 17 66 be
       0.042492904 0.0062896954 -0.026565209 -0.22469983
000040 9e 1b 13 3f 45 1e 65 be 75 80 5a 3e d4 f8 38 3e
       0.57464015 -0.22374828 0.21338065 0.1806367
000050 67 45 63 3d be b6 f0 3d ec bb ef bd 7d 91 0e 3e
       0.05548611 0.11753605 -0.11705765 0.13922687
000060 a0 27 18 3e 00 7a 08 3e f5 95 5d 3d 4b a7 38 3c
       0.14858866 0.1332779 0.05409809 0.0112703545
000070 6f ad 1b 3e f5 52 78 bc 65 f1 8d 3e 2b 60 d1 bd
       0.15202878 -0.015156497 0.27723232 -0.10223421

model.5.running_var f4 [32]
000000 14 04 4a 3d fc 62 28 3d 54 fe d7 3d 5a 5e 31 3f
       0.049320295 0.041110024 0.10546556 0.69284594
000010 fc 59 00 3d e3 e1 82 3b 25 6d e2 3d dc 66 68 3c
       0.031335816 0.003994213 0.11055974 0.01418468
000020 4b e7 4b 3d b5 b4 6b 3d 4f bc 82 3e eb 2c 4a 3d
       0.049781125 0.057545383 0.25534293 0.049359243
000030 19 6f a7 3c 67 ca aa 38 bf 98 3d 3e 48 a7 c9 3c
       0.020438718 8.143932e-05 0.185153 0.024615899
000040 3d 1c d0 3e 2c 4f ab 3d 27 e9 97 3e 56 67 1a 3e
       0.40646544 0.0836471 0.2967007 0.15078482
000050 db d5 41 3c 46 4c 47 3e 92 c1 9b 3d 8a 6b 91 3c
       0.011830772 0.1946269 0.0760528 0.017751474
000060 e9 39 1e 3e a4 01 26 3d 10 ce da 3c 03 4c a4 3d
       0.15451778 0.04052891 0.026709586 0.080223106
000070 71 c0 81 3d d5 e0 14 3e 1f db de 3e f2 8d da 3c
       0.063355334 0.14538892 0.4352655 0.026679013

model.8.weight f4 [1, 32]
000000 33 c4 1f be 94 83 15 be b0 99 fb 3d f5 28 33 3e
       -0.15602188 -0.14600974 0.12285173 0.17496093
000010 43 3e f1 bd 52 67 2b 3e 19 de 8f 3d 31 00 e3 3c
       -0.117794536 0.16738632 0.07024784 0.027710052
000020 3d 30 95 3d 83 69 c4 bd 21 26 01 be ed 6b c3 bd
       0.07284591 -0.09590437 -0.12612201 -0.095420696
000030 64 3d 24 3e 22 f4 dd 3b 37 34 07 3e 75 8d d5 bd
       0.16039044 0.0067734877 0.13203512 -0.104273714
000040 9d 16 34 bd c1 98 ec bd 2b 72 3d 3d f1 2c cb 3c
       -0.04396688 -0.11552573 0.046251457 0.024801703
000050 25 9f a7 3a 52 50 7a 3c 88 4d 2f bd b1 fd 34 3e
       0.0012788518 0.015277939 -0.04279855 0.176749
000060 02 43 77 bd 05 8d 85 3d 7a 02 f7 3d 1c 9e 92 bd
       -0.060366638 0.06521038 0.12061019 -0.07159063
000070 cd ac e8 3d 3d 15 fe 3d 3a 54 ae 3d 18 08 38 bd
       0.11361084 0.12406395 0.08512159 -0.044929594
