examples/models/gibbsphen_mlp_filter_v00.pth (torch, 18938 bytes, 19 tensors)

model.0.weight f4 [50, 5]
0.01865002 -0.00041049352 -0.0018903005 -0.001714464 -0.00094341626 0.0012886494 -0.0003843877 -0.0064668506
-0.0025197968 0.005522549 0.00017421761 -0.03763096 0.023596637 -0.0520984 0.00020961558 0.000776791
0.014783824 -0.007734684 -0.0147530725 0.0066059357 0.0139420135 -0.003704283 0.0009818812 0.0008323122
-0.0054724594 -0.030035796 0.0006427871 -0.114945814 0.00027141362 0.0012058553 -0.0007971109 -0.000911916
0.04993083 0.0005476252 0.00016066166 0.0015366172 0.007344078 0.0026661346 -0.07971905 0.00019840602
-1.5900281e-05 -0.19129361 -0.117426045 -0.09873304 0.00016280297 -0.0054711686 -0.009828732 0.0119881565
0.009002902 -0.005362748 0.012203399 0.00063779147 -0.0031794878 -0.00053098716 -0.0050847568 -0.006495606
-0.0064915647 0.028068386 0.0042200857 -0.022353506 -0.11151626 -0.00074075535 -0.00024832564 -0.00059089443
-0.0005155721 0.037613764 -0.05348027 0.009805951 0.00245636 -0.016922696 -0.009207839 -0.009189591
0.01566381 0.007618476 -0.0046151583 0.0024932823 0.0010041767 -0.018861951 -0.00016119136 0.0031858126
0.00026731766 0.000156591 0.15396613 0.00022135416 3.0015615e-05 -0.004240314 -0.0067179743 -0.003497816
-0.001050035 0.02696062 -0.013744265 -0.010132442 0.02612884 0.0057049417 -0.0044129924 0.0042069796
-0.0048197657 0.00308078 0.08083911 -0.11991767 -8.527304e-05 -0.072126865 0.0009264159 0.04399011
-0.007633524 -0.00089432555 -0.001410436 -0.0008523256 0.0037198921 -0.15877554 0.021657845 0.0018401684
-0.003134612 -0.0019920669 -0.004007137 0.01905977 0.0018377207 -0.0033164755 -0.0026006703 -0.0035856683
0.00030749783 0.00026587432 0.0002465548 -0.13465768 0.00074299646 0.0036314197 -0.0143096885 0.00728477
0.015323846 -0.010647292 0.03768291 0.0037406203 -0.042157173 -0.0029991756 0.0039663855 -0.00049586163
-0.0006394078 0.044911433 -0.0016347141 9.046431e-05 0.0014891949 0.0013931226 0.010632473 -0.05954006
-4.1536994e-05 0.10910318 0.00018915828 -0.0001302246 0.00011189791 -0.00017192413 0.0036084272 0.01035238
-0.008842087 -0.00879454 0.005067501 0.01811574 0.06762371 -0.025301395 -0.0025338237 -0.0023075845
-0.005001934 -0.011219124 0.0084149325 0.010594188 -0.00183402 -0.0011109808 -0.0005549052 0.09595054
0.00029572938 0.0005335638 -0.12036225 0.00010893472 1.1342019e-05 -0.010169366 0.0023410574 -0.00023419978
-0.0014170702 -0.0022871024 -0.0012307477 -0.0027717059 -3.872688e-05 -0.0006738708 -0.04874753 -0.0058825845
0.0462322 0.015036151 0.011405927 -0.022554696 -0.010051636 0.0059186067 -0.0017471623 0.013549544
-0.00072191557 -0.009983772 0.0008559369 0.00024366428 -0.041465975 0.0014148646 0.0031538438 0.030403541
-0.13528174 0.05469509 -0.0011687911 -0.0032704845 -0.0058607967 0.0008505163 0.04826401 -0.0006141709
0.012367901 -0.00056472584 -0.00012883243 0.024321195 0.0010969345 0.07627777 -0.0002655873 -0.0055493615
0.050769813 -0.0037695807 -0.00044044995 -0.080328025 -0.007490723 0.0042216755 -0.0016268737 -0.0033074871
-0.00083139166 0.0021510967 0.0010548031 -0.0084723495 -0.0013355204 0.004457082 0.0013203992 7.2369105e-05
-0.0066632302 -0.0016852067 0.004529457 0.04948498 0.0033435584 -0.054880697 -0.0011540061 0.0034363475
-0.0035133497 0.0017835298 -0.00037903382 -0.050468493 0.03191562 0.003437145 0.0009603101 -0.08690593
-0.03116719 0.06287949
00000000: edc7 983c 8237 d7b9 f6c3 f7ba deb7 e0ba
00000010: 984f 77ba e6e7 a83a a587 c9b9 e0e7 d3bb
00000020: 2d23 25bb 80f6 b43b 2fae 3639 ec22 1abd
00000030: bc4d c13c 2265 55bd 41cc 5b39 90a1 4b3a
00000040: da37 723c 3b73 fdbb dfb6 71bc 9b76 d83b
00000050: 0b6d 643c 8ec3 72bb 77b2 803a 872f 5a3a
00000060: 5152 b3bb a10d f6bc b680 283a b668 ebbd
00000070: 854c 8e39 ca0d 9e3a 35f5 50ba a60d 6fba
00000080: 4584 4c3d 818e 0f3a 4977 2839 5168 c93a
00000090: 97a6 f03b 51ba 2e3b be43 a3bd 360b 5039
000000a0: 9861 85b7 79e2 43be 117d f0bd 8c34 cabd
000000b0: 17b6 2a39 7d47 b3bb b108 21bc f969 443c
000000c0: e880 133c feb9 afbb c4f0 473c 7631 273a
000000d0: f45e 50bb f231 0bba 089e a6bb 18d9 d4bb
000000e0: 31b7 d4bb acef e53c a548 8a3b b31e b7bc
000000f0: a362 e4bd 402f 42ba b431 82b9 41e6 1aba
00000100: 7527 07ba e410 1a3d 210e 5bbd 24a9 203c
00000110: e2fa 203b 77a1 8abc 7adc 16bc f08f 16bc
00000120: 6451 803c 69a4 f93b c13a 97bb 5666 233b
00000130: 949e 833a 6184 9abc 7a05 29b9 11c9 503b
00000140: c526 8c39 9432 2439 4ca9 1d3e 4e1b 6839
00000150: 0bca fb37 55f2 8abb 7422 dcbb 9d3b 65bb
00000160: 54a1 89ba 85dc dc3c a02f 61bc 8b02 26bc
00000170: 260c d63c 85f0 ba3b dd9a 90bb b4da 893b
00000180: 20ef 9dbb e9e6 493b fa8e a53d 6597 f5bd
00000190: 9dd4 b2b8 40b7 93bd b8da 723a f92e 343d
000001a0: a422 fabb 2c71 6aba 61de b8ba 9a6e 5fba
000001b0: 6fc9 733b 0e96 22be cb6b b13c ce31 f13a
000001c0: 106e 4dbb 568d 02bb 4d4e 83bb 3c23 9c3c
000001d0: addf f03a 3a59 59bb 0270 2abb 88fd 6abb
000001e0: a937 a139 0c65 8b39 0644 8139 b4e3 09be
000001f0: a6c5 423a 1dfd 6d3b 2f73 6abc 14b5 ee3b
00000200: de10 7b3c fb71 2ebc 6559 1a3d 3225 753b
00000210: 00ad 2cbd d18d 44bb 74f8 813b b6fc 01ba
00000220: ee9d 27ba 0df5 373d e743 d6ba a8b7 bd38
00000230: 1731 c33a 7099 b63a d333 2e3c 47e0 73bd
00000240: 0238 2eb8 7d71 df3d ca58 4639 e68c 08b9
00000250: bcaa ea38 8846 34b9 5d7b 6c3b 079d 293c
00000260: 67de 10bc f916 10bc 480d a63b 7667 943c
00000270: 4d7e 8a3d df44 cfbc 820e 26bb d83a 17bb
00000280: 43e7 a3bb 6bd0 37bc c9de 093c 3f93 2d3c
00000290: 8063 f0ba 549e 91ba 0f77 11ba b781 c43d
000002a0: 200c 9b39 dcde 0b3a 7c80 f6bd e273 e438
000002b0: 9a49 3e37 6a9d 26bc 6d6c 193b 8693 75b9
000002c0: fcbc b9ba 36e3 15bb 0a51 a1ba 82a5 35bb
000002d0: ac6e 22b8 b4a6 30ba 7dab 47bd b2c2 c0bb
000002e0: fa5d 3d3d 305a 763c eddf 3a3c a0c4 b8bc
000002f0: 9eaf 24bc dff0 c13b 0a01 e5ba e8fe 5d3c
00000300: ef3e 3dba fa92 23bc f460 603a 2280 7f39
00000310: 3ad8 29bd fa72 b93a b8b0 4e3b d910 f93c
00000320: 4c87 0abe f507 603d 1f32 99ba a055 56bb
00000330: ed0b c0bb 2ff5 5e3a 7cb0 453d 5000 21ba
00000340: bda2 4a3c 1c0a 14ba 3117 07b9 3e3d c73c
00000350: 04c7 8f3a 8537 9c3d 863e 8bb9 6bd7 b5bb
00000360: 02f4 4f3d 120b 77bb 31ec e6b9 0583 a4bd
00000370: bd74 f5bb fb55 8a3b d33c d5ba 6dc2 58bb
00000380: c0f1 59ba 6af9 0c3b 5241 8a3a 9ccf 0abc
00000390: a10c afba b70c 923b 3f11 ad3a dec4 9738
000003a0: 3a57 dabb 27e2 dcba d76b 943b c3b0 4a3d
000003b0: 9a1f 5b3b 95ca 60bd 0542 97ba 5834 613b
000003c0: 3a40 66bb 54c5 e93a 0fb9 c6b9 0db8 4ebd
000003d0: f4b9 023d b941 613b 52bd 7b3a bcfb b1bd
000003e0: 5652 ffbc f6c6 803d

model.0.bias f4 [50]
2.9094165e-08 -0.032402776 1.7779264e-08 0.058622487 2.7373597e-08 -5.0197553e-08 -8.717672e-09 -1.8495953e-08
-2.4153046e-08 1.3749911e-07 -2.1669683e-08 -5.109504e-09 -0.059416123 -1.3735802e-08 -1.7584386e-08 0.026465092
8.266852e-08 2.7977784e-08 -0.080190726 -5.780416e-09 -5.798633e-07 0.08296865 0.015173549 0.009941954
1.679525e-06 -2.8146019e-09 -0.02192226 0.086501226 9.1335846e-07 2.1812717e-08 -0.06578962 0.00036698018
5.0934517e-08 6.934643e-09 1.3011709e-08 1.8470271e-07 -3.929621e-09 0.085520476 1.6630151e-08 2.5153604e-08
1.1751096e-08 -0.012361421 0.031764746 -8.799397e-10 5.505077e-08 0.05569712 2.8854078e-08 7.867223e-05
-2.1458307e-08 0.0024362097
00000000: bfea f932 c6b8 04bd 04b9 9832 221e 703d
00000010: 2d23 eb32 cb98 57b3 bac4 15b2 08e1 9eb2
00000020: 1c79 cfb2 78a3 1334 2324 bab2 ac8f afb1
00000030: 525e 73bd b2fa 6bb2 790c 97b2 52cd d83c
00000040: 8087 b133 cc53 f032 093b a4bd 149d c6b1
00000050: e7a7 1bb5 78eb a93d 7a9a 783c 94e3 223c
00000060: 0a6c e135 006b 41b1 5096 b3bc 8e27 b13d
00000070: 842d 7535 ac5e bb32 b5bc 86bd 3f67 c039
00000080: 18c3 5a33 c445 ee31 1a8a 5f32 b252 4634
00000090: 5005 87b1 5c25 af3d 17da 8e32 5c11 d832
000000a0: dee1 4932 8f87 4abc c01b 023d 40e0 71b0
000000b0: f670 6c33 aa22 643d cada f732 d5fc a438
000000c0: 5153 b8b2 d1a8 1f3b

model.1.weight f4 [50]
0.43903148 0.6185111 0.6723592 0.5829836 0.5911933 0.58293146 0.4784292 0.57002884
0.62428564 0.4471974 0.63368493 0.49904466 0.67315507 0.5449659 0.58439624 0.6160985
0.471305 0.65413356 0.65275145 0.64307183 0.550757 0.66267306 0.53427523 0.6454842
0.629122 0.83669734 0.6516689 0.47134265 0.544136 0.36613098 0.54615384 0.55300605
0.47567907 0.6338204 0.713121 0.70703685 0.6202372 0.48818254 0.58280736 0.58635306
0.91560686 0.47089875 0.42851514 0.7614777 0.7473316 0.70750815 0.581089 0.8854426
0.7460781 0.63831955
00000000: bcc8 e03e be56 1e3f bc1f 2c3f 6a3e 153f
00000010: 7258 173f ff3a 153f acf4 f43e 69ed 113f
00000020: 2fd1 1f3f 0ff7 e43e 2d39 223f c882 ff3e
00000030: e453 2c3f e382 0b3f fe9a 153f a2b8 1d3f
00000040: e44e f13e 4c75 273f b81a 273f 5ba0 243f
00000050: 69fe 0c3f f1a4 293f 43c6 083f 743e 253f
00000060: 240e 213f cc31 563f c6d3 263f d353 f13e
00000070: 7f4c 0b3f 8575 bb3e bdd0 0b3f ce91 0d3f
00000080: 358c f33e 0e42 223f 198f 363f 5e00 353f
00000090: ddc7 1e3f 10f3 f93e dd32 153f 3c1b 163f
000000a0: 3665 6a3f a419 f13e 5666 db3e 34f0 423f
000000b0: 2051 3f3f 411f 353f 40c2 143f 5eac 623f
000000c0: f9fe 3e3f e968 233f

model.1.bias f4 [50]
-6.0554063e-05 -0.0006151811 -9.1084694e-05 -0.00035981217 2.447834e-05 -0.00027064362 -0.004598746 0.00016964908
9.7265875e-05 -0.009837786 8.724819e-05 -0.010722028 0.000111239526 7.84078e-05 -0.00037043515 -0.00012551111
-0.00025119612 -0.00042785585 3.9178598e-05 -0.004170124 -0.021017486 -0.00011009696 6.7878216e-05 0.00010923788
-0.000580727 0.00088673993 -0.001035573 -0.018493807 -2.582957e-05 -0.037900876 0.00030123262 -6.3231855e-05
-0.00017434004 -5.1388306e-05 -3.6513837e-05 7.8564924e-05 -6.0986247e-05 -0.00045000255 -0.0001409758 -2.4742476e-05
0.00014067322 -0.00015279926 -0.00018532302 -0.012397225 -0.00012636237 -0.00024210782 -0.00027119656 1.400699e-05
-8.23427e-05 -0.00046037912
00000000: 6efb 7db8 1b44 21ba b904 bfb8 2ca5 bcb9
00000010: d656 cd37 2ce5 8db9 14b1 96bb d4e3 3139
00000020: 38fb cb38 aa2e 21bc 04f9 b638 72ab 2fbc
00000030: 4449 e938 de6e a438 f736 c2b9 a29b 03b9
00000040: f9b2 83b9 d751 e0b9 b353 2438 89a5 88bb
00000050: dd2c acbc dbe3 e6b8 d759 8e38 a416 e538
00000060: ee3b 18ba 1c74 683a 10bc 87ba 5380 97bc
00000070: 94ac d8b7 f33d 1bbd c2ee 9d39 589b 84b8
00000080: 0ccf 36b9 c689 57b8 6f26 19b8 39c3 a438
00000090: 7ccb 7fb8 52ee ebb9 e7d2 13b9 108e cfb7
000000a0: ae81 1339 bd38 20b9 4553 42b9 bb1d 4bbc
000000b0: 2480 04b9 53de 7db9 632f 8eb9 90ff 6a37
000000c0: 67af acb8 0a5f f1b9

model.1.running_mean f4 [50]
0.0029375702 -0.033150673 -0.012940026 0.058972165 0.0013278455 -0.028002514 0.009650992 -0.013333283
-0.07969904 -4.2064778e-05 0.0010490968 -0.0005719088 -0.08213106 -0.0040567685 6.1878585e-05 0.024459813
0.030261518 0.002383877 -0.07991346 -0.0070347083 -0.006851269 0.052547168 0.018307164 0.012497504
-0.026004173 0.00014654247 -0.022181544 0.09539056 -0.009082713 0.021335373 -0.066054285 0.011313052
-8.9726236e-05 0.018660275 -0.025076322 -0.0014319861 -0.0018093102 0.086012274 0.00058565213 -0.0012699764
-0.017759714 -0.0007082447 0.051984902 -0.007720761 -0.0016648804 0.05583761 -0.00040312172 7.116018e-05
-0.0041197576 -0.007452031
00000000: 4084 403b 00c9 07bd 6702 54bc cc8c 713d
00000010: 1a0b ae3a 8765 e5bc 321f 1e3c d873 5abc
00000020: 4039 a3bd b66e 30b8 d981 893a 26ec 15ba
00000030: 5434 a8bd a4ee 84bb d0c4 8138 f25f c83c
00000040: 01e7 f73c d23a 1c3b aba9 a3bd 6983 e6bb
00000050: 9c80 e0bb b33b 573d e8f8 953c 55c2 4c3c
00000060: b406 d5bc 32a9 1939 12b6 b5bc 205c c33d
00000070: a9cf 14bc 85c7 ae3c 7847 87bd 615a 393c
00000080: 682b bcb8 6fdd 983c dc6c cdbc 7bb1 bbba
00000090: 6026 edba 3427 b03d 7386 193a 5675 a6ba
000000a0: d27c 91bc 7fa9 39ba 1fee 543d 70fe fcbb
000000b0: 1e38 daba fab5 643d 155a d3b9 d53b 9538
000000c0: 08ff 86bb 2b30 f4bb

model.1.running_var f4 [50]
1.2303683e-05 2.8773246e-07 0.00023912835 3.282046e-07 3.1661389e-06 0.0010621106 0.00012724426 0.0002469721
0.0083628595 2.9929973e-07 2.1303524e-06 8.144568e-07 0.00067228504 3.51097e-05 5.0765965e-07 7.774649e-06
0.00124874 1.0942497e-05 2.2179938e-06 0.00013370508 6.8692876e-05 0.0013089107 1.2623948e-05 8.730627e-06
0.0009244318 1.4177111e-07 3.8815497e-06 9.533353e-05 0.00011834263 0.00062105234 2.7486442e-07 0.00017039459
5.443286e-07 0.00047532484 0.00084591145 2.6804548e-06 1.0719152e-05 1.1838267e-06 7.2164005e-07 1.7547874e-05
0.00047653803 0.00019073194 0.0005325743 0.00012914241 3.7268608e-06 2.0315578e-07 2.6886738e-07 6.6384478e-06
3.3626173e-05 0.00014480179
00000000: eb6b 4e37 a679 9a34 87be 7a39 1934 b034
00000010: da79 5436 8536 8b3a df6c 0539 097c 8139
00000020: 6004 093c 71af a034 2df7 0e36 0ca1 5a35
00000030: 493c 303a c142 1338 1b46 0835 dd6f 0237
00000040: c3ac a33a ab95 3737 d8d8 1436 2f33 0c39
00000050: 350f 9038 c18f ab3a 72cb 5337 c279 1237
00000060: 9155 723a bf39 1834 423e 8236 cded c738
00000070: b72e f838 1ece 223a 1491 9334 f3ab 3239
00000080: fa1d 1235 0535 f939 28c0 5d3a dde1 3336
00000090: 68d6 3337 fae3 9e35 bab6 4135 c633 9337
000000a0: dad7 f939 37ff 4739 759c 0b3a 676a 0739
000000b0: fb1a 7a36 0923 5a34 da58 9034 d5bf de36
000000c0: d409 0d38 efd5 1739

model.4.weight f4 [30, 50]
-0.00026272374 0.0020880348 -0.0003954389 -0.002561298 -0.0008671898 0.0006987819 -0.000839783 8.8880675e-05
-0.00042842535 -0.0030605365 -0.0013502532 0.0015189225 -0.00016133256 -0.00047837917 -0.004006524 0.0001262668
-0.0008817046 -2.2886728e-05 -0.0036766184 -0.0009585106 -0.0007384061 -0.00047408664 -0.00078465854 -0.0010476373
0.00047799395 -0.00071603997 -0.00039527577 -0.00059371145 0.0001430438 4.114225e-06 -0.0015612124 -0.0012052575
-0.0011022538 -0.0011682448 -0.0004951154 -7.0255424e-05 5.106532e-05 -0.001451913 -0.0010051845 1.2053113e-05
-0.001434305 -0.00088700163 0.00017852601 0.00039059148 0.000112291884 0.0025473747 0.0021884243 -0.00043932445
7.499178e-05 -0.0007293254 -0.0061825705 0.0010342596 0.0022139451 -0.004259999 -0.006385209 0.0033397395
-0.0050132 0.001747052 0.0028085453 -0.00096006185 -0.007949073 -0.0004886505 0.0029854933 0.0006458421
-0.0009171334 0.0026581993 -0.0052470714 -0.00046830464 -0.0009759783 9.6398006e-05 0.0011150212 0.003640825
-0.0080327755 -0.007284785 0.002907375 -0.0003529044 -0.0077601187 -0.004319994 0.0014727522 -0.0053728046
-0.0059576374 -0.008614096 -0.0005655076 -0.007223702 0.0031985163 0.0036554353 -0.00451234 -0.006112955
-0.008243404 -0.00054798485 0.0046474575 -0.006503441 -0.00537041 -0.003924809 0.0038230175 0.00069717877
-0.000105991 -0.008901437 0.0010975474 0.0015812659 -0.0008588816 0.0023292268 -0.0002458067 -0.0023092816
-7.757359e-05 0.00033420898 -0.001461919 -0.00048514473 -0.00017779588 -0.0011938681 -0.0007295886 0.001265568
0.0002868341 8.249481e-08 -0.0025154883 -0.0014465988 -0.0015685373 -0.0017900256 -0.0031521348 -0.0011463603
-5.251661e-05 -0.0005213314 -0.0008241127 -0.0007587568 -0.00021749298 0.0007127104 -0.00023863668 -0.00134325
-0.0007621061 -0.0005969331 -0.0024053333 -0.0019470816 -7.9805e-05 -0.0018655395 0.00025740458 0.00017905665
-0.0056787683 -0.0019053948 -0.0016414097 0.001015287 -0.0010468747 -0.0017104043 -1.148841e-05 -0.0004634984
-7.111866e-05 0.00041216446 0.0012934761 -0.0013650941 -0.00084221066 0.0026342075 -0.00036353103 -0.0011813153
-0.0007726149 0.0032056828 -0.0012129169 -0.00134754 0.00088618044 -0.0006314699 -0.0005829187 0.0025696666
-0.0022933024 -0.0052412483 0.0018501538 -0.0015410736 0.0020824266 -0.0012963536 0.00068992795 0.0010294938
0.0007446471 -0.00232291 0.0007532869 -0.00016735365 -0.0012189152 -0.0005738054 -0.000590435 0.0076041236
0.0017283174 0.00062823086 -0.0006973126 0.00017400993 -0.0030674885 -0.0009808552 0.0022532288 0.0007251148
0.0014093507 -6.613555e-05 -0.002019896 0.0033826511 -0.005093979 0.00075327785 0.0007030999 -0.00035358703
0.0006513742 -0.0007174436 7.665265e-05 -0.00045042465 -0.0026633493 -0.00027437188 -0.00073174643 -3.1319752e-05
-0.0009711268 -0.0034200985 -0.003371708 0.0069138985 -0.00031852213 -0.003901839 -0.0003156223 3.7607264e-05
-0.0032129162 0.0030644317 -0.0015718183 -0.0054985126 -0.0013437519 -0.0018979271 0.0017905892 -0.0022841727
-0.0008331069 -0.0022747705 -7.464004e-05 -0.0014426395 0.0005393282 -0.0012728301 -0.0009172985 -0.00064689806
-0.0010685085 0.00028640978 0.003067102 -0.00051973574 -5.32974e-05 -0.0009358937 -0.0015381011 -0.0014015484
0.002446024 -0.00050645246 -0.002158988 -0.001683301 -0.002062501 0.0043231864 -0.0018520448 0.00078390545
-0.0031823304 -0.00044536934 -0.00062650314 -0.0011768778 -0.002261302 -0.0011838216 -0.0021157288 -0.0024415923
-0.0044734087 -0.0045537753 -0.0019633998 -0.0026689214 -0.0012188304 0.0026039674 -0.0021538036 -0.001965706
00000000: 2fbe 89b9 69d7 083b e952 cfb9 73db 27bb
00000010: 1f54 63ba 762e 373a e224 5cba 7365 ba38
00000020: 479e e0b9 4893 48bb fbfa b0ba 9516 c73a
00000030: 612b 29b9 f7ce fab9 2949 83bb 7c66 0439
00000040: 3222 67ba e0fc bfb7 6cf3 70bb 8f44 7bba
00000050: 9891 41ba d58e f8b9 8bb1 4dba e050 89ba
00000060: 439b fa39 a1b4 3bba 043d cfb9 4da3 1bba
00000070: 07fe 1539 ec0c 8a36 98a1 ccba bbf9 9dba
00000080: 8079 90ba ca1f 99ba a2ca 01ba 1856 93b8
00000090: f82e 5638 1e4e beba 65c0 83ba ba37 4a37
000000a0: 4aff bbba ac85 68ba b632 3b39 4dc8 cc39
000000b0: 3f7e eb38 dbf1 263b ab6b 0f3b 2155 e6b9
000000c0: e844 9d38 3330 3fba 2997 cabb fe8f 873a
000000d0: d617 113b 7697 8bbb 043b d1bb 88df 5a3b
000000e0: c545 a4bb 56fd e43a 920f 383b a9ac 7bba
000000f0: d43c 02bc c818 00ba 44a8 433b bb4d 293a
00000100: c86b 70ba 2f35 2e3b a0ef abbb c986 f5b9
00000110: ccd8 7fba 4929 ca38 e725 923a e89a 6e3b
00000120: e79b 03bc 35b5 eebb a989 3e3b 0706 b9b9
00000130: 9848 febb bc8e 8dbb 5d09 c13a 5a0e b0bb
00000140: 4938 c3bb 2322 0dbc 933e 14ba ceb4 ecbb
00000150: 339e 513b 0790 6f3b 40dc 93bb 2f4f c8bb
00000160: 580f 07bc a4a6 0fba b349 983b d11a d5bb
00000170: 44fa afbb af9b 80bb 978b 7a3b e0c2 363a
00000180: 7c47 deb8 55d7 11bc 94db 8f3a 7b42 cf3a
00000190: 9226 61ba f1a5 183b 9edf 80b9 5157 17bb
000001a0: 01af a2b8 c538 af39 dd9d bfba 065b feb9
000001b0: b86e 3ab9 917b 9cba dd41 3fba 6ae1 a53a
000001c0: 3962 9639 0028 b133 e4da 24bb cd9b bdba
000001d0: 6197 cdba 4b9f eaba 0c94 4ebb 7841 96ba
000001e0: 4845 5cb8 f5a9 08ba 4409 58ba 4fe7 46ba
000001f0: d40e 64b9 2fd5 3a3a 8c3a 7ab9 fe0f b0ba
00000200: 13c8 47ba 817b 1cba cca2 1dbb 3835 ffba
00000210: fc5c a7b8 1e85 f4ba 42f4 8639 27c1 3b39
00000220: f614 babb 71be f9ba 9224 d7ba 6113 853a
00000230: 4937 89ba a52f e0ba 58be 40b7 b401 f3b9
00000240: 8a25 95b8 c717 d839 db89 a93a f5ec b2ba
00000250: cdc7 5cba aba2 2c3b 4f98 beb9 5dd6 9aba
00000260: 4f89 4aba 6f16 523b bdfa 9eba f09f b0ba
00000270: 904e 683a 3a89 25ba 03cf 18ba da67 283b
00000280: 3b4b 16bb c7be abbb dc80 f23a d9fd c9ba
00000290: 5279 083b 69ea a9ba 48dc 343a 14f0 863a
000002a0: 6c34 433a f63b 18bb 3a78 453a a77b 2fb9
000002b0: 02c4 9fba 6e6b 16ba 6cc7 1aba 032c f93b
000002c0: b588 e23a dcaf 243a dbcb 36ba 6f76 3639
000002d0: eb07 49bb 0a90 80ba e8aa 133b a115 3e3a
000002e0: f6b9 b83a 41b2 8ab8 3b60 04bb 78af 5d3b
000002f0: 65eb a6bb 9f77 453a 3c50 383a a661 b9b9
00000300: fcc0 2a3a d312 3cba 94c0 a038 f926 ecb9
00000310: 968b 2ebb 92d9 8fb9 acd2 3fba 545d 03b8
00000320: 3793 7eba bb23 60bb e0f7 5cbb fc8d e23b
00000330: 51ff a6b9 ffb5 7fbb 1c7a a5b9 7ebc 1d38
00000340: ca8f 52bb a2d4 483b 7805 ceba de2c b4bb
00000350: d520 b0ba dec3 f8ba 34b2 ea3a 0fb2 15bb
00000360: dc64 5aba 5114 15bb 1188 9cb8 f316 bdba
00000370: b461 0d3a 17d5 a6ba dc76 70ba 9894 29ba
00000380: 320d 8cba 4529 9639 6f01 493b e03e 08ba
00000390: a68b 5fb8 c356 75ba 1c9a c9ba 29b4 b7ba
000003a0: 794d 203b 73c3 04ba cf7d 0dbb 35a2 dcba
000003b0: 062b 07bb 84a9 8d3b 50c0 f2ba 017f 4d3a
000003c0: a58e 50bb 7680 e9b9 ea3b 24ba 7741 9aba
000003d0: 5a32 14bb 762a 9bba 0aa8 0abb 1f03 20bb
000003e0: ac95 92bb d637 95bb 62ac 00bb 12e9 2ebb
000003f0: 29c1 9fba 53a7 2a3b d426 0dbb 13d3 00bb

model.4.bias f4 [30]
6.7809705e-09 -2.3373037e-08 1.9914275e-08 1.46597e-08 -4.272712e-09 -4.8233453e-09 1.3795434e-08 -6.8496764e-09
1.0282687e-08 -1.4156321e-09 -1.5399237e-10 8.524697e-09 -2.0259469e-08 -2.6177382e-08 1.8422838e-08 1.9313587e-08
8.237951e-09 -2.9363546e-08 -1.4302151e-08 -2.7437572e-09 -8.476267e-09 3.6751945e-08 -7.93135e-09 -1.2643577e-08
-2.8835242e-08 2.7725775e-08 2.6633145e-08 1.6157644e-08 2.2315197e-08 3.0509504e-08
00000000: 0cfe e831 dac5 c8b2 f40f ab32 0bda 7b32
00000010: 2ccf 92b1 98ba a5b1 f600 6d32 645a ebb1
00000020: bca7 3032 2090 c2b0 0051 29af 0474 1232
00000030: 0b07 aeb2 acdc e0b2 4040 9e32 07e7 a532
00000040: e486 0d32 1f3b fcb2 86b5 75b2 b08c 3cb1
00000050: 049f 11b2 31d9 1d33 7242 08b2 0a37 59b2
00000060: 5eb1 f7b2 a029 ee32 e8c6 e432 09cb 8a32
00000070: a3af bf32 8e09 0333

model.5.weight f4 [30]
0.63558555 0.6698272 0.49219352 0.6511037 0.62230164 0.6786519 0.4537593 0.57856256
0.54433405 0.805699 0.59492123 0.62081397 0.5664654 0.6793989 0.71560097 0.553378
0.46579728 0.77327055 0.52724135 0.84450644 0.6787315 0.6995866 0.67585236 0.6737264
0.6424601 0.55705994 0.615603 0.416733 0.6237115 0.6407581
00000000: bcb5 223f cc79 2b3f ca00 fc3e bbae 263f
00000010: 294f 1f3f 22bc 2d3f 2453 e83e ad1c 143f
00000020: 7a59 0b3f 4a42 4e3f c24c 183f aaed 1e3f
00000030: e003 113f 16ed 2d3f a031 373f 2eaa 0d3f
00000040: fb7c ee3e 0ff5 453f 4af9 063f 9331 583f
00000050: 59c1 2d3f 1b18 333f a904 2d3f 5579 2c3f
00000060: 4478 243f 7b9b 0e3f 2998 1d3f 075e d53e
00000070: 8fab 1f3f b908 243f

model.5.bias f4 [30]
0.00053617224 0.00013649132 0.00035588365 -0.00011546729 -0.00011406804 -0.0002068809 0.0005254725 1.2247288e-05
0.00045030314 -0.00033548308 0.00018039967 -0.00013505711 -6.502874e-05 -0.00057510193 -0.00020765157 0.00021085101
-0.00030371267 -7.491729e-05 0.00022610229 -0.00022773433 -0.00019054301 0.00024064127 -0.0005167637 -0.0004142908
-0.00042283323 0.00064197887 0.000187186 0.00025050627 0.00012986634 -0.0002406747
00000000: e98d 0c3a 1c1f 0f39 e595 ba39 0727 f2b8
00000010: d037 efb8 2bee 58b9 ddbf 093a b479 4d37
00000020: aa16 ec39 c7e3 afb9 ab29 3d39 1e9e 0db9
00000030: 0a60 88b8 70c2 16ba 0bbd 59b9 e317 5d39
00000040: a03b 9fb9 ea1c 9db8 df15 6d39 f8cb 6eb9
00000050: 80cc 47b9 a654 7c39 6d77 07ba 2b35 d9b9
00000060: b7af ddb9 794a 283a 5c47 4439 6256 8339
00000070: bb2c 0839 9f5d 7cb9

model.5.running_mean f4 [30]
-0.0036478748 -0.008923141 -0.005242211 -0.0012284075 -0.012001925 -0.006418733 0.01031228 0.0016799923
0.0089112865 -0.005081637 -0.0038736032 -0.0030049325 0.0058643934 -0.000107589396 -0.0006265283 0.0022115696
-0.0021190653 -0.0006638468 -0.003123369 0.007917496 -0.0014275329 -0.0062766965 -0.00044709808 -0.018026197
-0.0006665932 0.009593648 -0.0032088447 -0.0023069966 -0.0033474504 -0.019176189
00000000: 2f11 6fbb 5e32 12bc dac6 abbb 8402 a1ba
00000010: b9a3 44bc 3c54 d2bb d6f4 283c 3033 dc3a
00000020: a500 123c dc83 a6bb 47dc 7dbb 67ee 44bb
00000030: 192a c03b 9ea1 e1b8 9a3d 24ba fbef 103b
00000040: 04e0 0abb 0106 2eba 70b1 4cbb 63b8 013c
00000050: 0e1c bbba bfac cdbb 7d68 eab9 adab 93bc
00000060: 50be 2eba ad2e 1d3c 7b4b 52bb fb30 17bb
00000070: e660 5bbb 6217 9dbc

model.5.running_var f4 [30]
1.1320108e-05 0.0011730817 2.866767e-05 4.211441e-06 4.776935e-05 2.386039e-05 4.0282765e-05 3.3763532e-05
4.275716e-05 0.00035814277 8.156622e-06 1.0551676e-05 3.935641e-05 5.9377676e-06 0.00014016229 1.9308987e-05
8.074183e-06 2.0697104e-05 1.5345702e-05 5.604979e-05 1.049569e-05 1.6782386e-05 9.000914e-06 0.00012957337
4.743452e-06 3.9654722e-05 1.3058709e-05 6.77978e-06 3.4316865e-05 0.00038581854
00000000: 7eeb 3d37 17c2 993a 5a7b f037 0150 8d36
00000010: f35b 4838 cc27 c837 4af5 2838 519d 0d38
00000020: 2756 3338 1cc5 bb39 6dd8 0837 1a07 3137
00000030: a012 2538 093d c736 87f8 1239 bcf9 a137
00000040: 5a76 0737 b19e ad37 a5ba 8037 0117 6b38
00000050: a516 3037 e6c7 8c37 a202 1737 16de 0739
00000060: f129 9f36 ef52 2638 ba16 5b37 de7d e336
00000070: 74ef 0f38 b047 ca39

model.8.weight f4 [20, 30]
-0.0032308835 -0.0023514181 -0.0030931446 0.0028277675 0.0036155416 0.0027500063 -0.0037426173 -0.002062357
-0.0042420407 -0.002270514 -0.0030750614 0.0033506982 -0.00089263235 0.0025834115 -0.0019983526 -0.0024862108
0.0031241684 -0.0024671445 -0.0026815594 -0.0009100997 0.0025462026 -0.0037073656 0.0022085141 0.002003571
0.00247563 -0.0037573923 -0.003015717 -0.0027523243 -0.0029599848 0.0014176829 0.0010143201 0.00046948274
7.6316064e-05 -0.00019557626 -0.00033539772 -4.1542662e-05 -0.0006306283 0.00021030413 3.659315e-05 -0.000109665605
0.0011905013 -0.0006316907 0.0020853973 -0.00070541207 -0.00012179028 0.0011874249 0.00010864854 0.0014876159
0.0009695954 0.018089231 -0.0010932796 0.00073372957 -0.001240962 0.0004206493 -1.7065875e-05 -0.00092587195
0.00072506967 0.00061954896 0.001119668 -0.000561267 -0.00032821787 -0.00022164079 -0.00040402476 0.0020830364
-0.010540239 0.0009455201 -9.857456e-05 -0.00087927753 -0.00021715544 -0.001100638 -0.00042530333 0.002416924
-0.0015345936 0.001345552 -0.00065166166 -0.0018894956 0.0013273659 -0.0012910654 -0.00029448094 -0.0037979137
0.0007264284 -0.00026477518 0.001570928 0.0014189559 -0.028267514 -0.0002722319 -0.000490799 -0.0006557185
-0.13005115 0.001393372 -0.0036047348 -0.0031898993 -0.0034713552 0.0024623142 0.0038314788 0.0030616007
-0.004108457 -0.0024418668 -0.004671812 -0.0026467582 -0.003200851 0.0029793144 -0.00058927 0.002629523
-0.0026817997 -0.0027344176 0.0031782466 -0.0028205286 -0.0027425245 -0.0008653393 0.0029448671 -0.0038519816
0.0028180154 0.0021098163 0.0022953385 -0.003926944 -0.0037209825 -0.0031919288 -0.0033075032 0.0016226232
5.2657375e-05 0.0004936029 0.0003896159 -9.5550306e-05 -0.00043870247 -4.9031096e-05 -0.00070392503 0.00042932076
-0.0005725554 0.0011885462 0.0004441003 -0.00069288 -1.814909e-05 -0.0006249064 0.00065196503 0.00065542036
0.00010931579 0.009937222 0.00034618148 0.050829705 -0.00032146976 0.00064039096 -0.00044044113 0.0005606033
-0.00029311376 -0.0006534514 0.0007425527 -9.552437e-05 5.26457e-05 -0.00042882364 -0.0041505424 -0.0033182711
-0.0040367204 0.0025259797 0.0037473803 0.002526875 -0.004535533 -0.003141405 -0.0052623157 -0.0036524725
-0.004125196 0.0026914508 -0.0005479893 0.0028348383 -0.0034022746 -0.0028170627 0.0031011456 -0.0029501042
-0.00365616 -0.0011751583 0.002740956 -0.0044958014 0.0027222617 0.0021224145 0.0029840695 -0.004862724
-0.0043642563 -0.003351293 -0.0039520413 0.001164955 -0.003951763 -0.0033640198 -0.004008071 0.002369336
0.003784647 0.0027971112 -0.0046128747 -0.003071418 -0.0053023775 -0.0036027534 -0.004116138 0.0027141294
-0.0005622353 0.0030213753 -0.003294449 -0.0026362117 0.0031659596 -0.0032935794 -0.0034823318 -0.001604866
0.003616103 -0.0043700845 0.0022587436 0.002290376 0.0026314121 -0.004840289 -0.0044602635 -0.0034753033
-0.0038521946 0.0009449157 0.0006674098 -7.971859e-05 -0.0003879245 0.0011036468 0.0011439872 0.0022759
-0.0012109317 0.0003173697 -0.0012978241 0.00030962238 0.0006749899 0.0011803178 -0.0006939531 -2.6569418e-05
0.00048976846 0.0008755968 0.0007410842 -0.0016432671 0.00060534035 -0.0010314146 7.015813e-05 -0.00032757345
0.00033940468 0.035249665 -9.44468e-05 -0.0010399667 -0.0007427323 -0.0007727853 -9.813558e-05 0.1482554
-0.0018041253 -0.0017376493 -0.0023910368 0.0028792208 0.0029156245 0.0023531085 -0.00083599024 -0.0022137645
-0.001111263 -0.002747032 -0.001034114 0.0065341815 -0.00073084317 0.004349134 -0.002330722 -0.001583506
00000000: 3bbd 53bb 401a 1abb 5bb6 4abb 1152 393b
00000010: b9f2 6c3b 7339 343b b346 75bb 9c28 07bb
00000020: d100 8bbb e7cc 14bb f886 49bb 6397 5b3b
00000030: 8bff 69ba 744e 293b cbf6 02bb b2ef 22bb
00000040: d9be 4c3b d1af 21bb 1abd 2fbb c293 6eba
00000050: 31de 263b 46f7 72bb b8bc 103b 584e 033b
00000060: 2e3e 223b 953e 76bb 56a3 45bb 5760 34bb
00000070: 4efc 41bb 8bd1 b93a eff2 843a e824 f639
00000080: e00b a038 9a13 4db9 52d8 afb9 183e 2eb8
00000090: c050 25ba 1685 5c39 987b 1938 46fc e5b8
000000a0: 980a 9c3a 0c98 25ba 29ab 083b 67eb 38ba
000000b0: a969 ffb8 5ea3 9b3a 3eda e338 1bfc c23a
000000c0: 722c 7e3a de2f 943c 604c 8fba c257 403a
000000d0: c6a7 a2ba 988a dc39 b028 8fb7 37b6 72ba
000000e0: 9a12 3e3a 3a69 223a d3c1 923a fe21 13ba
000000f0: a814 acb9 3f68 68b9 49d3 d3b9 8d83 083b
00000100: f7b0 2cbc c8dc 773a d0b9 ceb8 517f 66ba
00000110: 38b4 63b9 4843 90ba 3ffb deb9 4265 1e3b
00000120: 6b24 c9ba 3c5d b03a 46d4 2aba f4a8 f7ba
00000130: 02fb ad3a f738 a9ba 9064 9ab9 6be6 78bb
00000140: c96d 3e3a 86d1 8ab9 99e7 cd3a 42fc b93a
00000150: 4691 e7bc 59ba 8eb9 f7a8 00ba 86e4 2bba
00000160: 212c 05be cea1 b63a 6a3d 6cbb a10d 51bb
00000170: ad7f 63bb c75e 213b 8c19 7b3b 23a5 483b
00000180: 3ca0 86bb ba07 20bb 0016 99bb 3c75 2dbb
00000190: 5ec5 51bb 9a40 433b 3e79 1aba 1354 2c3b
000001a0: 22c1 2fbb ea33 33bb 214a 503b 9ed8 38bb
000001b0: edbb 33bb f0d7 62ba acfe 403b 8771 7cbb
000001c0: 74ae 383b d844 0a3b 646d 163b 98ad 80bb
000001d0: badb 73bb ae2f 51bb b2c2 58bb 33ae d43a
000001e0: 6ddc 5c38 2165 013a 5c45 cc39 2e62 c8b8
000001f0: a601 e6b9 bda6 4db8 9c87 38ba 7516 e139
00000200: 8b17 16ba fec8 9b3a 22d6 e839 64a2 35ba
00000210: e03e 98b7 c2d0 23ba a2e8 2a3a 84d0 2b3a
00000220: 7840 e538 bbcf 223c b17f b539 cf32 503d
00000230: f18a a8b9 e9df 273a 02eb e6b9 73f5 123a
00000240: 10ad 99b9 624c 2bba dea7 423a 4154 c8b8
00000250: e4cf 5c38 bcd3 e0b9 4601 88bb 5a77 59bb
00000260: 7746 84bb e88a 253b 9c96 753b ed99 253b
00000270: cf9e 94bb 08e0 4dbb 816f acbb 525e 6fbb
00000280: a72c 87bb 0d63 303b f0a6 0fba b2c8 393b
00000290: b2f8 5ebb 789e 38bb 973c 4b3b 8956 41bb
000002a0: 309c 6fbb c507 9aba 9ca1 333b 8451 93bb
000002b0: f967 323b 3518 0b3b 6190 433b 7c57 9fbb
000002c0: 0902 8fbb 5ea1 5bbb 2080 81bb 67b1 983a
000002d0: ca7d 81bb e376 5cbb 2356 83bb dd46 1b3b
000002e0: d707 783b bd4f 373b 9927 97bb d849 49bb
000002f0: 91bf adbb 2c1c 6cbb abe0 86bb 89df 313b
00000300: f962 13ba 4402 463b afe7 57bb 4bc4 2cbb
00000310: fd7b 4f3b 18d9 57bb d537 64bb 5e5a d2ba
00000320: 24fc 6c3b ed32 8fbb 6e07 143b 221a 163b
00000330: c573 2c3b 499b 9ebb 6727 92bb eac1 63bb
00000340: 1a75 7cbb 38b4 773a 1df5 2e3a 982e a7b8
00000350: 5862 cbb9 3ea8 903a d7f1 953a 4427 153b
00000360: 20b8 9eba a464 a639 c01b aaba d054 a239
00000370: cef1 303a e5b4 9a3a 67ea 35ba 64e1 deb7
00000380: ce63 003a 4e88 653a 5245 423a e562 d7ba
00000390: b4af 1e3a 8830 87ba dc21 9338 2abe abb9
000003a0: 20f2 b139 f461 103d bd11 c6b8 7e4f 88ba
000003b0: ecb3 42ba be94 4aba 23ce cdb8 43d0 173e
000003c0: 6678 ecba d6c1 e3ba f1b2 1cbb 4fb1 3c3b
000003d0: 1014 3f3b 9c36 1a3b 5b26 5bba ce14 11bb
000003e0: cca7 91ba 8d07 34bb 1c8b 87ba b01c d63b
000003f0: 0e96 3fba 2e83 8e3b 07bf 18bb a58d cfba

model.8.bias f4 [20]
1.487008e-07 -2.7957547e-10 -3.018128e-09 -1.9308295e-08 -2.4727447e-08 -2.2185807e-08 9.5978606e-08 6.438894e-08
-1.8790178e-08 2.1222409e-08 2.4853724e-08 2.4926166e-08 -1.7612479e-08 -1.9310171e-08 -2.517581e-08 4.7621036e-09
-2.8284995e-07 -2.4660977e-08 -1.9763107e-08 6.479097e-08
00000000: 91aa 1f34 c0b2 99af 7867 4fb1 64db a5b2
00000010: 3b68 d4b2 1b93 beb2 cc1c ce33 3246 8a33
00000020: 0a68 a1b2 924c b632 eb7d d532 381d d632
00000030: 404a 97b2 84df a5b2 3142 d8b2 e89f a331
00000040: 9ada 97b4 10d6 d3b2 88c3 a9b2 3623 8b33

model.9.weight f4 [20]
1.0297729 0.67197365 0.4209249 1.0291486 0.62946707 1.0919386 1.0144914 0.74777454
0.47350577 0.7104973 0.6653848 0.6246031 0.6446287 0.72974944 0.58843654 0.72878903
0.98039293 0.7008628 0.9573699 1.0309366
00000000: 99cf 833f 7706 2c3f 7883 d73e 24bb 833f
00000010: c124 213f a5c4 8b3f dbda 813f 276e 3f3f
00000020: 596f f23e 27e3 353f a956 2a3f fde5 1f3f
00000030: 6306 253f dcd0 3a3f c7a3 163f eb91 3a3f
00000040: 08fb 7a3f bf6b 333f 3216 753f bbf5 833f

model.9.bias f4 [20]
0.0019058402 -7.7301265e-05 0.00022245033 0.00243598 -1.972534e-05 0.0032257852 0.0035150726 0.0010799251
0.00044248175 2.176212e-05 2.602319e-05 0.00012749502 -1.0603202e-05 5.9996528e-05 0.001014132 6.383536e-05
0.0058254553 -1.291111e-06 0.0057226103 0.0041579083
00000000: 63cd f93a cd1c a2b8 8e41 6939 f6a4 1f3b
00000010: d877 a5b7 b267 533b 225d 663b 468c 8d3a
00000020: e5fc e739 cc8d b637 604c da37 2fb0 0539
00000030: 68e4 31b7 c8a4 7b38 a0ec 843a 59df 8538
00000040: 76e3 be3b 3c4a adb5 bc84 bb3b 103f 883b

model.9.running_mean f4 [20]
-0.005652707 0.006214542 -0.036333915 -0.006738357 0.019806689 -0.009206918 -0.009171802 0.05028507
-0.005204104 0.0040582754 0.016503125 0.0035837193 0.006075253 0.029462235 0.0032760086 0.030452903
-0.011758576 0.0735901 -0.011065601 -0.0073577496
00000000: 583a b9bb 5ba3 cb3b dfd2 14bd 6fcd dcbb
00000010: a341 a23c 9dd8 16bc 5345 16bc b8f7 4d3d
00000020: 3087 aabb 48fb 843b 9031 873c d5dc 6a3b
00000030: ea12 c73b c95a f13c 4eb2 563b 5e78 f93c
00000040: 0ba7 40bc 68b6 963d 7f4c 35bc 4719 f1bb

model.9.running_var f4 [20]
0.00013371755 9.9282915e-05 0.000698772 0.00016158486 0.00081216515 0.00018800703 0.00019351042 0.003913341
8.9058354e-05 3.8869443e-05 0.0005846783 1.8284036e-05 9.02689e-05 0.0005638462 8.181212e-05 0.00064271555
0.00022907308 0.004578154 0.00022305251 0.00022637748
00000000: 8836 0c39 1c36 d038 cc2d 373a 1b6f 2939
00000010: 7be7 543a c123 4539 0fe9 4a39 7c3b 803b
00000020: d7c4 ba38 bf07 2338 1945 193a ab60 9937
00000030: bf4e bd38 14cf 133a 8c92 ab38 e97b 283a
00000040: 5633 7039 5704 963b 34e3 6939 be5f 6d39

model.12.weight f4 [1, 20]
0.06170982 -0.010452421 0.009257456 0.07945966 -0.010832441 0.107395686 0.11419742 0.03762947
0.024999313 -0.0073278607 -0.0089712525 -0.009831991 -0.01090464 -0.011997981 0.03594765 -0.008997313
0.1770542 -0.003300773 0.17389943 0.14056672
00000000: 70c3 7c3d a240 2bbc 96ac 173c bfbb a23d
00000010: 8d7a 31bc 45f2 db3d 56e0 e93d 5c21 1a3d
00000020: 5ccb cc3c 8d1e f0bb 29fc 12bc 5c16 21bc
00000030: 60a9 32bc 2e93 44bc d83d 133d 7769 13bc
00000040: b24d 353e c851 58bb b112 323e b9f0 0f3e
