examples/models/gibbsphen_mlp_filter.pth (torch, 11888 bytes, 19 tensors)

model.0.weight f4 [32, 5]
000000 18 7d 66 39 e2 d4 3d bc bc 7d c6 3c bf c2 c3 bc
       0.0002198111 -0.0115864 0.024229877 -0.023896573
000010 d0 d5 ef 3b 34 ef e1 bc 70 3d 9b ba 9c 83 2f 3c
       0.0073191896 -0.027579881 -0.0011843871 0.01071253
000020 6d e5 b1 3c ab d3 cf ba f1 8d 75 3c 20 d5 e6 39
       0.021715844 -0.0015855929 0.014987455 0.0004402781
000030 ea f5 35 bd 4f cc a5 3b f8 7c 8a bb bf f2 39 3a
       -0.044423975 0.005059756 -0.004226323 0.0007093362
000040 84 28 66 bc e2 7b 05 3d 48 6f 8e bc 89 37 06 bb
       -0.014047746 0.032588847 -0.017387047 -0.002047988
000050 5f dc 3e 3c 0b 6c e9 bb 47 34 e8 bc 72 82 1f bc
       0.01164922 -0.0071234754 -0.02834524 -0.00973569
000060 e4 56 31 ba bc 35 a6 3b 01 f9 6b 3c 0b 0e 6b bc
       -0.0006764962 0.0050723236 0.014402629 -0.01434661
000070 dc 06 a7 3c 62 96 53 3b bc 38 81 3c 20 21 18 3c
       0.020389013 0.003228568 0.015774123 0.009285241
000080 64 d4 12 bc 73 74 9e bc 64 59 54 3a 98 2e 96 3c
       -0.008961771 -0.019342637 0.00081004784 0.018332765
000090 58 5c f0 3b 09 7c 1d bc 54 f2 94 bc cc 41 b1 b9
       0.007335227 -0.009612092 -0.018181957 -0.00033809093
0000a0 c5 d5 36 bc 95 37 83 3a 2b fb 06 3d b1 58 f3 ba
       -0.011159365 0.0010011072 0.032954376 -0.0018565861
0000b0 96 9b 4f 3b 9b 99 f7 3b e3 0c d4 bc 51 96 df bb
       0.003167843 0.007556153 -0.025885051 -0.006823339
0000c0 e5 0f 38 3d cb 96 5b bc 11 22 eb 3c 82 ee 89 bc
       0.044937033 -0.013402651 0.028702768 -0.016837362
0000d0 93 42 0a bc d9 13 88 bb c0 ec 03 ba 99 21 2c bc
       -0.008438724 -0.0041527567 -0.0005032532 -0.010506057
0000e0 94 70 a9 3b 53 1b ae 3c 6f 31 53 3c 43 53 65 bb
       0.005170891 0.021253264 0.012890204 -0.0034992255
0000f0 ab 3a f7 3b 4e 50 99 3c d3 e2 4e bd 42 d9 bf 3c
       0.0075448356 0.01871505 -0.050509285 0.023419026
000100 26 ce 85 3a 0f bb 9c 3c 76 2a de 3b 4c e7 1c bc
       0.0010208532 0.019132165 0.006779964 -0.00957663
000110 ff de 92 bc 8e 73 18 ba 6d aa 07 3b 3a c5 18 bc
       -0.017928598 -0.0005815559 0.0020700947 -0.009324366
000120 a3 b0 47 bc a9 c3 85 bc f1 35 11 3a 43 ca d4 bc
       -0.01218811 -0.01632865 0.0005539349 -0.025975352
000130 94 39 e5 ba 79 0f 23 3c 03 59 b2 3c bc 1a b9 ba
       -0.0017488473 0.009952419 0.02177096 -0.0014122347
000140 48 ff 0c 3c 01 68 9c 3b c4 85 c4 3b 36 90 d9 bc
       0.008605786 0.0047731404 0.0059973914 -0.026558023
000150 fb fe 7f 3b 19 08 5e 3a 84 b0 a6 bc 28 b6 27 3d
       0.0039061892 0.00084698346 -0.020347841 0.040945202
000160 08 c6 a7 bc 8e ef a1 ba f7 16 e4 3b 65 b9 3c bc
       -0.02048017 -0.0012354718 0.0069607454 -0.011518811
000170 11 96 81 bc b7 8a 7f bc 57 6d 94 b9 ad 7b fb 3b
       -0.015818628 -0.015597037 -0.00028310224 0.0076746554
000180 ac 4b 2d bc 79 95 95 bc 0d 8c 7a bc e8 a8 78 b9
       -0.010577124 -0.01825975 -0.01529218 -0.00023714046
000190 5f 2b 03 bc 1f ac dc 3b 59 09 a3 3c 58 34 54 3c
       -0.008005946 0.0067343856 0.019901918 0.012951933
0001a0 7b d9 95 ba e6 fd 24 3c 41 0d 31 3c cc ca 9c bc
       -0.0011432612 0.0100703 0.010806383 -0.01913967
0001b0 e6 df 2c 3c 15 e0 0b 3c 99 bd 08 bc 4e d8 cc 3c
       0.010551428 0.008537312 -0.008345985 0.025005486
0001c0 6d 3d 29 3b 88 06 17 bd ac bd 4d 3c b9 2a 56 3c
       0.0025823966 -0.036871463 0.012557428 0.013071709
0001d0 1b 9a 0b 3b 00 d4 25 bd de 40 47 bc fc 48 be 3b
       0.002130157 -0.040485382 -0.012161462 0.0058070403
0001e0 29 87 4c 3b 44 1c 1b 3c c6 66 53 bb 29 05 d0 bc
       0.0031208491 0.009467188 -0.0032257303 -0.025393086
0001f0 33 aa df 3c 8d 5d 06 bc 8d d7 34 bc 46 20 de 3c
       0.027302837 -0.008201015 -0.011037719 0.027114999
000200 4d 45 fc 3b cd 9c b5 bc 13 dd 90 bb d1 72 76 bc
       0.007698691 -0.022169495 -0.0044208854 -0.015042023
000210 27 90 1f 3d 3d 62 9b bc 2e 50 e4 b9 f3 82 c7 3b
       0.038955834 -0.018967742 -0.00043547287 0.0060886084
000220 96 67 86 3c 90 ac 31 bd 02 1c a7 3c fb a1 2a 3a
       0.016406815 -0.04337746 0.020399097 0.00065091223
000230 8e 1b ce 3a 7f 1b 97 3c 5c 11 27 bd 32 60 be 3c
       0.0015724765 0.018445728 -0.04078804 0.023239229
000240 37 51 6d bb 9d b0 09 3c f4 7e b7 3b c9 64 74 3b
       -0.0036211738 0.008403924 0.005599851 0.0037291518
000250 4b c3 c8 bc 99 aa 4e 3b 5d d8 39 3c a7 8f 16 bc
       -0.024507185 0.003153479 0.011343089 -0.009189523
000260 6d 10 d9 bc ef 00 3e bc 58 98 b4 ba 6f 2b 0d bc
       -0.02649709 -0.011596902 -0.0013778312 -0.008616312
000270 8b 86 b0 3b e2 b5 9c 3c 3f 35 36 3c b3 3f 04 bb
       0.0053871325 0.019129697 0.011121093 -0.002017957

model.0.bias f4 [32]
000000 fc 38 25 35 2e 25 07 35 5c 96 14 35 12 a1 33 b5
       6.1550213e-07 5.034552e-07 5.53531e-07 -6.6917084e-07
000010 3c 71 1a 36 32 e2 6c 35 25 c3 e9 34 68 33 0a b4
       2.30137e-06 8.824601e-07 4.3541618e-07 -1.2870953e-07
000020 8e 70 81 b5 34 9a eb b4 d0 76 22 b5 0a b4 f1 34
       -9.644007e-07 -4.3884359e-07 -6.05226e-07 4.5020744e-07
000030 fe fd 85 b5 78 8e 3e 34 00 01 1f b2 29 c4 90 34
       -9.983194e-07 1.7746959e-07 -9.2552455e-09 2.6964815e-07
000040 c6 d2 b5 b4 18 63 30 35 57 0c ce b5 26 7a 78 35
       -3.3867235e-07 6.570931e-07 -1.5351787e-06 9.256495e-07
000050 56 6b c5 35 87 44 49 b5 f6 c9 68 b5 bc a6 b1 b5
       1.4708883e-06 -7.4978055e-07 -8.6720627e-07 -1.3236054e-06
000060 d2 62 cb b5 58 d0 7c 35 85 a0 02 35 da ef f9 b5
       -1.5153439e-06 9.4180496e-07 4.866236e-07 -1.8621752e-06
000070 73 97 b6 34 a1 6b 06 b5 68 a5 74 35 7b ce 73 36
       3.4010336e-07 -5.007551e-07 9.113778e-07 3.633001e-06

model.1.weight f4 [32]
000000 e3 d7 31 3d 77 ee 2c 3d 3a 5e ae 3d 81 0f 4a 3d
       0.043418776 0.042219605 0.08514066 0.049331192
000010 f4 ba 91 3d d3 1e 23 3d cf be 18 3d 6b 7d 16 3d
       0.071157366 0.03982432 0.037291344 0.0367407
000020 49 d4 a0 3d f0 61 1a 3d 3c 8b 22 3d 39 a2 b3 3d
       0.0785299 0.037691057 0.039683565 0.08771176
000030 52 5d 4b 3d b0 92 16 3d 3a 71 53 3d 6e 83 2b 3d
       0.049649544 0.036760986 0.051621653 0.041873388
000040 6a 8b a3 3c 93 6a 3c 3d e4 38 77 3d ae 21 7f 3d
       0.019963939 0.046000075 0.06035699 0.06228798
000050 e5 5f 88 3d f3 55 3c 3d 46 0b 02 3d e4 79 ae 3d
       0.066589154 0.045980405 0.031749032 0.085193425
000060 a6 30 1e 3d f9 49 01 3d fb db 48 3d eb 72 4e 3d
       0.038620614 0.031564686 0.049037915 0.050402563
000070 dc a1 66 3d e4 85 89 3c 72 f4 94 3d 04 7b a0 3d
       0.056306705 0.016787477 0.07273187 0.07835963

model.1.bias f4 [32]
000000 f8 ec 85 bc c7 40 5f bc de b6 85 bd 15 8b f4 bb
       -0.016348347 -0.013626284 -0.0652902 -0.007462869
000010 49 3d 43 bd 6d 9e f2 bc cd 08 f2 bb 47 4f f7 bb
       -0.047665868 -0.029616559 -0.007386303 -0.0075472924
000020 6f c3 b5 bd 3f 31 12 bd 92 75 e7 bb db 66 c8 bd
       -0.088751666 -0.035691496 -0.007063576 -0.09785243
000030 81 5b 60 bc 4c 79 ea bb 5e d0 c1 bc e7 8f 5b bc
       -0.013693691 -0.007155573 -0.023658928 -0.013401008
000040 a3 7c a8 bc 50 45 32 bc a0 e4 07 bd 56 0b 13 bd
       -0.020567244 -0.010880783 -0.03317702 -0.035899483
000050 3d 6a 8b bd 51 49 04 bd f1 6f 9a bc 73 e2 82 bd
       -0.06807373 -0.032296482 -0.018852206 -0.06390848
000060 dd 5d a8 bc 52 a4 62 bc 65 30 67 bc 2f 69 42 bc
       -0.02055257 -0.013833122 -0.014110659 -0.011865898
000070 4f 4e c8 bc ac ce 8d bc 11 ac 3c bd a4 65 ab bd
       -0.024451403 -0.017310463 -0.046062533 -0.08368996

model.1.running_mean f4 [32]
000000 83 a7 c6 ba 67 19 60 3a 42 c5 37 bc cb 78 d3 b8
       -0.0015156124 0.0008548707 -0.0112164635 -0.000100837635
000010 e6 65 5f bc d2 0b 3b 3c 1c 0c 81 ba 04 45 82 ba
       -0.013635134 0.011416392 -0.0009845528 -0.0009938781
000020 46 b0 1c 3c 65 47 26 3b 02 54 03 ba 70 b5 24 3c
       0.009563511 0.0025372144 -0.00050097716 0.010053024
000030 e6 30 f6 38 a9 cb 65 ba 11 2f 65 bc 22 c3 8b 3a
       0.00011739302 -0.00087660045 -0.013988272 0.0010663013
000040 30 0a ae ba 64 4e 0a b9 fd 3f 6c bc 8a f3 6e bc
       -0.0013278183 -0.00013189908 -0.014419553 -0.014584431
000050 99 ab 45 3c cf 4e 07 3c 10 c4 02 bb d0 78 4e bc
       0.012064838 0.0082585355 -0.0019953288 -0.012602046
000060 e8 a2 92 3b 62 8e 2c bb b1 39 e6 36 cc 72 cb 38
       0.0044749863 -0.0026329984 6.8612503e-06 9.701177e-05
000070 c0 30 d7 b9 73 1a bc ba 58 84 73 bc b1 52 22 3c
       -0.00041044317 -0.0014351144 -0.014863096 0.0099074105

model.1.running_var f4 [32]
000000 49 fe 9d 36 e7 1d 0e 38 ba 74 37 39 ca f5 1d 36
       4.7085673e-06 3.3883287e-05 0.00017495724 2.3537891e-06
000010 fb c5 80 39 b1 66 23 39 44 47 b2 37 94 f7 c9 37
       0.0002456157 0.00015583147 2.125244e-05 2.4076355e-05
000020 fe d1 02 39 ef ad 7c 37 c5 ec 60 37 09 57 0f 39
       0.00012475994 1.5060868e-05 1.3406568e-05 0.00013669966
000030 f9 96 96 36 09 2b ce 37 5c 1a 81 39 c1 17 09 38
       4.487924e-06 2.4577153e-05 0.00024624437 3.2685468e-05
000040 b6 dc 57 37 4a b6 5a 36 66 77 8b 39 17 55 8f 39
       1.2866387e-05 3.2590638e-06 0.00026601105 0.00027338482
000050 82 32 47 39 58 97 a1 38 90 f6 13 37 9f e3 65 39
       0.00018996935 7.705268e-05 8.81929e-06 0.00021923937
000060 a9 f1 b8 37 73 ba ee 36 6d 2e 34 36 50 17 5f 36
       2.2047041e-05 7.1146583e-06 2.6849114e-06 3.324316e-06
000070 27 20 82 36 a5 d4 59 37 35 68 97 39 80 b0 08 39
       3.878045e-06 1.2983718e-05 0.00028878605 0.00013035722

model.4.weight f4 [16, 32]
000000 e7 6c 6a bc b7 41 ff 3a 67 45 d0 bc 6f fb 90 3a
       -0.014308191 0.0019474541 -0.025423719 0.0011061261
000010 2d ae de bc bf d5 6b bc 1d 4f e9 39 52 f5 85 3a
       -0.027182663 -0.014394223 0.00044500167 0.0010220206
000020 67 ee 06 bd 9c 21 e9 3b b8 54 ba 3a dc 50 05 bd
       -0.032942202 0.0071146023 0.0014215922 -0.032547817
000030 12 16 5c ba b3 f8 07 3a 12 86 8b bc 5e 7d c5 3a
       -0.0008395623 0.00051869004 -0.017031703 0.001506727
000040 6a 28 f1 3b a9 61 cc ba 94 95 a3 bc 23 1c a5 bc
       0.007359554 -0.001559307 -0.019968785 -0.020155018
000050 be 54 d9 bc 3b 98 74 bc f7 df e2 3b b1 41 f3 bc
       -0.026529666 -0.014928873 0.0069236713 -0.02969441
000060 2a 7f 52 bc 5e 50 93 bb fa 22 13 ba 35 ce 9a ba
       -0.012847701 -0.0044956645 -0.0005612817 -0.0011810722
000070 ca 14 0d bb a3 b0 e9 3b d4 f3 ca bc b6 0e f8 bc
       -0.0021527284 0.0071316524 -0.02477447 -0.030280452
000080 83 38 67 bc ec c2 d5 3a 5c 13 cf bc 25 c4 d2 3a
       -0.014112595 0.0016308702 -0.025277786 0.0016080184
000090 03 85 df bc 40 79 74 bc 59 08 91 3a 20 e9 47 3a
       -0.027285105 -0.014921486 0.001106511 0.0007625986
0000a0 9a b4 fc bc 28 7a f3 3b be 04 98 3a 04 20 03 bd
       -0.030847836 0.0074303336 0.0011598093 -0.032012954
0000b0 96 78 05 ba 91 92 05 3a 9a ab 8c bc 7f e2 d1 3a
       -0.0005091516 0.00050953875 -0.01717167 0.0016012936
0000c0 69 fb e5 3b 13 3c 18 bb b0 37 a7 bc 0f 4d a7 bc
       0.007018496 -0.0023229166 -0.020412296 -0.020422487
0000d0 d1 0f d5 bc be 6f 7c bc 0b 4d bf 3b ed 24 f5 bc
       -0.026008518 -0.015407501 0.0058380417 -0.029924834
0000e0 78 b7 47 bc 3e 7a 94 bb b6 78 f5 b9 eb 3d 88 ba
       -0.012189738 -0.004531174 -0.00046819978 -0.001039443
0000f0 df 2f 17 bb 4f 06 d5 3b a2 96 ce bc 59 eb f5 bc
       -0.0023069305 0.006500996 -0.025218312 -0.03001945
000100 3c e2 18 3c 85 81 b3 bc 49 f8 c3 3c 57 99 79 3c
       0.009331282 -0.021912346 0.023922103 0.015234313
000110 ef e2 ea 3b 71 93 c0 3b b6 e5 9c bc 11 5e 99 bc
       0.007168166 0.0058769514 -0.019152503 -0.018721612
000120 dc 48 89 3c 21 c0 3a bc 4c 3d 99 bc 24 fb 22 3c
       0.016758375 -0.011398346 -0.018705986 0.009947572
000130 0c 8a 9b 3c 59 80 9e bc 80 fd a3 3b a3 a8 b2 bc
       0.018986724 -0.01934831 0.005004585 -0.021808928
000140 00 77 45 3b 21 48 85 3c 8b 52 aa 3b a7 77 9a 3b
       0.0030130744 0.016269745 0.005197828 0.0047139707
000150 51 af 0e 3c 15 97 ce 3b 87 66 12 bc 89 ec 4a 3c
       0.008708791 0.0063046315 -0.008935577 0.012385496
000160 24 29 08 3c 37 8a 5b 3c 75 93 a8 3c 93 66 a2 3c
       0.00831059 0.013399652 0.020578125 0.019824302
000170 17 f4 94 3c 6e 9f e3 3a 93 72 c0 3b 9f 60 15 3c
       0.018182797 0.0017366239 0.0058730333 0.009117275
000180 4b 04 71 bc 75 5f c9 3a 17 3d d0 bc 66 0a e3 3a
       -0.014710496 0.0015363531 -0.025419755 0.0017321825
000190 0b 9e dc bc 03 c0 64 bc 30 0b 3d 3a d0 ee 91 3a
       -0.02693083 -0.013961795 0.0007211445 0.0011133794
0001a0 a0 e3 02 bd bd e6 dc 3b 28 ee b7 3a 62 0c 05 bd
       -0.03195536 0.0067413733 0.0014032768 -0.032482512
0001b0 0b 23 a2 ba 4a 13 16 3a 5f 47 93 bc cb 44 f2 3a
       -0.0012370063 0.000572492 -0.017978368 0.0018483637
0001c0 d4 75 de 3b bb af 48 bb fa c1 aa bc a2 ca ae bc
       0.0067889486 -0.0030622322 -0.020844448 -0.021336857
0001d0 86 50 d4 bc 0c 13 6d bc 59 ca d4 3b 97 3d f2 bc
       -0.025917303 -0.014469873 0.0064938483 -0.029570384
0001e0 99 5d 44 bc ef 57 81 bb 7a c3 05 b9 81 55 c9 ba
       -0.011985206 -0.00394725 -0.00012756689 -0.0015360565
0001f0 cb e6 12 bb d1 ae 01 3c 11 27 d3 bc 8b 42 f9 bc
       -0.0022415395 0.007915215 -0.025775464 -0.030427238
000200 03 cf 1a 3c 55 05 ae bc cb 23 b2 3c 1b 49 7b 3c
       0.0094487695 -0.021242777 0.021745583 0.015337254
000210 e3 8a ea 3b 88 9e b6 3b f2 6d 9f bc be f4 97 bc
       0.00715767 0.0055730976 -0.019461606 -0.01854932
000220 a5 fb 88 3c bc 1e 3b bc c1 40 94 bc fa 22 24 3c
       0.016721556 -0.011420902 -0.018097283 0.010018105
000230 7c b2 82 3c 25 ed a2 bc 8d 98 a0 3b 90 d9 b2 bc
       0.015954249 -0.01988847 0.004900998 -0.021832258
000240 87 83 db 3a 3b a4 9c 3c cf fd af 3b 98 22 a7 3b
       0.0016747572 0.01912128 0.0053708325 0.0051005594
000250 c9 a5 18 3c a6 19 ab 3b 83 49 1c bc ed 95 47 3c
       0.00931687 0.0052215634 -0.009539011 0.012181741
000260 9a 9f fc 3b 3a 87 65 3c e0 11 99 3c 08 e4 93 3c
       0.0077094557 0.014009291 0.018685281 0.01805307
000270 be f3 b5 3c 0a 5c 35 3a 5b 24 c4 3b 33 21 17 3c
       0.022210952 0.0006918317 0.005985779 0.009224224
000280 8d b0 45 3c d1 be b2 bc 9d 60 a4 3c c8 0e 7a 3c
       0.012066019 -0.021819504 0.0200656 0.015262313
000290 fc 65 e5 3b ec 9d a2 3b 52 17 a1 bc 5e ad 99 bc
       0.007000683 0.0049626734 -0.01966444 -0.018759426
0002a0 4a 16 8b 3c d7 fd 35 bc 78 ab 99 bc 66 64 29 3c
       0.016978402 -0.011107883 -0.01875852 0.010338878
0002b0 f4 96 a4 3c bb 06 9d bc 4b e3 a8 3b 1d d4 b1 bc
       0.020091511 -0.019168248 0.0051540486 -0.021707589
0002c0 92 5d 18 3b 30 21 98 3c 63 4e b0 3b 05 36 b7 3b
       0.0023249132 0.018570513 0.005380438 0.0055911564
0002d0 ff ec 1a 3c 1d 2c b3 3b 91 12 1f bc 1c 4e 45 3c
       0.009455918 0.005467905 -0.009709016 0.0120425485
0002e0 b9 46 04 3c 16 ff 6a 3c d9 12 a5 3c c7 02 7a 3c
       0.008073502 0.014343044 0.020150589 0.015259451
0002f0 25 7e a8 3c 54 44 95 3a 4e 90 c7 3b 76 5a 0d 3c
       0.020567963 0.0011388161 0.0060902005 0.008627525
000300 16 92 64 bc f5 81 a5 3a 7d 71 cc bc 61 ed 04 3a
       -0.013950845 0.0012627231 -0.02495646 0.00050707726
000310 2d 53 dd bc 07 c6 6a bc c9 40 64 3a 22 ff 50 3a
       -0.0270172 -0.01432944 0.00087071635 0.0007972588
000320 a0 ca 04 bd 94 69 00 3c 8e c8 4c 3a d8 9e 06 bd
       -0.0324198 0.007837672 0.00078118674 -0.03286633
000330 8a 60 97 38 a8 ad 6f 3a dd 1a 8e bc 69 48 13 3b
       7.218223e-05 0.0009143003 -0.017346794 0.002247358
000340 e9 b7 d2 3b ab 38 06 bb 27 bd a9 bc 55 11 ab bc
       0.006430615 -0.0020480554 -0.020720078 -0.020882288
000350 cc c5 d7 bc a1 e5 6d bc e4 0f c3 3b 66 0a ef bc
       -0.026339434 -0.01452008 0.005952822 -0.029179763
000360 e2 9c 4c bc d8 54 60 bb 08 6d b3 ba a9 97 df b9
       -0.012488576 -0.0034230258 -0.001368911 -0.0004264687
000370 c9 f0 f4 b9 e7 8d f6 3b 20 f3 cd bc 93 9f f5 bc
       -0.00046718706 0.0075242403 -0.025140345 -0.029983317
000380 db 0e 9f 3b fe bb 88 bc e1 a5 c5 3a 27 49 21 bd
       0.004854066 -0.016691204 0.0015079343 -0.039376404
000390 56 6e 6f 3c cc 1a 0e 3c b1 06 8b bb ad ee 96 bb
       0.0146137085 0.008673381 -0.004242741 -0.004606089
0003a0 f6 72 2d 3c b3 86 f5 3c f4 91 68 bc a1 71 48 3c
       0.010586491 0.029971456 -0.014194954 0.0122341225
0003b0 e2 af 17 bd 96 01 c5 bb 12 5b 39 3c c0 c2 93 bc
       -0.03703297 -0.006012152 0.011313217 -0.0180372
0003c0 cb e5 7f bb fb ee 0a bd e5 ee 4b 3c c3 1c 49 3c
       -0.003904688 -0.033919316 0.012447094 0.012274924
0003d0 47 a6 56 3c 4d 68 32 3c a8 f2 de 3c 1c 5f 2d 3c
       0.013101167 0.010889125 0.027215317 0.010581758
0003e0 ac 3e 48 b9 93 7f f2 bb 6b 8c 14 bd 03 92 12 bd
       -0.00019096833 -0.007400462 -0.036266726 -0.03578378
0003f0 1e 19 1a bd b1 81 8d bb 20 89 56 3c 4c d0 54 3c
       -0.03762161 -0.004318439 0.013094217 0.012989115

model.4.bias f4 [16]
000000 00 3e 35 33 00 ac 15 b3 bc 26 dc b3 a4 0d c9 b4
       4.2198735e-08 -3.48482e-08 -1.0251594e-07 -3.7449092e-07
000010 a2 da 06 b5 60 ac a3 b2 10 df b3 34 7f 35 80 b6
       -5.023704e-07 -1.9054085e-08 3.3503648e-07 -3.820925e-06
000020 a4 d9 e1 b4 5f ac a1 35 0a 63 de b5 88 5d 3c 35
       -4.206787e-07 1.2045601e-06 -1.6569113e-06 7.0171563e-07
000030 a9 4b df 35 f5 74 76 b6 e0 c8 b4 36 8b 46 89 36
       1.6636815e-06 -3.6724934e-06 5.387803e-06 4.0911304e-06

model.5.weight f4 [16]
000000 39 7f cb 3d f0 0f ca 3d f4 ca c1 3d 70 0f ca 3d
       0.09936375 0.09866321 0.09462538 0.09866226
000010 d7 8e bf 3d bd 05 c1 3d 19 65 c9 3d fe 15 13 3e
       0.093534164 0.094249226 0.09833736 0.14363858
000020 c2 4a ca 3d ab a9 cc 3d 55 81 c0 3d e1 ea b7 3d
       0.0987754 0.09993299 0.09399668 0.089803465
000030 4c f4 cb 3d 21 42 cc 3d e9 0d cc 3d da 1f d3 3d
       0.09958705 0.099735506 0.09963591 0.103088096

model.5.bias f4 [16]
000000 f0 0b d2 bc 5a 3e ce bc 4a 49 22 bc 14 2b cb bc
       -0.025640458 -0.025176216 -0.009905169 -0.024800815
000010 22 cd 1e bc 69 62 1d bc 58 ae cf bc 50 4f 2c 38
       -0.009692462 -0.009605982 -0.025351688 4.108186e-05
000020 94 ae d0 bc b2 10 ce bc e9 9c 1f bc 6b 49 fb bb
       -0.02547387 -0.025154445 -0.009742 -0.007668664
000030 bd a8 ce bc 35 85 d3 bc c7 c0 cc bc 84 80 1e bc
       -0.025226945 -0.025820354 -0.024994267 -0.009674195

model.5.running_mean f4 [16]
000000 24 3b 05 bb d2 5d 05 bb 44 3c c3 39 cb c2 06 bb
       -0.002032944 -0.002035011 0.000372382 -0.0020562883
000010 90 ae ba 39 29 c4 bf 39 ad 40 05 bb 21 f8 d4 b9
       0.00035606744 0.0003657651 -0.002033274 -0.00040620661
000020 2b 8c 04 bb 83 07 07 bb 46 31 b8 39 7d 88 be 39
       -0.0020225148 -0.0020603843 0.00035131926 0.00036341316
000030 3d 8e 04 bb 9e c2 05 bb 4f 6b 08 bb 94 7b fb ba
       -0.0020226382 -0.002041019 -0.0020815914 -0.001918661

model.5.running_var f4 [16]
000000 15 d0 04 36 fa c4 03 36 e5 e9 5f 36 bf d5 05 36
       1.9790652e-06 1.9635177e-06 3.3365734e-06 1.994296e-06
000010 96 46 5e 36 3c cb 60 36 b8 9a 04 36 ae 7e 73 36
       3.3121664e-06 3.34969e-06 1.975959e-06 3.628356e-06
000020 37 23 fd 35 90 ea 07 36 27 f6 61 36 0e 73 52 36
       1.8860218e-06 2.02531e-06 3.3670892e-06 3.135941e-06
000030 5e 96 07 36 6a 9c 04 36 3f 43 06 36 51 c9 c7 35
       2.0204093e-06 1.9760578e-06 2.0006698e-06 1.4885246e-06

model.8.weight f4 [8, 16]
000000 59 38 a3 3d 27 e7 a0 3d c6 0a 14 ba dd 87 a1 3d
       0.07969732 0.07856589 -0.00056473573 0.07887242
000010 8e 3d c6 ba 3b bd c3 ba 82 01 a3 3d 8f fe 82 3c
       -0.0015124546 -0.0014933714 0.07959272 0.015990524
000020 73 d4 a0 3d 4d 14 a5 3d e9 63 fe b9 ca c7 8c ba
       0.078530215 0.08060513 -0.00048521094 -0.0010740694
000030 8e f9 a3 3d 44 9d a2 3d 14 0e a4 3d 22 fb 97 3d
       0.08006583 0.07940152 0.08010498 0.07420947
000040 0f ef cf bc 2d 60 ce bc 4c 2a 0f 3d 3f 63 d2 bc
       -0.025382547 -0.025192345 0.034952447 -0.02568209
000050 60 de 11 3d 1e 4a 10 3d 1f 38 cc bc b8 8b 60 bd
       0.035612464 0.035226934 -0.024929104 -0.054820746
000060 f2 e7 d2 bc c8 4b cd bc d3 6f 10 3d 31 6b 0f 3d
       -0.025745366 -0.02506055 0.035262894 0.035014335
000070 e8 eb ce bc 8b e5 cd bc 20 71 cf bc 52 ea f2 bc
       -0.025258973 -0.025133869 -0.025322497 -0.029652748
000080 26 8b ce bc 28 19 cd bc f8 49 16 3d c5 ef cd bc
       -0.025212836 -0.02503641 0.036691636 -0.025138745
000090 31 22 12 3d 7d 10 0e 3d 9c 41 c7 bc 09 e9 5f bd
       0.03567714 0.034683693 -0.024323277 -0.0546656
0000a0 6f 92 d0 bc d5 d1 cc bc 12 06 13 3d 19 a3 0c 3d
       -0.02546045 -0.0250024 0.03589446 0.03433523
0000b0 0f da c9 bc c4 49 d1 bc 3a 47 cb bc ac 85 f3 bc
       -0.024640111 -0.02554787 -0.024814237 -0.029726826
0000c0 3a 92 cb bc 2b 57 c8 bc 0e 59 10 3d 9a 27 cd bc
       -0.02485 -0.024455627 0.03524118 -0.025043298
0000d0 8e fe 08 3d da 3a 0f 3d e3 2b c3 bc 9e 16 59 bd
       0.033445887 0.034968235 -0.023824638 -0.053000085
0000e0 89 cd c6 bc de 29 c7 bc 40 41 13 3d 15 a4 07 3d
       -0.024267929 -0.024311956 0.0359509 0.033115465
0000f0 f4 a7 c8 bc e6 4a c9 bc 2b ae c8 bc 9e 93 e9 bc
       -0.024494149 -0.024571847 -0.024497112 -0.028512772
000100 49 67 d2 bc c8 a3 d2 bc 03 85 11 3d 65 d5 d3 bc
       -0.025684016 -0.025712863 0.03552724 -0.02585859
000110 67 58 12 3d c1 a2 10 3d 48 3a d0 bc 24 ad 67 bd
       0.03572884 0.035311464 -0.025418416 -0.056561604
000120 54 01 d5 bc d1 e6 d3 bc 76 cd 15 3d d8 41 0f 3d
       -0.02600161 -0.025866898 0.036572896 0.034974903
000130 af 41 d0 bc ac cb d2 bc 31 5d d6 bc 6e c6 fa bc
       -0.025421945 -0.025731884 -0.026167484 -0.030612197
000140 32 9a d1 bc eb 74 cd bc 58 66 15 3d 5b 14 ce bc
       -0.025586221 -0.025080165 0.036474556 -0.02515619
000150 ad 1c 0f 3d 41 5e 15 3d dd c0 c6 bc 7f 94 5f bd
       0.034939457 0.03646684 -0.024261886 -0.054584976
000160 a0 7b cc bc 12 58 cb bc 8a 87 13 3d bb ac 0b 3d
       -0.024961293 -0.024822269 0.036017932 0.034100275
000170 cc 72 ca bc 47 95 cf bc 67 88 cc bc 8b da f3 bc
       -0.024712943 -0.025339736 -0.024967385 -0.029767295
000180 9a 7e d5 bc 5e 40 d7 bc 92 18 13 3d fa cd d2 bc
       -0.026061345 -0.02627581 0.035912104 -0.025732983
000190 33 05 13 3d b0 f3 18 3d 6b 85 d1 bc 27 7a 68 bd
       0.03589363 0.037341774 -0.025576314 -0.05675712
0001a0 cc a4 d3 bc 9c f1 d1 bc d3 af 14 3d 84 b7 0c 3d
       -0.025835417 -0.025627904 0.03630049 0.0343547
0001b0 14 b9 d4 bc 6d 05 d2 bc f0 fd da bc 58 59 f9 bc
       -0.025967158 -0.025637353 -0.026732415 -0.03043811
0001c0 2d 08 cf bc e5 27 cd bc df 36 15 3d 64 27 cd bc
       -0.025272453 -0.025043437 0.036429282 -0.025043197
0001d0 12 85 12 3d 0d 4c 0f 3d 6a c1 c5 bc 0a c0 5d bd
       0.035771437 0.034984637 -0.024140079 -0.05413822
0001e0 25 d1 cc bc 45 06 ca bc 01 d2 13 3d 5d bc 05 3d
       -0.025002072 -0.024661193 0.036088947 0.03265034
0001f0 a2 5c cb bc e0 31 cd bc 6d 4f cc bc 26 ff f1 bc
       -0.024824444 -0.025048196 -0.024940217 -0.02954061

model.8.bias f4 [8]
000000 42 3d e7 b4 d2 29 8b b5 30 b1 36 35 9f 88 05 b5
       -4.3071674e-07 -1.0368478e-06 6.8058125e-07 -4.974517e-07
000010 8e 8e a2 35 33 d9 ea b4 39 76 d0 35 8d 29 bb 35
       1.211143e-06 -4.374393e-07 1.5531615e-06 1.3944679e-06

model.9.weight f4 [8]
000000 7a 0e 6f 3f 4c 96 8f 3e f4 7c 8f 3e 7b 12 89 3e
       0.93381464 0.28044355 0.2802502 0.26771912
000010 75 7f 94 3e f8 e4 8f 3e b7 1a 96 3e bd ae 8d 3e
       0.29003492 0.28104377 0.29317257 0.27672377

model.9.bias f4 [8]
000000 e5 4f be 3e 09 3a 68 3e ad 6b 67 3e 66 8a 5d 3e
       0.3717033 0.22678389 0.22599669 0.21634826
000010 2e db 70 3e 0d 49 68 3e f3 89 73 3e da c3 64 3e
       0.2352111 0.22684117 0.23783092 0.22340336

model.9.running_mean f4 [8]
000000 88 2f df 3b ef 6d ed ba 9c af e8 ba d8 2c e2 ba
       0.006811086 -0.0018114428 -0.0017752531 -0.0017255796
000010 de 0b f7 ba 69 d5 e6 ba 36 c1 f6 ba 66 18 e7 ba
       -0.0018848141 -0.0017611209 -0.0018825892 -0.0017631173

model.9.running_var f4 [8]
000000 bc f1 1b 39 ad a5 01 38 80 16 01 38 a4 8c f5 37
       0.00014872005 3.0910294e-05 3.077695e-05 2.9271767e-05
000010 a2 19 06 38 2f 7b 01 38 27 ff 07 38 47 cc fe 37
       3.1971962e-05 3.087072e-05 3.2424137e-05 3.0374284e-05

model.12.weight f4 [1, 8]
000000 36 bd 7b bf ef 7f b8 3e ce f9 b7 3e 72 0d b0 3e
       -0.9833559 0.36035106 0.35932773 0.34385258
000010 ec 10 bf 3e 69 b3 b8 3e 58 33 c1 3e eb f0 b5 3e
       0.37317598 0.3607438 0.37734485 0.35535368
