examples/models/gibbsphen_mlp_filter_128_64_32_colab.pth (torch, 56608 bytes, 19 tensors)

model.0.weight f4 [128, 5]
0	0x3c59c651	0.013291911
1	0xbbecb340	-0.0072235167
2	0xbbf7fda8	-0.00756808
3	0xbc9abd82	-0.018889192
4	0x3ca4b58d	0.020106101
5	0x3aa2541c	0.0012384686
6	0xbb9f4162	-0.004860089
7	0xbbe1120b	-0.006868606
8	0xbbd6945e	-0.0065484485
9	0xbaf39ec2	-0.0018586742
10	0x3cc86af5	0.024465064
11	0x3c9daf47	0.019248618
12	0xbdb2ace8	-0.087243855
13	0x3c9ec209	0.019379633
14	0x3cda6bef	0.026662795
15	0x3c4ab96e	0.012373311
16	0xbc0d6c7b	-0.008631821
17	0xbc84c018	-0.016204879
18	0xbb66a04c	-0.003519076
19	0x3c2436f9	0.010022872
20	0xbb0a68b7	-0.0021119544
21	0x3ad7f949	0.0016477491
22	0x3b75281f	0.0037407947
23	0x3be23af6	0.0069040013
24	0x3ba8688e	0.005139417
25	0xbb05667a	-0.002035527
26	0x3b555062	0.0032549133
27	0xbc0b39b2	-0.008497642
28	0xbbd328cf	-0.0064440737
29	0x3b18e6ae	0.0023330855
30	0xbb559582	-0.0032590334
31	0x3bc7e5db	0.006100399
32	0x3ae728c7	0.0017636054
33	0x3b8a5bec	0.0042223837
34	0x3bcb93be	0.0062126806
35	0xbc9a5a68	-0.018841937
36	0xbc95a435	-0.018266777
37	0x3cd60ca6	0.026129078
38	0xba96b2af	-0.0011497344
39	0xbc20f576	-0.009824147
40	0x39db49e4	0.00041825988
41	0xb81c6bda	-3.7293743e-05
42	0xbb77cff7	-0.0037813166
43	0x3b9312fc	0.004488347
44	0x3ba3ded0	0.0050009266
45	0xbc90dfde	-0.017684873
46	0x3beeb6a0	0.007284954
47	0x3c993369	0.018701272
48	0x3c31e66c	0.0108581595
49	0xbca3ae3b	-0.01998054
50	0xbb106ea0	-0.0022038594
51	0xba4e9e13	-0.0007881831
52	0xbbe6b486	-0.007040563
53	0xbb8eecd5	-0.0043617287
54	0xbae9c7c3	-0.0017836023
55	0x3c1eb56d	0.00968681
56	0x3b829d6d	0.003986052
57	0xbc216364	-0.009850357
58	0xbc591566	-0.013249731
59	0x3bdabeb7	0.006675567
60	0x3c0eb6cd	0.008710575
61	0xbb9e7a23	-0.004836337
62	0xbc1fa819	-0.009744667
63	0xba983387	-0.0011612036
64	0x3bc9291a	0.006138933
65	0x3c2c34c2	0.010510625
66	0xbb7bed25	-0.003844091
67	0xbc1694c4	-0.009190742
68	0xbc800964	-0.015629478
69	0x3c8faf9d	0.017539794
70	0x39c6d3ba	0.00037923252
71	0xbc45f99d	-0.012083438
72	0x398646f0	0.00025611324
73	0x3c93c7a5	0.018039534
74	0xba344cfe	-0.0006877928
75	0xbc16f69f	-0.0092140725
76	0xbc4a3fd7	-0.012344322
77	0xbb28f9fc	-0.0025783768
78	0x3b3d51bf	0.0028887836
79	0x3b2f35a6	0.0026734858
80	0x3b38570a	0.0028128051
81	0x3ab7b6d3	0.0014016278
82	0xb92ebf34	-0.00016665162
83	0xbcd7b0d0	-0.026329428
84	0x3ccf3746	0.025294911
85	0x3c4f7bca	0.012663791
86	0x3c1f976e	0.0097406935
87	0xbca6b44f	-0.02034965
88	0xbc5ff9c1	-0.013670386
89	0x3c103d46	0.008803671
90	0xbb1bf32a	-0.002379606
91	0x3a8f662e	0.0010940486
92	0x3ae2c1f4	0.0017300234
93	0xbb23672a	-0.0024933317
94	0x3b7715ed	0.0037702278
95	0xbb7b865c	-0.0038379645
96	0xbaf213ee	-0.0018469074
97	0x3b128cf8	0.0022361856
98	0x3bd0291f	0.0063525583
99	0x3c26e23d	0.010185775
100	0x3c25ae78	0.010112397
101	0x39f0edef	0.00045953642
102	0xbc8de6f5	-0.017322043
103	0xbc55a213	-0.01303913
104	0x3c9783c2	0.018495444
105	0x394fc0d1	0.00019812888
106	0xb93668b6	-0.0001739588
107	0xbbe07664	-0.0068500508
108	0xbbb0a5b7	-0.0053908485
109	0x39462daa	0.00018899763
110	0x3b757b9b	0.0037457708
111	0xbb8f6245	-0.0043757283
112	0xbc272cb6	-0.010203531
113	0xbbd9222c	-0.006626388
114	0x3b096cb7	0.002096934
115	0x3b7b8357	0.0038377845
116	0xbb8579b7	-0.0040733474
117	0x3b8d15a6	0.004305559
118	0x3ba91342	0.0051597664
119	0x3c189422	0.009312661
120	0xbb291012	-0.0025796932
121	0xbba94608	-0.005165819
122	0x3a0ef0cc	0.00054527516
123	0x3a04695e	0.00050511013
124	0x3b9bd3b5	0.004755462
125	0xbac72b8d	-0.0015195474
126	0xbbc7bebe	-0.0060957363
127	0xba0d97b8	-0.0005401331
128	0xbb32ace6	-0.00272637
129	0x3c070d93	0.008242982
130	0x3c35c80f	0.011095061
131	0x3af30d99	0.0018543481
132	0xbc4d283e	-0.0125218015
133	0xbc022f0e	-0.007945789
134	0x3bcc0d36	0.006227161
135	0xba91bf23	-0.0011119585
136	0x3be1c692	0.0068901265
137	0x3bdf3f62	0.0068129757
138	0x39a41400	0.0003129542
139	0xbc3d214b	-0.011543582
140	0x3a3c04f6	0.000717237
141	0xbba0ae55	-0.0049035945
142	0xbbd987da	-0.006638509
143	0xbbbbf559	-0.005736035
144	0xba8a6bdd	-0.001056071
145	0x3c28398f	0.010267629
146	0x3c1b231c	0.00946882
147	0xbc7fd7dc	-0.01561543
148	0xbc6b7739	-0.014371687
149	0x3bfd0b1d	0.007722272
150	0xba024df9	-0.0004970725
151	0xbca8fca2	-0.020628277
152	0x3b86232c	0.0040935483
153	0x3bf975f9	0.0076129404
154	0xb9b2bdc5	-0.00034092195
155	0xb9ad6e1d	-0.00033079172
156	0xba96800e	-0.0011482255
157	0x3bf54221	0.00748469
158	0x3be1fc16	0.006896506
159	0x3be8ba5a	0.007102293
160	0x3c27acfd	0.010234115
161	0xbb860db0	-0.004090987
162	0xbb08df88	-0.0020885188
163	0xbd100960	-0.03516519
164	0x3cf705ab	0.03015407
165	0x3c429351	0.011875943
166	0x3c1b4535	0.009476949
167	0xbcac728a	-0.02105071
168	0xbc4cbbd7	-0.012495956
169	0x3c23013a	0.009949023
170	0xba68d0b5	-0.00088811974
171	0xbb7f34eb	-0.0038941454
172	0xbbe7292f	-0.00705447
173	0xbb8ac085	-0.004234376
174	0xbb916c0e	-0.00443793
175	0xbb478039	-0.0030441417
176	0x3c1028ae	0.008798761
177	0xba56c424	-0.00081926794
178	0x3a80ccec	0.0009826696
179	0x3b8905c3	0.004181595
180	0xbb5dd649	-0.0033849648
181	0xbc022f4b	-0.007945846
182	0xbb48a070	-0.0030613206
183	0xbbbf3e31	-0.005836271
184	0xbbb56cc2	-0.0055366466
185	0xbaf1cd33	-0.0018447995
186	0xbb5e732b	-0.0033943157
187	0xbbb9b197	-0.0056669223
188	0xbbaf28a0	-0.005345419
189	0xbb7e3863	-0.0038790933
190	0xbb15c21c	-0.0022851294
191	0x3b2fbf97	0.0026817077
192	0x3baf264a	0.0053451406
193	0x3c03a368	0.008034565
194	0x3bb2f14f	0.005460895
195	0x3b8a1338	0.004213717
196	0x394319a6	0.00018606204
197	0xbc245ec1	-0.010032357
198	0xbbfe2620	-0.0077560097
199	0x3be4e215	0.006984959
200	0x3bc0c418	0.005882751
201	0x3c85ed14	0.0163484
202	0xbca1c2b5	-0.019746164
203	0xbc581c7e	-0.013190387
204	0x3c68184e	0.014165951
205	0xbcacfa87	-0.021115554
206	0x3be9a405	0.0071301484
207	0x3cd5b38b	0.02608659
208	0x3bd1f4c9	0.0064073545
209	0xbc9223d5	-0.017839352
210	0x39d978f0	0.0004147957
211	0x3a372191	0.0006985898
212	0x3abe2488	0.0014506737
213	0x39ef1e27	0.00045608098
214	0x3b82c992	0.003991314
215	0xbad1062d	-0.0015947275
216	0xbc99d75e	-0.018779453
217	0x3bf939ba	0.0076057585
218	0x3ba16efa	0.0049265595
219	0x3b7a1bea	0.003816361
220	0xbc7b14e8	-0.015324809
221	0x3d01bf91	0.031676833
222	0xbcb6a4d2	-0.02229539
223	0xbc13c75f	-0.009019702
224	0x3c774823	0.015092882
225	0xbbb8fa8a	-0.005645101
226	0xbc070528	-0.008240975
227	0xbbf19a7d	-0.0073731528
228	0x3a8d96b6	0.0010802362
229	0x3baf08e3	0.0053416356
230	0xbb5d5299	-0.0033771156
231	0x3b7b3b49	0.0038334897
232	0xbb053bf4	-0.0020329924
233	0x3c21e5c0	0.009881437
234	0xbabafc4a	-0.0014265862
235	0xbaea4759	-0.0017874046
236	0xbc26b465	-0.010174845
237	0xbbac8c00	-0.0052657127
238	0xb9f9ae21	-0.00047622717
239	0x3c3e053c	0.011597928
240	0xbb05a235	-0.0020390872
241	0x3a8eca4b	0.0010894028
242	0xbc02a087	-0.007972843
243	0xbb87256c	-0.004124334
244	0xba3fd398	-0.00073176017
245	0x3a3bb4b7	0.00071604125
246	0xbcb43dac	-0.022002064
247	0x3c48304f	0.012218549
248	0x3c2623c9	0.010140368
249	0x3b22ca1d	0.0024839707
250	0x3b953cc9	0.0045543653
251	0x3bd38744	0.006455334
252	0x3c6b037b	0.0143440915
253	0xbc06a8d2	-0.008218961
254	0xbba05cec	-0.0048938897
255	0x3c1ffa10	0.009764209

model.0.bias f4 [128]
0	0x391feca0	0.00015251571
1	0xb8d03f71	-9.93003e-05
2	0xb910b0df	-0.000137988
3	0xb8cd52f1	-9.790611e-05
4	0xb91fd9f3	-0.00015244614
5	0xb91fdf8f	-0.00015246704
6	0xb9016c29	-0.00012342691
7	0xb908607c	-0.00013005914
8	0xb90852d9	-0.00013000834
9	0x391fcd7f	0.00015239975
10	0xb8d43085	-0.00010117985
11	0x38094dd4	3.273583e-05
12	0xb8a6b157	-7.948529e-05
13	0xb91040c5	-0.00013757039
14	0x3831d7ce	4.2401072e-05
15	0xb82d2b5e	-4.1286803e-05
16	0x391fdc1c	0.00015245419
17	0x391fe25b	0.00015247746
18	0xb9005654	-0.00012239191
19	0xb91fd5ad	-0.00015243022
20	0x391fc3c6	0.00015236353
21	0xb91fdb18	-0.0001524504
22	0x391fd796	0.00015243734
23	0xb91fd920	-0.00015244307
24	0x38ad77cf	8.271599e-05
25	0x38302d94	4.2004118e-05
26	0xb91fdbcc	-0.00015245302
27	0xb80be83a	-3.335646e-05
28	0xb91f5a94	-0.00015197165
29	0x391f9c26	0.00015221591
30	0x391fd031	0.00015240979
31	0xb9049467	-0.00012643785
32	0x391e5374	0.00015099143
33	0x391b2cb2	0.00014798602
34	0x38fecd1e	0.0001214987
35	0x391fd020	0.00015240954
36	0xb91fdb38	-0.00015245087
37	0x391fe50f	0.00015248753
38	0xb8aec58b	-8.333762e-05
39	0xb808a940	-3.2582553e-05
40	0xb91fff1b	-0.00015258456
41	0xb91ff265	-0.0001525372
42	0xb83f8604	-4.566276e-05
43	0x3844fe24	4.696673e-05
44	0xb8ff2774	-0.00012166696
45	0x391fd5ee	0.00015243117
46	0xb91fda01	-0.00015244634
47	0xb8af5518	-8.3605e-05
48	0xb91fe455	-0.00015248482
49	0x391fd4bc	0.00015242671
50	0x391fd476	0.0001524257
51	0xb8e41d9a	-0.00010877401
52	0xb8f1f9c0	-0.00011538295
53	0x39200649	0.0001526113
54	0x391fbf63	0.00015234719
55	0xb91fd3e7	-0.00015242361
56	0x38afa6ab	8.3756946e-05
57	0x391fdb0f	0.00015245027
58	0x391fecf5	0.00015251695
59	0x391fd1f5	0.00015241637
60	0xb91fd500	-0.0001524277
61	0xb85f0362	-5.3170494e-05
62	0xb85bbb6e	-5.2388226e-05
63	0x391ec36c	0.00015140855
64	0x391fc803	0.00015237932
65	0xb88de114	-6.765328e-05
66	0x383741f3	4.369202e-05
67	0x391fb8cc	0.00015232264
68	0x381273dd	3.491702e-05
69	0x380a0fe8	3.2916578e-05
70	0xb8a269b6	-7.744452e-05
71	0x391fcff0	0.00015240884
72	0x391dbab7	0.00015042243
73	0xb7d1faea	-2.5031582e-05
74	0xb920068c	-0.00015261228
75	0xb91fd3af	-0.0001524228
76	0xb91fe41a	-0.00015248396
77	0xb91ff21d	-0.00015253616
78	0xb91fdd68	-0.00015245902
79	0x38983f82	7.259754e-05
80	0xb9200d00	-0.00015263632
81	0x391fdb69	0.00015245158
82	0xb91fcc48	-0.00015239522
83	0x391fd986	0.00015244455
84	0xb91efccf	-0.00015162233
85	0x391fd497	0.00015242618
86	0xb91fd223	-0.00015241704
87	0xb91fde12	-0.00015246149
88	0xb9134773	-0.0001404563
89	0x391f824d	0.00015211962
90	0xb91fd8f8	-0.00015244249
91	0x391fe413	0.00015248386
92	0xb8b19d6d	-8.4693405e-05
93	0x38918821	6.939495e-05
94	0xb8ca3591	-9.642088e-05
95	0xb8ab3169	-8.163119e-05
96	0xb891045a	-6.914949e-05
97	0x38ea2247	0.00011164374
98	0x391fd3c0	0.00015242305
99	0x391fd692	0.00015243355
100	0xb9200140	-0.00015259255
101	0xb91fd4f6	-0.00015242756
102	0xb91267b6	-0.0001396228
103	0xb91ac095	-0.00014758327
104	0xb8ea4a6e	-0.00011171853
105	0xb91fd9cb	-0.00015244556
106	0xb91fec7b	-0.00015251517
107	0x380860b0	3.2514974e-05
108	0xb8ae57b3	-8.313302e-05
109	0x38bf97c3	9.1358575e-05
110	0x391ca144	0.00014937395
111	0xb91fd9b6	-0.00015244525
112	0xb9135d40	-0.00014053751
113	0xb8c2c90e	-9.28809e-05
114	0xb91fe085	-0.00015247062
115	0x391fd4e8	0.00015242735
116	0xb9201dda	-0.0001526991
117	0x391fd684	0.00015243335
118	0x3916d194	0.00014383189
119	0xb8f327ca	-0.00011594554
120	0x391fcfe0	0.00015240861
121	0xb8fc8f22	-0.00012042957
122	0xb8f512eb	-0.00011686034
123	0x38e5b56d	0.00010953364
124	0xb91fd395	-0.00015242242
125	0x3914b58d	0.00014182013
126	0x391fd5ef	0.00015243118
127	0x391fdb9d	0.00015245234

model.1.weight f4 [128]
0	0x3ede9615	0.43473879
1	0x3edbb0fb	0.42908463
2	0x3f018dca	0.5060698
3	0x3ecb9aae	0.3976645
4	0x3ec817ad	0.39080563
5	0x3ed6711a	0.41883165
6	0x3ed45927	0.41474268
7	0x3efecac6	0.4976408
8	0x3ed051db	0.4068745
9	0x3edbbdcc	0.4291824
10	0x3eca0838	0.39459395
11	0x3ed10417	0.40823433
12	0x3eea15a9	0.4571965
13	0x3edd2b17	0.43196937
14	0x3ec9fa50	0.39448786
15	0x3ed0ee7c	0.4080695
16	0x3ec305f2	0.38090473
17	0x3eceb040	0.40368843
18	0x3ecdbc75	0.40182844
19	0x3ed5df1a	0.41771775
20	0x3ece1d98	0.40256953
21	0x3ed6001a	0.41796952
22	0x3ed75d71	0.42063478
23	0x3ed54cb0	0.4166007
24	0x3ed078d2	0.4071718
25	0x3ee1d836	0.44110268
26	0x3eef9d0b	0.46799502
27	0x3edbb1cb	0.42909083
28	0x3ed8c3f7	0.4233701
29	0x3ec5c1dd	0.38624468
30	0x3ece6447	0.4031088
31	0x3f045131	0.5168639
32	0x3ed8980e	0.4230351
33	0x3ed67bac	0.4189123
34	0x3ed40aac	0.41414392
35	0x3ed95ff3	0.42456016
36	0x3f028980	0.5099106
37	0x3ed332a5	0.41249576
38	0x3ec89396	0.391751
39	0x3ecce43c	0.4001788
40	0x3efd338c	0.4945339
41	0x3ee331ec	0.44374025
42	0x3ec2782a	0.37982303
43	0x3ec2cd3d	0.3804721
44	0x3ed2a635	0.4114243
45	0x3ec1f6ff	0.37883756
46	0x3ec80849	0.3906882
47	0x3ec50e5a	0.38487512
48	0x3ec5373f	0.38518712
49	0x3ee0763c	0.43840206
50	0x3ecd9a20	0.4015665
51	0x3efa1cc0	0.4885006
52	0x3edcc42c	0.43118417
53	0x3eebd255	0.46058908
54	0x3effa36e	0.49929374
55	0x3ed32286	0.41237277
56	0x3ed71907	0.42011282
57	0x3ecaa187	0.3957636
58	0x3efd82e3	0.4951392
59	0x3ed75205	0.42054763
60	0x3ef03077	0.46911976
61	0x3f018ceb	0.5060565
62	0x3ee631fa	0.44960004
63	0x3edafc15	0.42770448
64	0x3ee7d3c2	0.45278746
65	0x3ec78860	0.38971233
66	0x3ee71376	0.45132035
67	0x3ee11bd2	0.43966538
68	0x3ef690b3	0.48157272
69	0x3ed816d2	0.4220491
70	0x3ecdf86b	0.4022859
71	0x3eda4c1d	0.42636195
72	0x3efd9775	0.49529615
73	0x3ec9e7aa	0.39434558
74	0x3ec6f978	0.38862205
75	0x3ecdf1fe	0.40223688
76	0x3edc4029	0.430177
77	0x3ec4b858	0.38421893
78	0x3ec87958	0.39155078
79	0x3f008f79	0.5021892
80	0x3eceb1fc	0.40370166
81	0x3ec3aeee	0.38219398
82	0x3ef668db	0.48126873
83	0x3ecab8bc	0.39594066
84	0x3ed4e329	0.4157956
85	0x3edbbea7	0.42918894
86	0x3ef4a073	0.47778663
87	0x3efb61dd	0.490981
88	0x3ed77da9	0.4208806
89	0x3ee60b51	0.4493051
90	0x3ec972cd	0.393454
91	0x3ef3de4a	0.4763053
92	0x3ec7f4a8	0.39053845
93	0x3eca496a	0.39509135
94	0x3ed53098	0.41638637
95	0x3efaf2c8	0.49013352
96	0x3f005433	0.5012848
97	0x3ec7090e	0.38874096
98	0x3ecc3e8e	0.39891475
99	0x3ec258f6	0.37958497
100	0x3ec21392	0.37905556
101	0x3ec565c1	0.38554195
102	0x3ed8da86	0.4235422
103	0x3effa9f6	0.49934357
104	0x3ec25b70	0.37960386
105	0x3ec4022d	0.3828291
106	0x3ed0897d	0.40729895
107	0x3ec66eb7	0.38756344
108	0x3eecc644	0.46245015
109	0x3eec2612	0.46122795
110	0x3f030d7b	0.51192445
111	0x3ed79b50	0.42110682
112	0x3ec317eb	0.38104185
113	0x3ec8a8c2	0.39191252
114	0x3ed66f07	0.41881582
115	0x3ef5e1e2	0.48023897
116	0x3efe9635	0.49723974
117	0x3efa8040	0.48925972
118	0x3ee38e05	0.4444429
119	0x3ef7b8ec	0.48383272
120	0x3ed5ca27	0.41755792
121	0x3ed86ae2	0.42269045
122	0x3efbc938	0.49176955
123	0x3ec4ab20	0.38411808
124	0x3ec6306a	0.38708812
125	0x3ec693d8	0.3878467
126	0x3eefcc62	0.4683562
127	0x3ec5c253	0.3862482

model.1.bias f4 [128]
0	0xbbc572db	-0.0060256547
1	0x390221e6	0.00012410394
2	0xbbdfcb1f	-0.006829634
3	0xbb03b7ba	-0.0020098523
4	0xba8bc676	-0.0010664004
5	0xb9fc5802	-0.00048130756
6	0xba144379	-0.0005655806
7	0xbb87d3d4	-0.004145125
8	0xb991a5a8	-0.0002777998
9	0x3b2f4479	0.0026743694
10	0x38dc5ce8	0.000105077226
11	0xbb230b62	-0.002487861
12	0xbae88ab5	-0.0017741533
13	0xbba50dfe	-0.0050370684
14	0x3a0b7d6a	0.00053211174
15	0xbb16cac1	-0.0023009034
16	0xba934b27	-0.0011237607
17	0xbb540674	-0.003235248
18	0xb9bc7552	-0.00035945565
19	0xb9581689	-0.0002060776
20	0xbba66a1c	-0.005078567
21	0xba0c17d9	-0.000534413
22	0xbaa2c417	-0.0012418058
23	0xba73a978	-0.0009294967
24	0xba6411c2	-0.0008700156
25	0xbaf0c43e	-0.0018369032
26	0xbb2cf23b	-0.0026389498
27	0xba11b8c8	-0.00055588456
28	0x3a6dedd7	0.00090762734
29	0xbb2cb21e	-0.0026351283
30	0xbb7f3dba	-0.0038946704
31	0xba9a95f2	-0.0011793955
32	0xbbcfe5b5	-0.006344522
33	0xbb5d3d5d	-0.00337585
34	0x3a63d97e	0.00086917717
35	0xbab99f89	-0.0014161925
36	0x38012734	3.0792507e-05
37	0x3a95d79d	0.0011432056
38	0xba282d3d	-0.00064154324
39	0xbae0219b	-0.0017099859
40	0xbb4b5404	-0.003102542
41	0xba8febc7	-0.0010980301
42	0xba85ebb7	-0.0010217343
43	0xbab35752	-0.001368264
44	0xbaba09a2	-0.0014193545
45	0xb9dabd02	-0.00041721022
46	0xba9fb2b3	-0.0012183994
47	0xbb3e1604	-0.0029004822
48	0xb7e8fdfe	-2.777483e-05
49	0xbada46c2	-0.0016653168
50	0xbaa023ee	-0.0012217739
51	0xbb86fadd	-0.0041192607
52	0x39833c20	0.00025031064
53	0x39328909	0.00017026452
54	0xbc0b49c7	-0.008501477
55	0xba0366ca	-0.000501257
56	0xb9f4bc33	-0.00046679526
57	0xb9914444	-0.00027707417
58	0x3b4ece8f	0.0031556224
59	0xbb461e86	-0.0030230596
60	0x37f56e35	2.9257595e-05
61	0x3a28016b	0.00064089027
62	0x3a3bb5d3	0.0007160578
63	0x3af1055b	0.0018388437
64	0xbc1dbc0f	-0.009627356
65	0xb9895fd0	-0.00026202062
66	0xba6e431c	-0.00090889796
67	0x3b27ae0a	0.0025585913
68	0x39df25b9	0.0004256198
69	0x39954135	0.00028468078
70	0x3a111e85	0.0005535859
71	0xba1c3aa0	-0.00059596635
72	0xbb84e79f	-0.0040559317
73	0x3a2a7472	0.0006502337
74	0xbb67cd03	-0.003537
75	0x3ae60253	0.00175483
76	0xbaa9f560	-0.0012966804
77	0xba4fe673	-0.0007930763
78	0xbaca256d	-0.0015422531
79	0xba6b9e27	-0.0008988105
80	0xb90a5711	-0.0001319314
81	0x3701cb08	7.736271e-06
82	0xbb70b45b	-0.0036728594
83	0xbabe3ec0	-0.001451455
84	0xbaa5cffe	-0.0012650487
85	0xba831c76	-0.0010002989
86	0xba9bd874	-0.001189007
87	0xb9be34ff	-0.0003627911
88	0xbb2033f2	-0.0024445024
89	0xbb84c7e1	-0.0040521477
90	0x35c3138a	1.4534319e-06
91	0xbb74d287	-0.003735693
92	0x38b747ed	8.739517e-05
93	0x36af9a12	5.2333426e-06
94	0xba653a27	-0.0008744322
95	0xba04828a	-0.0005054852
96	0xbb2c929b	-0.00263325
97	0xb8bf28f8	-9.115221e-05
98	0xba22d921	-0.00062121643
99	0x3911b1b5	0.00013894479
100	0x39f472d7	0.0004662487
101	0xba68a422	-0.00088745554
102	0xb9e4dd75	-0.00043652547
103	0xbb146f94	-0.0022649514
104	0x38af2cca	8.352993e-05
105	0x39cf1078	0.00039494387
106	0xbb9203db	-0.004456026
107	0xbb3bc2f0	-0.0028650127
108	0xbb98b7c9	-0.004660581
109	0xb9fe3be5	-0.0004849128
110	0xbb76ec5a	-0.0037677498
111	0xbb3013cd	-0.002686727
112	0xb869af6c	-5.5714903e-05
113	0xba315920	-0.0006765295
114	0x38d9a830	0.00010378694
115	0xbb1fb7b4	-0.002437097
116	0xbc0b462b	-0.008500616
117	0x3a59e21b	0.00083115854
118	0xba4947d1	-0.0007678243
119	0xba7167fa	-0.0009208914
120	0xbaef57b9	-0.0018260396
121	0xba8e789a	-0.0010869682
122	0x39dc3b7d	0.00042005992
123	0xbba767b6	-0.005108799
124	0xbb1acdb2	-0.002362114
125	0xbb130398	-0.0022432562
126	0xba35deec	-0.000693782
127	0xba83ee30	-0.0010065492

model.1.running_mean f4 [128]
0	0xb9429e28	-0.000185602
1	0xbc0f86e4	-0.008760188
2	0x3a748e6a	0.00093290827
3	0xbb4a6fc2	-0.0030889367
4	0x3be7b98c	0.0070716795
5	0xbbb35d00	-0.005473733
6	0x3be0d5f9	0.006861445
7	0xbc236b3f	-0.0099743
8	0x3b34f981	0.0027614536
9	0xb98a70bf	-0.00026405414
10	0xbbf74799	-0.007546377
11	0xbadb3f59	-0.0016727253
12	0xba26c90a	-0.00063623546
13	0xba076a8d	-0.00051657186
14	0x3b3f70e0	0.0029211566
15	0xbc0bd080	-0.008533597
16	0x3ad35ba0	0.0016125329
17	0xbaae35a0	-0.0013291128
18	0x3a6180e9	0.0008602278
19	0x3bc23725	0.005926984
20	0xba097367	-0.00052433315
21	0xbbbcc548	-0.0057608224
22	0xbbe72d37	-0.0070549506
23	0x3c0893c5	0.008336012
24	0xba820334	-0.0009919167
25	0xbabed13f	-0.001455821
26	0xba2b5183	-0.00065352785
27	0x3a672ce7	0.00088186417
28	0xbc08f658	-0.008359514
29	0xba988fc0	-0.001163952
30	0xbb91c18f	-0.004448123
31	0x3c142e94	0.009044308
32	0xb9cd0160	-0.0003910167
33	0xba7c89ed	-0.00096335897
34	0xbc181db0	-0.009284422
35	0x3b9f5b6c	0.0048631933
36	0xbc435bf6	-0.011923781
37	0xbc17a56a	-0.009255746
38	0x3c10af58	0.008830868
39	0xbb4f6d24	-0.0031650746
40	0x3aefb37b	0.0018287742
41	0x3a140c02	0.0005647541
42	0x3b77edd9	0.0037830977
43	0xbaf03c84	-0.0018328582
44	0xb9606e11	-0.00021403308
45	0xbbd505fe	-0.0065009585
46	0x3b4ecbda	0.003155461
47	0xbb451bd9	-0.0030076413
48	0xbbd828cc	-0.0065966602
49	0x3ae05f8a	0.0017118317
50	0x3bd05445	0.006357702
51	0xba9347fe	-0.0011236665
52	0x39b7cb7e	0.00035056093
53	0x3b5dcfd6	0.0033845804
54	0x3b0bb411	0.0021317045
55	0x3c0d605d	0.008628932
56	0x3b4131db	0.002947918
57	0x3ba3c50c	0.004997855
58	0xb8fa9d99	-0.00011950284
59	0x3add7f90	0.0016898979
60	0x3c07ff0f	0.008300557
61	0x3bc479f9	0.0059959856
62	0x3aaa4274	0.0012989775
63	0x3958629e	0.00020636103
64	0x3b487f78	0.0030593555
65	0x3ae07591	0.0017124881
66	0xba2351c7	-0.00062301423
67	0xb91de6e6	-0.00015058703
68	0xba815812	-0.0009868166
69	0xbbb7cb11	-0.005608924
70	0xbc25dbe4	-0.010123227
71	0xbb8ddd8f	-0.0043293904
72	0x3b07d71a	0.0020727576
73	0xbb26d3d3	-0.0025455847
74	0xba1dd341	-0.0006020554
75	0xb98fa5ae	-0.00027398526
76	0x3bc6735b	0.006056232
77	0x3c0330ab	0.008007209
78	0xbbdcc1fd	-0.0067369924
79	0x3b8674ab	0.0041032634
80	0x3bdca368	0.0067333467
81	0xbb3dae0f	-0.0028942858
82	0xba6346db	-0.0008669921
83	0xbbb1e38a	-0.005428736
84	0xbacb31dc	-0.001550253
85	0xba8531e4	-0.0010161963
86	0x3b2dec3a	0.0026538507
87	0x3b6e8159	0.0036393015
88	0xbafdd7b7	-0.0019366656
89	0xba3350d0	-0.000684035
90	0x3bee87ca	0.007279371
91	0xbb28953d	-0.0025723719
92	0xbbc7c3d0	-0.0060963407
93	0x3c0dbfcb	0.008651684
94	0x3a4b2aca	0.00077502115
95	0x3c29c1be	0.010361133
96	0xbac58655	-0.0015069941
97	0xbbbefc1e	-0.0058283946
98	0xbbaef04f	-0.0053387056
99	0x3b39fe94	0.00283805
100	0xbbcc04cc	-0.006226158
101	0x3c25a066	0.010109043
102	0xbbea64b1	-0.0071531166
103	0xbb40eb8c	-0.0029437272
104	0x3ba03446	0.004889044
105	0xbbe96007	-0.007122043
106	0xba2a5ed1	-0.0006499114
107	0x3bee9a77	0.0072815972
108	0xbb69a180	-0.003564924
109	0x3bd18833	0.00639441
110	0x3bee7e6c	0.0072782543
111	0x3bc2d9f5	0.0059463927
112	0xbc394d78	-0.011309974
113	0x3bf3cb69	0.00744002
114	0x3aa88723	0.0012857657
115	0xbaadf950	-0.0013273153
116	0xbaf333f7	-0.0018554915
117	0x3bb0cea9	0.0053957296
118	0x3c08a2d4	0.0083396025
119	0xb80ad095	-3.309602e-05
120	0x3b3230f4	0.0027189823
121	0x3beb4788	0.007180158
122	0xbc03a4f0	-0.00803493
123	0xba7bb82a	-0.0009602333
124	0xba4e1c26	-0.0007862471
125	0xb8ddd34e	-0.0001057746
126	0x3ab98d42	0.0014156478
127	0x3b8ca479	0.0042920676

model.1.running_var f4 [128]
0	0x34d77649	4.0132934e-07
1	0x37cde8ee	2.454637e-05
2	0x35741af2	9.0936294e-07
3	0x368947c2	4.091272e-06
4	0x378e0ab5	1.6932705e-05
5	0x371b45da	9.2549835e-06
6	0x37817f63	1.5437317e-05
7	0x37f7f79f	2.9560002e-05
8	0x362e9caa	2.601921e-06
9	0x34873040	2.5180816e-07
10	0x3795f10d	1.7874432e-05
11	0x36118a62	2.1687233e-06
12	0x34b5d50e	3.3868895e-07
13	0x34d9d1ad	4.057196e-07
14	0x368b69c0	4.1548337e-06
15	0x37d4b7e0	2.5357993e-05
16	0x3561b385	8.4080267e-07
17	0x364255e3	2.8958245e-06
18	0x34ced0bc	3.8522364e-07
19	0x3760ad33	1.33917665e-05
20	0x352623fe	6.1892194e-07
21	0x372c8aea	1.0284342e-05
22	0x378f8f55	1.7113673e-05
23	0x37bb5b7f	2.2334743e-05
24	0x3586810b	1.0021334e-06
25	0x35d7eec9	1.6088244e-06
26	0x357a9827	9.335367e-07
27	0x35d094ce	1.5540516e-06
28	0x37b69a39	2.1767906e-05
29	0x361d1cf4	2.3411676e-06
30	0x37061b41	7.993368e-06
31	0x37dfd13d	2.6681106e-05
32	0x3540dc61	7.184627e-07
33	0x3605771d	1.9887877e-06
34	0x37e5a716	2.7376733e-05
35	0x36efd164	7.1471313e-06
36	0x3834e2cb	4.312656e-05
37	0x37e70cbd	2.7543278e-05
38	0x37d3ddd7	2.5256462e-05
39	0x36825cbe	3.8850985e-06
40	0x3599a3e7	1.144709e-06
41	0x35882832	1.0144488e-06
42	0x36912edb	4.3267914e-06
43	0x3649e6cf	3.0085682e-06
44	0x3529ad81	6.320989e-07
45	0x37835efa	1.5660644e-05
46	0x367947e3	3.7145735e-06
47	0x36b87088	5.4967277e-06
48	0x375ecfe5	1.3280635e-05
49	0x36496158	3.0007996e-06
50	0x37726275	1.4447248e-05
51	0x3617c87c	2.261745e-06
52	0x355889d6	8.066685e-07
53	0x36947f7b	4.4255844e-06
54	0x35460e29	7.3781354e-07
55	0x37d1f262	2.502761e-05
56	0x36c27051	5.794726e-06
57	0x371642bf	8.956237e-06
58	0x346b24a1	2.1899406e-07
59	0x350aa519	5.1649255e-07
60	0x37c7d22d	2.382052e-05
61	0x374f9af5	1.237424e-05
62	0x3614ee33	2.2192369e-06
63	0x34b17ac6	3.3058149e-07
64	0x35ec5cf5	1.7610424e-06
65	0x3603af04	1.9622394e-06
66	0x35148b00	5.533657e-07
67	0x3525d496	6.1776643e-07
68	0x34e697c9	4.2951277e-07
69	0x372d8863	1.0343359e-05
70	0x38073ca0	3.224297e-05
71	0x36e41905	6.797842e-06
72	0x35479564	7.435067e-07
73	0x360d0cf4	2.1018177e-06
74	0x357422a1	9.0947475e-07
75	0x3386bcb1	6.274184e-08
76	0x374e1708	1.2283919e-05
77	0x37b417df	2.1468788e-05
78	0x3779c909	1.4888364e-05
79	0x36d64f12	6.386902e-06
80	0x378760e0	1.6138365e-05
81	0x3644a3a6	2.9301532e-06
82	0x3587f82b	1.013051e-06
83	0x372b8e19	1.0225479e-05
84	0x35931e56	1.0961182e-06
85	0x357d6151	9.439146e-07
86	0x364f5751	3.0896229e-06
87	0x36a7a1a0	4.9958035e-06
88	0x3619ae15	2.2900106e-06
89	0x35da2292	1.6252327e-06
90	0x379a80bc	1.8418177e-05
91	0x36b52f28	5.39971e-06
92	0x37527f4a	1.2546612e-05
93	0x37ca8b69	2.4145194e-05
94	0x35ad275c	1.290096e-06
95	0x3812ff60	3.504695e-05
96	0x359ef425	1.1842973e-06
97	0x373ac819	1.1133053e-05
98	0x372479fa	9.803562e-06
99	0x3684872f	3.949644e-06
100	0x375017d1	1.2403311e-05
101	0x380add3e	3.310781e-05
102	0x378a2149	1.6466382e-05
103	0x3697c09c	4.5225734e-06
104	0x3703a1f0	7.8459125e-06
105	0x3781bcbe	1.5465888e-05
106	0x3508fe2e	5.103383e-07
107	0x37a0bb20	1.9160623e-05
108	0x36e36a10	6.7774745e-06
109	0x3769d81d	1.39382e-05
110	0x37f52a3b	2.9225941e-05
111	0x376e9e15	1.4222712e-05
112	0x38240c6c	3.9112216e-05
113	0x37995cc9	1.8282228e-05
114	0x35de28fb	1.6552216e-06
115	0x361dc5af	2.350989e-06
116	0x363d0d20	2.8170834e-06
117	0x373321ec	1.06771295e-05
118	0x37a6981f	1.9859579e-05
119	0x35ab37cd	1.2756733e-06
120	0x3695c1b0	4.4630942e-06
121	0x37934572	1.7556104e-05
122	0x37ac344c	2.052835e-05
123	0x3561707a	8.3982707e-07
124	0x35a1aa27	1.2044956e-06
125	0x35ac6cd1	1.2846668e-06
126	0x35e08cf7	1.6730327e-06
127	0x36b6871a	5.4397506e-06

model.4.weight f4 [64, 128]
0	0x3bcbf6a6	0.006224471
1	0xbac3fc82	-0.0014952573
2	0x3bb3461c	0.005471004
3	0x3986bbaa	0.00025698292
4	0xbb29563a	-0.0025838749
5	0xba8b6a69	-0.0010636571
6	0xbb2dd4ab	-0.0026524465
7	0xbb120d21	-0.0022285657
8	0x3aaf5cfb	0.0013379151
9	0x3b9beca6	0.0047584353
10	0xba3eccae	-0.00072784245
11	0xbbe89807	-0.007098201
12	0xb9c9c0ba	-0.000384813
13	0x3b9821a1	0.0046426808
14	0xbb38d1ab	-0.0028201144
15	0xbacef284	-0.0015788828
16	0x3abba08a	0.0014314812
17	0xbbaadf04	-0.005214574
18	0xbaf6dbf1	-0.0018833858
19	0xbb007f71	-0.001960721
20	0x3b9082b5	0.0044101127
21	0xbad41a2f	-0.001618212
22	0xbb1d8fae	-0.0024041939
23	0xbae589fc	-0.0017512436
24	0x3b3fefc4	0.0029287199
25	0x3b3f831c	0.0029222434
26	0xbb57c047	-0.0032921003
27	0x3ac6f25a	0.0015178428
28	0xbad36ed4	-0.0016131052
29	0xbb9b0c10	-0.0047316626
30	0x39ccb57f	0.00039045137
31	0xbb157b4f	-0.0022809093
32	0x3be28040	0.0069122612
33	0xbb0c9c23	-0.002145537
34	0xbaa53331	-0.0012603757
35	0xbb2cbec1	-0.0026358815
36	0xbb8248ea	-0.003975977
37	0xbb0106ec	-0.0019687964
38	0xbb08dd74	-0.002088395
39	0xba80c653	-0.000982473
40	0x3aa63e21	0.0012683311
41	0x3b64ca9a	0.00349108
42	0xbb145c89	-0.0022638163
43	0x3b4dcbb9	0.0031401946
44	0x3ba6b07c	0.0050869565
45	0x3b9ca131	0.0047799577
46	0xbb07709a	-0.002066648
47	0x3bb22e72	0.0054376656
48	0xb8b38e01	-8.5618354e-05
49	0xb973f85e	-0.0002326681
50	0x3b0baa5c	0.002131126
51	0x3b6a6e1c	0.0035771197
52	0x3b81770e	0.00395096
53	0x3b9f8a93	0.0048688143
54	0x3bfc9ebe	0.007709353
55	0xbab7ac7c	-0.0014013196
56	0x3a9bc738	0.0011884933
57	0xbb3df113	-0.0028982803
58	0x3b39e9ab	0.0028368037
59	0x3b375695	0.002797519
60	0xba8eb562	-0.0010887797
61	0x39948a30	0.00028331717
62	0xbb2e81ab	-0.002662758
63	0x3b555ddc	0.0032557165
64	0x3bff1e25	0.007785576
65	0xbb5caab2	-0.0033671078
66	0x3b308bd4	0.0026938813
67	0x3c114e94	0.008868832
68	0x3c1ec55c	0.009690609
69	0x3b5c0d89	0.0033577404
70	0xbb2731aa	-0.002551178
71	0xbaa0f47b	-0.0012279892
72	0x3a57b0bd	0.0008227935
73	0xbad282f5	-0.0016060757
74	0x39e8bd4e	0.0004439153
75	0x3bb56a3a	0.005536345
76	0xbb1c376e	-0.002383675
77	0xbb21b80c	-0.002467635
78	0xbb257bbf	-0.002525076
79	0x3b772c25	0.0037715521
80	0x3b3f5f69	0.0029201156
81	0x3aed8101	0.0018120111
82	0xbb752cc1	-0.0037410709
83	0xbaaceb49	-0.0013192679
84	0xbb3e545a	-0.0029041977
85	0x3b4d45d8	0.0031322148
86	0xb84d87f8	-4.900244e-05
87	0x3b6c34e5	0.003604227
88	0xbbdd9356	-0.0067619486
89	0xbba55063	-0.0050449832
90	0xbb0d394f	-0.002154905
91	0xbbd439b8	-0.006476607
92	0x3b07f37c	0.0020744493
93	0xbabdc3dd	-0.0014477927
94	0x3bb1482c	0.005410215
95	0xbacd287d	-0.0015652325
96	0xbb08ab13	-0.0020853921
97	0xba86b62e	-0.0010277682
98	0xbad9f753	-0.0016629494
99	0x3af05f03	0.0018338863
100	0x3b2b0d48	0.0026100446
101	0xbadbcaa4	-0.0016768766
102	0x39166f59	0.00014346595
103	0x39e38fcc	0.0004340395
104	0x3ad84cac	0.0016502342
105	0xbaa6ae94	-0.0012716823
106	0x3b50a1f9	0.0031834824
107	0x3bbff8bd	0.0058585093
108	0x3b504582	0.003177971
109	0xbb330422	-0.0027315696
110	0xbb8a3ce9	-0.004218687
111	0x3af10055	0.001838694
112	0xbb8cb7d8	-0.004294377
113	0xbac6e097	-0.0015173134
114	0xbb89391f	-0.0041877176
115	0x3bdb4395	0.006691406
116	0x3bccd9a5	0.006251531
117	0xba885923	-0.0010402541
118	0x3b9cb565	0.004782366
119	0x3b449335	0.0029994969
120	0xbab0978b	-0.0013472898
121	0xb9a9cd8e	-0.00032387342
122	0xba3c0f99	-0.0007173955
123	0x3b458b73	0.0030142933
124	0xbb936535	-0.004498149
125	0x3b590814	0.0033116387
126	0x3afede7b	0.0019444966
127	0xba555b9e	-0.0008138957
128	0x3bec3b39	0.0072092083
129	0x3a801236	0.0009771052
130	0x3c1047c6	0.008806175
131	0x3b7f6ef3	0.0038976043
132	0xba619e00	-0.00086066127
133	0x39e4d937	0.00043649386
134	0xba2de30d	-0.00066332595
135	0xba88acb0	-0.0010427441
136	0x3aaf5170	0.0013375711
137	0x3b2980ed	0.00258642
138	0x38a6b987	7.950054e-05
139	0x3a1e0ef0	0.00060294475
140	0x3b28f329	0.00257797
141	0x3bb03285	0.005377116
142	0xbaa1bc6e	-0.0012339482
143	0xba5e7ed0	-0.00084875245
144	0x3b9980d8	0.004684549
145	0x3aa1867f	0.0012323408
146	0x38ee8b6d	0.000113746944
147	0x39c99958	0.00038451958
148	0x3bc29814	0.0059385393
149	0x3a40cd08	0.0007354771
150	0x3b0dcd11	0.0021637122
151	0xb90e2a5e	-0.00013557958
152	0x39b9e95c	0.00035459816
153	0x3a7e494c	0.0009700253
154	0x3a6410bc	0.00087000034
155	0x3951f6a0	0.00020023668
156	0x3a8279cc	0.0009954511
157	0x3a3b50bd	0.0007145515
158	0x39e69a42	0.0004398395
159	0xba6b7a39	-0.0008982751
160	0x3bfedeb9	0.0077780155
161	0x3ab529d1	0.0013821666
162	0xba7de66c	-0.00096855196
163	0xba5c6baf	-0.000840838
164	0xb92834c8	-0.00016041391
165	0xb95cf597	-0.00021072324
166	0xba8ed6e6	-0.0010897785
167	0x3b141fca	0.0022601956
168	0x3b0619a8	0.002046207
169	0x3a8d14ff	0.0010763704
170	0xba1d65f8	-0.0006004269
171	0x3b2e3c7a	0.002658634
172	0x3b2c2a24	0.0026270235
173	0x3a87b7b9	0.0010354436
174	0xb8fc9563	-0.00012044122
175	0x3b12130f	0.0022289192
176	0x39e7a13a	0.00044179877
177	0x3abda4d8	0.0014468683
178	0x3a20ab6b	0.0006129059
179	0x3b594b13	0.003315632
180	0xba33609a	-0.0006842703
181	0x3abd2b0c	0.0014432385
182	0x3c18ee74	0.009334195
183	0xba886b73	-0.0010407999
184	0x3b111ea3	0.0022143505
185	0xb9ec1aa5	-0.0004503328
186	0x3aeeff67	0.0018234075
187	0x3b5cf17f	0.0033713279
188	0xba886261	-0.0010405296
189	0x3abf19b7	0.0014579807
190	0xbb8bff4f	-0.0042723785
191	0x3adc17c5	0.0016791752
192	0x3c0b0ee6	0.008487439
193	0xba43d2da	-0.0007470079
194	0x3a9bc7e9	0.0011885139
195	0x3b59812c	0.0033188565
196	0x3b281fe8	0.0025653783
197	0x3abd3315	0.0014434779
198	0x39674d99	0.00022058784
199	0x3add78af	0.0016896928
200	0x3bcc7ea4	0.0062406827
201	0x3a8d6ac7	0.0010789268
202	0x3a933be4	0.0011233059
203	0x3b1754bb	0.0023091275
204	0x384ea4c8	4.926769e-05
205	0xba1f2aae	-0.00060717284
206	0x3b20cf45	0.0024537605
207	0x3a695b5a	0.0008901857
208	0x38916d98	6.934552e-05
209	0x3a9ce9c9	0.0011971529
210	0x3977c47c	0.00023628952
211	0x3ae5385f	0.0017488113
212	0x3b736303	0.0037137873
213	0x3a1b27ff	0.00059187406
214	0xb9b792fc	-0.00035013992
215	0x3a97f37d	0.0011592951
216	0x39e8ba44	0.00044389267
217	0x3a92d98a	0.0011203748
218	0xbacaa38b	-0.0015460117
219	0x3b072661	0.002062224
220	0x39235264	0.00015575584
221	0xb9800011	-0.00024414112
222	0x3b1e3bd4	0.0024144547
223	0xbaae598e	-0.0013301836
224	0x3b5858e3	0.0033011965
225	0x3a7a008a	0.00095368235
226	0x3aa96af1	0.0012925548
227	0x3b1cde26	0.0023936122
228	0x3a45a8d3	0.00075401104
229	0xba83729b	-0.0010028662
230	0x3b378c0d	0.002800706
231	0x3ad7e113	0.0016470276
232	0xba971e18	-0.0011529354
233	0x3a02dd24	0.0004992059
234	0x3bb4be04	0.0055158157
235	0x3a35189f	0.0006908271
236	0x3b338195	0.002739047
237	0xb95af4e6	-0.00020881332
238	0xbb76c581	-0.0037654343
239	0x3a8d9cd2	0.0010804182
240	0xb9bc19b9	-0.0003587732
241	0xbaa1c2a8	-0.0012341337
242	0xbb623645	-0.003451721
243	0x3b3a3ee0	0.0028418824
244	0x3bf38740	0.0074318945
245	0xbae4eaab	-0.0017464956
246	0x3b887fea	0.004165639
247	0x3b30eb3c	0.002699568
248	0x3ae4f3d3	0.0017467685
249	0xba27acb5	-0.000639628
250	0x3aa07f31	0.0012244937
251	0x3bb4389d	0.005499913
252	0x3b183b28	0.002322862
253	0x3ab06d7b	0.0013460362
254	0x3955d7ac	0.00020393607
255	0x3a9ae7a4	0.0011818302

model.4.bias f4 [64]
0	0xb91fd9c2	-0.00015244543
1	0xb91fd67e	-0.00015243326
2	0xb91fda06	-0.00015244642
3	0x38f7dcc5	0.00011818999
4	0xb91ff37b	-0.00015254125
5	0xb91fd5dd	-0.00015243092
6	0x391e7dc6	0.00015114908
7	0x39198828	0.00014641939
8	0x38e9ef86	0.000111549205
9	0xb8082ec1	-3.246847e-05
10	0x384346c0	4.6557514e-05
11	0xb91fdd34	-0.00015245826
12	0xb91fefdd	-0.00015252778
13	0x391ec37a	0.00015140875
14	0xb91fdbfb	-0.00015245371
15	0xb91fd946	-0.00015244362
16	0xb91fe719	-0.00015249512
17	0x391fbd5d	0.00015233965
18	0xb91ff006	-0.00015252837
19	0x3916aaed	0.0001436879
20	0xb91fde63	-0.00015246267
21	0xb84e71c4	-4.922018e-05
22	0x384ac5d3	4.834479e-05
23	0xb91fdd0f	-0.00015245772
24	0xb91fd62d	-0.00015243208
25	0xb91fdd00	-0.0001524575
26	0xb91d0081	-0.00014972874
27	0x391fd68e	0.0001524335
28	0xb91ff710	-0.0001525546
29	0x3831a408	4.2352855e-05
30	0xb91fd9e7	-0.00015244597
31	0xb91fd653	-0.00015243264
32	0x3912d919	0.0001400452
33	0xb91fdab1	-0.0001524489
34	0xb8aef441	-8.3424624e-05
35	0xb91fd4e1	-0.00015242725
36	0x391fdf60	0.00015246635
37	0x391fdb64	0.00015245151
38	0x391c4436	0.0001490273
39	0xb91fd5e9	-0.0001524311
40	0xb91fd929	-0.0001524432
41	0xb91fda3a	-0.00015244717
42	0xb91ff97f	-0.00015256366
43	0x391fd923	0.00015244311
44	0x392001cf	0.00015259463
45	0xb91a9e82	-0.00014745633
46	0x391fd51d	0.00015242813
47	0xb91a952e	-0.00014742158
48	0xb91fd628	-0.00015243201
49	0xb9057504	-0.0001272746
50	0x391fdcd8	0.00015245692
51	0xb91fdcc5	-0.00015245665
52	0x391fd833	0.00015243962
53	0x38363873	4.3444754e-05
54	0xb91fd6c9	-0.00015243435
55	0xb91ff5c6	-0.0001525498
56	0x391fd786	0.0001524371
57	0xb91ff0fc	-0.00015253195
58	0xb906c8f7	-0.00012854101
59	0x391fdba5	0.00015245246
60	0x391fd9f8	0.00015244621
61	0x391fd68f	0.00015243351
62	0xb91fdb73	-0.00015245173
63	0x391fd448	0.00015242503

model.5.weight f4 [64]
0	0x3f035079	0.51294667
1	0x3ede179f	0.43377396
2	0x3ec89606	0.3917696
3	0x3ed2fd39	0.4120882
4	0x3eda3831	0.42620996
5	0x3f0281ed	0.509795
6	0x3f01add6	0.5065588
7	0x3f056704	0.52110314
8	0x3ee228dc	0.44171798
9	0x3eef4e62	0.4673949
10	0x3ed3e20a	0.41383392
11	0x3ef95c2c	0.48703134
12	0x3ec47618	0.38371348
13	0x3eda63b3	0.4265419
14	0x3efcbaa3	0.49361143
15	0x3ef83cc4	0.4848386
16	0x3eede592	0.4646421
17	0x3f0298e1	0.51014525
18	0x3ecef057	0.4041774
19	0x3eddccf4	0.4332043
20	0x3f025f20	0.509264
21	0x3edb7598	0.42863154
22	0x3ec8e58b	0.39237627
23	0x3ed7ce95	0.42149797
24	0x3ecb1200	0.3966217
25	0x3efbd11a	0.4918297
26	0x3ed6c7d1	0.41949323
27	0x3eeeef7c	0.46667087
28	0x3ec52852	0.38507324
29	0x3ed80500	0.42191315
30	0x3ec86c06	0.39144915
31	0x3ef5f019	0.48034742
32	0x3ec88a7e	0.3916816
33	0x3ecdeb51	0.40218595
34	0x3ed4f60c	0.4159397
35	0x3ed7cc35	0.42147985
36	0x3ed8c8c5	0.42340675
37	0x3ef2ede1	0.47447112
38	0x3ef536af	0.47893283
39	0x3f028ea6	0.50998914
40	0x3ef997ee	0.48748726
41	0x3f0525f2	0.52011025
42	0x3ecc6e1f	0.39927766
43	0x3ec8f49c	0.39249122
44	0x3ee04059	0.43799093
45	0x3ef2cdc9	0.47422627
46	0x3efb9e7c	0.4914435
47	0x3ecee2c1	0.40407375
48	0x3efc8349	0.49318913
49	0x3ec5d945	0.38642326
50	0x3ed16d7c	0.40903842
51	0x3ee250ac	0.44202173
52	0x3edf23a5	0.43581882
53	0x3ec22d15	0.3792502
54	0x3ec783c6	0.38967723
55	0x3ed3fc24	0.41403306
56	0x3edf40fc	0.43604267
57	0x3edadf83	0.4274865
58	0x3ede2b94	0.43392622
59	0x3ec27cb6	0.37985772
60	0x3eda7eec	0.4267496
61	0x3ed8060f	0.42192122
62	0x3f0124d8	0.50446844
63	0x3ee25692	0.44206673

model.5.bias f4 [64]
0	0x3a2d83a8	0.00066190446
1	0xba5767a3	-0.0008217042
2	0xba1dbf3c	-0.0006017571
3	0x37889c67	1.6285294e-05
4	0xbb1e06ff	-0.0024113057
5	0xbaea92d1	-0.0017896538
6	0xba3b57a1	-0.00071465416
7	0xb9c1fa05	-0.00036998108
8	0x35fa5422	1.8650937e-06
9	0xb9dbff3d	-0.00041961102
10	0xba060d48	-0.00051136734
11	0xb9b5bc55	-0.0003466333
12	0x3938126d	0.00017554472
13	0xb87a0313	-5.9607508e-05
14	0xb9be9f8e	-0.00036358502
15	0x3a852458	0.0010157926
16	0xb9ddbacf	-0.00042291588
17	0x396981f3	0.00022269021
18	0xb98ae58a	-0.0002649243
19	0xbb32fc31	-0.0027310962
20	0x3955fb3e	0.00020406858
21	0xb98d60dd	-0.00026965784
22	0xba5b2c92	-0.00083608285
23	0xbb1f615a	-0.00243195
24	0xba37acc7	-0.0007006642
25	0x3a4a6fe3	0.0007722361
26	0x396e3e4b	0.00022720655
27	0x3a21702e	0.00061583787
28	0x3a9d8e49	0.0012020554
29	0xbac3be2f	-0.0014933998
30	0x394daffc	0.00019615883
31	0xbacb57a5	-0.0015513791
32	0xbb8fcbbd	-0.004388301
33	0xba8567c9	-0.0010178025
34	0xbbdc96a1	-0.0067318236
35	0xba07fe97	-0.0005187778
36	0xb9cdb7a0	-0.00039237458
37	0x3a1dc092	0.000601777
38	0x3afe4b0c	0.0019401028
39	0xbabb23e0	-0.0014277659
40	0x3935ae51	0.00017326443
41	0xbb069e29	-0.0020541048
42	0xb9c02165	-0.00036645975
43	0xbb958b47	-0.0045637223
44	0xbb3d49d1	-0.002888311
45	0x39a9cfe7	0.0003238909
46	0xb9717143	-0.00023025744
47	0xb9e94b8c	-0.0004449751
48	0xb99dc765	-0.00030093934
49	0x38967fc1	7.1763534e-05
50	0xb8c3b23a	-9.331522e-05
51	0x3a0ed596	0.0005448697
52	0xba03780b	-0.0005015141
53	0x3997e5fa	0.0002897231
54	0xba7ef086	-0.0009725172
55	0xbb1ac6d7	-0.0023617053
56	0xbb8c08fe	-0.004273533
57	0xbbb7dbf1	-0.005610936
58	0x382a605c	4.06209e-05
59	0x3a216aef	0.0006157597
60	0x39268eaf	0.00015884147
61	0x399f08b0	0.00030333316
62	0xbb9a89a9	-0.0047161174
63	0xbbd3e1d8	-0.0064661317

model.5.running_mean f4 [64]
0	0xbb461079	-0.003022222
1	0x3c25fae9	0.010130622
2	0x3bbdae92	0.0057886327
3	0x3c3f3430	0.011670157
4	0xb8f1e166	-0.00011533759
5	0xbbea1fd0	-0.0071449056
6	0x3c1847d2	0.009294467
7	0xbbff35b0	-0.0077883825
8	0x3c116afd	0.008875606
9	0x3c3d0c6a	0.011538604
10	0xbb5eba3d	-0.0033985518
11	0xbbf4410a	-0.0074540423
12	0x3c2b5c5e	0.010459034
13	0xbb224ea8	-0.002476612
14	0xbb4c78c3	-0.003119991
15	0x3c054eed	0.008136493
16	0x3bbb056f	0.005707435
17	0x3c5d9b07	0.013525731
18	0x3bf1f5b5	0.007384027
19	0xbbffc162	-0.0078050354
20	0x3b83eda9	0.004026134
21	0xbb828bfb	-0.003983972
22	0x3c2f1657	0.010686479
23	0x3a2a61c1	0.0006499552
24	0xbc0082e1	-0.007843704
25	0x3bdbc584	0.0067068953
26	0xbb8f4ede	-0.0043734154
27	0x3954b682	0.00020285885
28	0xbbd326e2	-0.006443844
29	0xbb98cd96	-0.0046631796
30	0xbbbe529f	-0.005808189
31	0xbc243e8c	-0.010024678
32	0xbbe2ed85	-0.006925287
33	0x3a4f1500	0.00078995526
34	0xbb122754	-0.0022301273
35	0xbc09f713	-0.0084207235
36	0xbcbca8f8	-0.02302979
37	0x3b927551	0.0044695516
38	0xbc475988	-0.012167342
39	0xbc61a77d	-0.0137728425
40	0xbbc786d5	-0.0060890713
41	0x3b6f936e	0.003655638
42	0xbb228a2a	-0.002480159
43	0xbb93ca94	-0.004510233
44	0x3b146b56	0.0022646985
45	0xbc3b4ec2	-0.011432352
46	0xbbcf0e49	-0.0063188416
47	0x3b5ad1fb	0.0033389318
48	0x3bea4117	0.0071488726
49	0x3b36e7d1	0.002790917
50	0xbb600e0e	-0.0034188065
51	0x3b7808c1	0.0037847015
52	0x3c621441	0.013798774
53	0xbba659e8	-0.0050766356
54	0xbc0ed020	-0.008716613
55	0x3cb2cb06	0.021825325
56	0xbba547a4	-0.0050439406
57	0x39d47528	0.0004052308
58	0xba0d5edf	-0.000539286
59	0x3afb5e0d	0.001917781
60	0x3c74730f	0.01492001
61	0x3c71c32d	0.014756006
62	0xbba97617	-0.005171548
63	0xbba326c8	-0.0049789883

model.5.running_var f4 [64]
0	0x38c6367d	9.451525e-05
1	0x38dd3419	0.00010547805
2	0x3856cc0b	5.1211606e-05
3	0x3865751c	5.470692e-05
4	0x384343b4	4.6554676e-05
5	0x387fd05f	6.09908e-05
6	0x38753f5b	5.8471556e-05
7	0x38c1e9c2	9.246498e-05
8	0x37f0bd2b	2.8698318e-05
9	0x387e3d9b	6.0615694e-05
10	0x37cd310a	2.446074e-05
11	0x3832fd77	4.2674565e-05
12	0x3900eb41	0.0001229467
13	0x39a91438	0.00032249256
14	0x37efacce	2.8571489e-05
15	0x3accc971	0.0015623999
16	0x395c743e	0.00021024139
17	0x385a4dec	5.204782e-05
18	0x38a418d8	7.824757e-05
19	0x38ea269e	0.000111651825
20	0x38877572	6.4591775e-05
21	0x36cf22db	6.1731384e-06
22	0x38b4def8	8.6246e-05
23	0x37b676c9	2.1751404e-05
24	0x388373ab	6.2681116e-05
25	0x3809f11f	3.2887907e-05
26	0x378f5c8e	1.7090028e-05
27	0x3919d06f	0.00014668865
28	0x3823c7f8	3.9048464e-05
29	0x38577a29	5.1373765e-05
30	0x3749317e	1.1992057e-05
31	0x38b202d1	8.488226e-05
32	0x383bac76	4.474489e-05
33	0x39712941	0.0002299892
34	0x383c9bb4	4.4967703e-05
35	0x381a1c62	3.6742895e-05
36	0x3962789f	0.00021597974
37	0x3803e21e	3.1443422e-05
38	0x38778345	5.9011643e-05
39	0x3918aa15	0.0001455921
40	0x37e1293a	2.6841288e-05
41	0x382114d6	3.8404796e-05
42	0x388a7a47	6.603129e-05
43	0x3822b50e	3.879243e-05
44	0x38268fa0	3.9711245e-05
45	0x38635869	5.4203356e-05
46	0x389a08ce	7.344932e-05
47	0x386523ef	5.463132e-05
48	0x3850a7bd	4.9747283e-05
49	0x36ed272b	7.06771e-06
50	0x3825cbbb	3.9528804e-05
51	0x3883c32a	6.282919e-05
52	0x3882e892	6.242203e-05
53	0x3790e736	1.7273804e-05
54	0x381bd32a	3.715154e-05
55	0x39793a70	0.0002376826
56	0x381bc66a	3.7139667e-05
57	0x382b4c95	4.08409e-05
58	0x3975dbbd	0.0002344688
59	0x37db779a	2.6162528e-05
60	0x39daed0c	0.00041756814
61	0x38e38116	0.000108482476
62	0x387b1d4a	5.987034e-05
63	0x38630b8e	5.413178e-05

model.8.weight f4 [32, 64]
0	0x3bc2cd55	0.0059448876
1	0x3ba11510	0.004915841
2	0x3aed1315	0.0018087352
3	0x3b4cdcaa	0.0031259456
4	0xbad6f92a	-0.0016401161
5	0x3b8dcb30	0.0043272004
6	0x3af5eb18	0.001876208
7	0x3b607b5e	0.003425322
8	0xba46ce0d	-0.00075838045
9	0x3b3cdaac	0.0028816862
10	0x3b57929c	0.0032893782
11	0xbb081b6c	-0.0020768298
12	0x3a1df1f0	0.0006025126
13	0x3b1ef3ee	0.002425428
14	0x3b32b043	0.0027265705
15	0x3a8cacb8	0.0010732627
16	0x3bccec64	0.006253766
17	0x39090596	0.00013067419
18	0x3aa092d7	0.0012250793
19	0x3b53ddc0	0.0032328218
20	0xbb02934b	-0.001992422
21	0xb8ba1891	-8.873747e-05
22	0x3b205867	0.0024466754
23	0xba9284b3	-0.0011178463
24	0x3ab0c2bf	0.0013485773
25	0xbb6f5086	-0.0036516502
26	0x3af15fbd	0.0018415373
27	0x39092dbe	0.00013082378
28	0xbab19d1b	-0.0013550849
29	0x3bdfc695	0.0068290927
30	0xba8f0f63	-0.001091462
31	0x3a5588e5	0.0008145704
32	0xbb4378c6	-0.0029826625
33	0xba46f7d8	-0.0007590032
34	0xbb1d2548	-0.002397852
35	0x3adc11fd	0.0016790029
36	0xb96950d6	-0.00022250725
37	0xbb11f868	-0.0022273306
38	0xbafcd9e4	-0.0019291011
39	0x3b8f958c	0.004381841
40	0x3a90fae6	0.0011061102
41	0x3b8e7115	0.0043469765
42	0x3a1ac07c	0.0005903316
43	0xbb31e93c	-0.0027147075
44	0x388ce922	6.7191446e-05
45	0xbb0d72d3	-0.0021583333
46	0x3b45f68b	0.0030206766
47	0xbb34fa68	-0.0027615074
48	0xb9f62f96	-0.0004695623
49	0x3a9e5b59	0.0012081667
50	0x3b089167	0.002083862
51	0x3aa6189f	0.0012672133
52	0x3b13905d	0.0022516467
53	0x3aa691a0	0.0012708195
54	0xbb2a212a	-0.0025959709
55	0x3b9d997f	0.004809558
56	0xbb4f86a6	-0.003166595
57	0xbb329e5a	-0.002725503
58	0xba1e046f	-0.00060278823
59	0x3b1fbc76	0.0024373806
60	0x3b5b200f	0.0033435856
61	0x3b3d35ed	0.0028871254
62	0xbb33fec8	-0.0027465094
63	0xbb377e8c	-0.0027999012
64	0x3adf9e4a	0.0017060724
65	0xbb14be58	-0.0022696462
66	0xbade9880	-0.0016982704
67	0xbadf5e75	-0.00170417
68	0x3b9a0bff	0.004701137
69	0xba24b379	-0.0006282847
70	0xbb1cc62a	-0.0023921826
71	0x3a4fafce	0.000792262
72	0xb9c862fe	-0.00038220728
73	0xbad18404	-0.0015984778
74	0x39a6c131	0.00031805926
75	0xbaec4773	-0.0018026665
76	0xbb0211d4	-0.0019847052
77	0x3a0e03e0	0.00054174475
78	0xbab57f39	-0.0013847119
79	0xbaa03885	-0.0012223875
80	0x3b33dd5e	0.0027445178
81	0xbabe9fe8	-0.0014543505
82	0xbae46bbf	-0.001742713
83	0xba3c62a4	-0.00071863295
84	0xba914dc0	-0.0011085793
85	0xba2f204f	-0.00066805346
86	0xbaff5f0d	-0.0019483283
87	0x3bac8688	0.005265061
88	0x3a0ce7fe	0.00053751457
89	0x3a5a6f6f	0.0008332645
90	0xba4fd0b6	-0.00079275237
91	0x391c6026	0.00014913137
92	0x3911fadb	0.00013921729
93	0xba673a0e	-0.00088206015
94	0xb9f9073f	-0.0004749838
95	0x3b12421c	0.0022317236
96	0x3c099de2	0.008399459
97	0x3b957e97	0.00456221
98	0x3c0c4ebf	0.008563696
99	0xbb69d974	-0.003568259
100	0xbbb8b660	-0.005636975
101	0xbadafea9	-0.0016707975
102	0xbbb612ba	-0.0055564316
103	0xba0d6030	-0.0005393056
104	0xba4f42f1	-0.00079063984
105	0xb9e57bc4	-0.00043770496
106	0x3938ef32	0.00017636715
107	0x3bfa4f3e	0.007638841
108	0x3c027cb6	0.007964304
109	0xbb7f5e6e	-0.0038966197
110	0x3ae7f62b	0.0017697265
111	0xba7c600b	-0.00096273486
112	0xba7ac430	-0.00095659774
113	0xba0378f7	-0.00050152786
114	0xbae84b9d	-0.001772273
115	0x3b5676c4	0.0032724598
116	0xbb20c154	-0.0024529295
117	0xba866c13	-0.0010255597
118	0x3abe9059	0.0014538869
119	0xbba4b10a	-0.0050259875
120	0x3c06a119	0.00821712
121	0x3c034506	0.008012062
122	0xba9713f9	-0.0011526338
123	0xbae3b1af	-0.001737168
124	0x39e1a16d	0.00043035616
125	0xbb2a3ddc	-0.0025976812
126	0x3c090480	0.008362889
127	0x3c08ee08	0.008357532
128	0x3ac77efe	0.0015220342
129	0xbb156392	-0.0022794944
130	0xbadc5011	-0.001680853
131	0xbad81cf0	-0.0016488116
132	0x3b886ac9	0.0041631204
133	0xba3a667d	-0.0007110609
134	0xbb0c5621	-0.0021413642
135	0x3a08abf2	0.000521361
136	0xb9e0ac39	-0.00042852925
137	0xbac14b1d	-0.0014747117
138	0x39d997a0	0.00041502435
139	0xbad2cfd1	-0.0016083663
140	0xbaf47707	-0.0018651196
141	0x3a00d991	0.00049152324
142	0xbabc0c6f	-0.0014346967
143	0xba901b85	-0.001099453
144	0x3b10b682	0.002208144
145	0xbaa02d77	-0.0012220581
146	0xbac80446	-0.0015260063
147	0xba5dd2f6	-0.00084619166
148	0xba8b2ab3	-0.0010617584
149	0xba2a56f4	-0.00064979424
150	0xbb031a98	-0.0020004865
151	0x3b9f9891	0.0048704823
152	0x39da3a04	0.00041623425
153	0x3a5b07f4	0.0008355372
154	0xba79aa1c	-0.00095239445
155	0xb88925f2	-6.539737e-05
156	0x3868a081	5.546259e-05
157	0xba64c222	-0.0008726438
158	0xb9c8deaf	-0.00038312885
159	0x3b17dd15	0.0023172547
160	0x3bfe5be4	0.007762419
161	0x3b8edc50	0.0043597594
162	0x3c063c53	0.008193093
163	0xbb537837	-0.0032267699
164	0xbbaea9fe	-0.0053303232
165	0xbab648e6	-0.0013907223
166	0xbbb20d08	-0.0054336824
167	0xba2cf9e5	-0.00065985165
168	0xba4b82b5	-0.00077633123
169	0xb9cc9341	-0.00039019625
170	0x393e6a6f	0.00018159462
171	0x3bf9a0fc	0.007618068
172	0x3c04d8f6	0.008108368
173	0xbb6e8782	-0.0036396687
174	0x3abd7658	0.0014454825
175	0xba43f1a1	-0.0007474665
176	0xba6cd8ca	-0.00090349896
177	0xba182834	-0.00058043306
178	0xbaee5a5e	-0.001818489
179	0x3b467459	0.003028175
180	0xbb1d8d38	-0.0024040472
181	0xba8a2210	-0.0010538716
182	0x3ac40f33	0.0014958143
183	0xbb9e035f	-0.004822179
184	0x3c017777	0.007902018
185	0x3c01d8e2	0.007925244
186	0xbaa0de3c	-0.0012273262
187	0xbada9a6c	-0.0016678101
188	0x3932754c	0.000170191
189	0xbb28e856	-0.0025773249
190	0x3bf7a4fa	0.0075575085
191	0x3c00fde9	0.007873037
192	0x3bc1a03b	0.0059089935
193	0x3b80e48d	0.0039334954
194	0x3ab090bf	0.0013470872
195	0x3b25bbd5	0.0025288959
196	0xba4f1ef5	-0.00079010363
197	0x3b3c2615	0.0028709222
198	0x3ac5bc2b	0.0015085986
199	0x3b54fd72	0.0032499698
200	0xba4c0d09	-0.0007783925
201	0x3b15cdd0	0.002285827
202	0x3b200ae4	0.0024420554
203	0xbaf2eee8	-0.0018534334
204	0x3a2fa94a	0.0006700946
205	0x3b0a654f	0.0021117514
206	0x3b023e26	0.001987347
207	0x3a7b2315	0.0009580118
208	0x3bb3af37	0.0054835337
209	0x3a425ebb	0.00074146286
210	0x3ac4a6f5	0.001500337
211	0x3b230ab2	0.00248782
212	0xbad115f0	-0.0015951972
213	0xb96114b3	-0.00021465383
214	0x3ace23a8	0.0015727179
215	0xbaaef1c0	-0.0013347194
216	0x3a870c0e	0.0010303275
217	0xbb560e10	-0.003266219
218	0x3ace0c1e	0.0015720164
219	0xb99ff843	-0.00030511813
220	0xba38cd0d	-0.0007049598
221	0x3bbe91e5	0.005815732
222	0xba512c10	-0.0007979283
223	0x3a6fcaca	0.00091473444
224	0xbb3ab164	-0.002848708
225	0xb8f23e52	-0.00011551067
226	0xbb0f18d9	-0.0021834879
227	0x3a60df28	0.0008578175
228	0xb9d169c8	-0.000399424
229	0xbb02098c	-0.0019842116
230	0xbb0f06f4	-0.0021824213
231	0x3b5244ea	0.0032084533
232	0x3a90c4ad	0.0011044942
233	0x3b6be4e0	0.0035994574
234	0x39c30cc3	0.00037202807
235	0xbb1d33b4	-0.0023987116
236	0xb9470f51	-0.00018983825
237	0xbb10a7f7	-0.002207277
238	0x3b2cda84	0.0026375363
239	0xbb179374	-0.002312866
240	0xba0c10b4	-0.0005343065
241	0x3a8a0b1e	0.0010531878
242	0x3a7b58a7	0.00095881004
243	0x3acebd4e	0.001577297
244	0x3ac10fb2	0.0014729409
245	0x3a5f10af	0.0008509261
246	0xba83753b	-0.0010029444
247	0x3b55ce5f	0.0032624227
248	0xbb5586ee	-0.0032581645
249	0xbb0c07bb	-0.0021366912
250	0xba8ad9f5	-0.0010593521
251	0x3ad45e96	0.0016202505
252	0x3b313312	0.0027038497
253	0x3b1f163b	0.0024274725
254	0xbb25e03a	-0.0025310651
255	0xbb0a01c3	-0.002105818

model.8.bias f4 [32]
0	0x391e3b63	0.00015090177
1	0x38b28e1a	8.51417e-05
2	0xb91fe548	-0.00015248836
3	0x391fe6bc	0.00015249377
4	0xb91eac1e	-0.00015132173
5	0xb91fd423	-0.00015242449
6	0x392006c8	0.00015261315
7	0x38c1df04	9.244497e-05
8	0x387902bb	5.936877e-05
9	0xb8e66aae	-0.00010987125
10	0x39201309	0.0001526588
11	0x391fd605	0.0001524315
12	0xb91fd536	-0.00015242849
13	0x391fd772	0.00015243681
14	0xb91fdcb0	-0.00015245634
15	0xb91fda95	-0.0001524485
16	0xb91fd91f	-0.00015244306
17	0xb91fe214	-0.00015247642
18	0xb91fd68f	-0.00015243351
19	0x391fda96	0.00015244851
20	0x391da9e1	0.00015035972
21	0x391fda49	0.00015244739
22	0xb91e2c15	-0.00015084476
23	0xb91fb143	-0.00015229457
24	0x391fba38	0.00015232794
25	0x382ac19e	4.071148e-05
26	0xb91fdb9c	-0.00015245232
27	0x38afba75	8.3793806e-05
28	0x390b8f89	0.00013309544
29	0xb91fda45	-0.00015244733
30	0xb91fd6c4	-0.00015243428
31	0x391fda89	0.00015244832

model.9.weight f4 [32]
0	0x3f07315e	0.52809703
1	0x3edcd60a	0.4313205
2	0x3ed74f55	0.42052713
3	0x3ee3c67e	0.44487375
4	0x3ed98c4a	0.42489845
5	0x3f0581ef	0.5215139
6	0x3ecaa989	0.3958247
7	0x3edf14b4	0.43570483
8	0x3ed5c236	0.41749734
9	0x3f04ab25	0.51823646
10	0x3f04de5a	0.5190178
11	0x3f03895a	0.51381457
12	0x3edc6f84	0.4305383
13	0x3edce509	0.4314349
14	0x3f0544e4	0.52058244
15	0x3f06e80e	0.5269784
16	0x3ee1aade	0.44075674
17	0x3ede1cba	0.43381292
18	0x3f02f8f1	0.51161104
19	0x3edd0f10	0.43175554
20	0x3edf211f	0.43579957
21	0x3f0715b5	0.527675
22	0x3f075c4e	0.5287522
23	0x3ed66492	0.41873604
24	0x3f073d4c	0.52827907
25	0x3edde92b	0.43341956
26	0x3f006eb4	0.5016892
27	0x3edbb4db	0.4291142
28	0x3ed7e27c	0.4216498
29	0x3edb5a85	0.42842498
30	0x3f05bb13	0.5223858
31	0x3f072928	0.52797174

model.9.bias f4 [32]
0	0x3b442eae	0.002993505
1	0x3bf73bcc	0.00754497
2	0x3beeb5a7	0.0072848382
3	0x3b2ce41c	0.002638108
4	0x3bf5ca83	0.007500948
5	0x3b43a367	0.0029852034
6	0x3be683db	0.0070347614
7	0x3bf85f7d	0.0075797425
8	0x3bef33a0	0.0072998554
9	0x3b3bbcb9	0.0028646423
10	0x3b328b43	0.002724365
11	0x3b4083df	0.0029375476
12	0x3bf7dece	0.007564402
13	0x3bf7b5a9	0.0075594974
14	0x3b4f684e	0.0031647864
15	0x3b3fc6da	0.0029262812
16	0x3b20dfc2	0.0024547433
17	0x3bf3e4cb	0.0074430457
18	0x3b3d6031	0.0028896446
19	0x3bf54f13	0.007486233
20	0x3bfd3409	0.0077271503
21	0x3b3ec623	0.0029109798
22	0x3b4bb613	0.0031083866
23	0x3bec885c	0.0072184037
24	0x3b4f5738	0.003163768
25	0x3bf1adf2	0.007375472
26	0x3b3753ef	0.0027973612
27	0x3be90319	0.007110965
28	0x3bf28c1d	0.0074019567
29	0x3bf75676	0.0075481487
30	0x3b3c18fc	0.0028701415
31	0x3b3ea8e8	0.0029092375
