examples/models/gibbsphen_mlp_filter_8_colab.pth (torch, 4109 bytes, 7 tensors)

model.0.weight f4 [8, 5]
0	0xb60c1e02	-2.0879093e-06
1	0x38178fbb	3.6135065e-05
2	0xb76d48da	-1.4143263e-05
3	0x381332bb	3.5094778e-05
4	0xb8e0533a	-0.000106966545
5	0xb7b13c6e	-2.1128184e-05
6	0x38869d8e	6.418965e-05
7	0xb7abd636	-2.0484538e-05
8	0x38cc84cf	9.7522156e-05
9	0xb74ec143	-1.2323554e-05
10	0x381e5afa	3.7754864e-05
11	0x3892f167	7.006787e-05
12	0xb8bcfe10	-9.0118614e-05
13	0x389b2dae	7.3994845e-05
14	0xb8ba9a90	-8.897961e-05
15	0xb7804126	-1.5289126e-05
16	0x38262d3f	3.9619623e-05
17	0xb7b9a3ea	-2.2130047e-05
18	0x38a49c2b	7.849218e-05
19	0x38950352	7.105492e-05
20	0xb80192eb	-3.0892825e-05
21	0xb7999208	-1.8307022e-05
22	0x389cc572	7.475437e-05
23	0x37d8dbee	2.585162e-05
24	0xb7d2e4a1	-2.5140414e-05
25	0x37e0480b	2.6736428e-05
26	0xb7ad9ca6	-2.0696152e-05
27	0xb88e232f	-6.777641e-05
28	0xb730a03a	-1.0527723e-05
29	0x383adadb	4.454968e-05
30	0xb6f68074	-7.346325e-06
31	0xb669abe7	-3.4819766e-06
32	0x391e8789	0.00015118545
33	0xb9113228	-0.00013846962
34	0xb8fbd33d	-0.00012007959
35	0xb8afaa87	-8.3764135e-05
36	0xb8685484	-5.539182e-05
37	0xb81987df	-3.6604582e-05
38	0xb8a3adfd	-7.8048535e-05
39	0xb8c4c901	-9.383448e-05

model.0.bias f4 [8]
0	0xb851d243	-5.0025305e-05
1	0x3747ae0f	1.19018505e-05
2	0x37084ef1	8.124612e-06
3	0x37be4605	2.268237e-05
4	0xb7f0f452	-2.8724e-05
5	0x379ad3fc	1.8456944e-05
6	0xb8330ca3	-4.2688695e-05
7	0x36ba9e1e	5.5616392e-06

model.1.weight f4 [8]
0	0xba965573	-0.0011469558
1	0xba9a87f4	-0.0011789785
2	0xba996ee6	-0.0011706024
3	0xba939b21	-0.0011261442
4	0xba9a88c5	-0.0011790028
5	0xba985502	-0.0011622014
6	0xba8c6af7	-0.001071303
7	0xba99b614	-0.0011727237

model.1.bias f4 [8]
0	0x3865a61e	5.4752563e-05
1	0xb789023c	-1.6332713e-05
2	0xb85f77c3	-5.327888e-05
3	0xb7e823c8	-2.7673217e-05
4	0xb8418fc5	-4.614868e-05
5	0x37d2ab04	2.5113586e-05
6	0x38777f7d	5.900812e-05
7	0xb7094913	-8.18285e-06

model.1.running_mean f4 [8]
0	0xb8d261f6	-0.00010031827
1	0x38de36eb	0.00010596014
2	0x38116a8e	3.466993e-05
3	0x3868170a	5.5334567e-05
4	0x370aa81f	8.264585e-06
5	0x3898717b	7.269062e-05
6	0xb895a909	-7.136359e-05
7	0xb94b03cf	-0.00019361007

model.1.running_var f4 [8]
0	0x30412b74	7.027474e-10
1	0x30ae9529	1.270256e-09
2	0x2dc7938a	2.2689201e-11
3	0x30b764f4	1.3343695e-09
4	0x2e079c8f	3.0834498e-11
5	0x2f50ed72	1.9001847e-10
6	0x307e46b1	9.250512e-10
7	0x32045122	7.701859e-09

model.4.weight f4 [1, 8]
0	0x38423110	4.6298897e-05
1	0x37665628	1.3729128e-05
2	0x374a3920	1.2053439e-05
3	0xb8ad7a38	-8.272048e-05
4	0x35840164	9.835171e-07
5	0x376a4a33	1.3964763e-05
6	0x38543009	5.0589475e-05
7	0xb7c86952	-2.3890902e-05
