examples/models/gibbsphen_mlp_filter_32_16_8_4.pth (torch, 14538 bytes, 25 tensors)

model.0.weight f4 [32, 5]
0	0x14da00cd	2.201269e-26
1	0x1639b21c	1.5000382e-25
2	0x964cc58e	-1.6541326e-25
3	0x9507be86	-2.741333e-26
4	0x96b24ef0	-2.8807268e-25
5	0xb8e4e5a3	-0.000109146604
6	0xb5c3d752	-1.4591299e-06
7	0x2f4d5408	1.8674495e-10
8	0x2e9e93c4	7.2112566e-11
9	0xb10e0e15	-2.0671724e-09
10	0xbc148b2a	-0.009066382
11	0xbca24233	-0.019806957
12	0x3d2f59bb	0.042810183
13	0xbd21dddc	-0.039518222
14	0x3bd12a70	0.006383233
15	0xbc3a55d9	-0.011373007
16	0xbc3c1f50	-0.011482075
17	0xbbd24394	-0.0064167473
18	0xbc9e6b47	-0.019338263
19	0xbbc09fad	-0.00587841
20	0x1678a1ee	2.0084376e-25
21	0x16035917	1.0610208e-25
22	0x96092772	-1.1079219e-25
23	0x950c5950	-2.834323e-26
24	0x164f0207	1.6721967e-25
25	0x9729e9f1	-5.490212e-25
26	0x16d0f41a	3.3758262e-25
27	0x97123998	-4.724784e-25
28	0x9695b394	-2.4185578e-25
29	0x15023d6c	2.6301744e-26
30	0x2cda9bb0	6.2132174e-12
31	0x34968378	2.8035333e-07
32	0x36068af3	2.0048435e-06
33	0x36620101	3.3677209e-06
34	0x36a20547	4.8285906e-06
35	0xbc2337a9	-0.009962001
36	0x3d150a00	0.03638649
37	0x3ba53567	0.0050417664
38	0xbd6676b3	-0.056265544
39	0x3c441cb7	0.011969737
40	0x3c09618a	0.0083850715
41	0xbcafe77d	-0.021472687
42	0xbcb29763	-0.021800702
43	0xbc99152b	-0.018686851
44	0xbb89d676	-0.004206474
45	0xbb3a7bc8	-0.0028455127
46	0x3c659043	0.014011445
47	0x3ccaa3b5	0.024736265
48	0x3c019b15	0.00791051
49	0x3c30c122	0.010788234
50	0xbce8561f	-0.028361378
51	0x3cad6f3d	0.021171207
52	0x3d87206d	0.065979816
53	0xbc12b5b2	-0.008954452
54	0x3bf2a5af	0.007405005
55	0x96721226	-1.9554331e-25
56	0x976b4dc0	-7.603073e-25
57	0x17225d0c	5.2462465e-25
58	0x971f1bba	-5.1410667e-25
59	0x14e2f926	2.291844e-26
60	0xbc7ebac3	-0.015547457
61	0xbc7621d0	-0.01502271
62	0xbbc12a54	-0.0058949385
63	0xbc8fc40b	-0.017549535
64	0xbba03c09	-0.0048899692
65	0x2d8fa709	1.6331396e-11
66	0x2437d944	3.986583e-17
67	0x21d09e3e	1.4136515e-18
68	0x2544fc7c	1.7085835e-16
69	0x24fbcab7	1.0919731e-16
70	0x3b487058	0.003058454
71	0xbc13a22a	-0.009010831
72	0x3d501a6c	0.050806448
73	0xbcb1f486	-0.021723043
74	0x3b51d98b	0.0032020535
75	0x99e313af	-2.34792e-23
76	0x1a060b2a	2.771957e-23
77	0x1a1c039e	3.2262966e-23
78	0x1a2d7c96	3.58762e-23
79	0x19a5fb6b	1.7162147e-23
80	0xbc23b2aa	-0.009991327
81	0x3ca4c8fe	0.020115372
82	0x3cdfc7e6	0.027316999
83	0x3ca726e6	0.02040429
84	0x3b5ecb58	0.0033995714
85	0xbcebb7e4	-0.02877421
86	0xbc32e52e	-0.0109188985
87	0xbad880fa	-0.001651793
88	0xbc66195c	-0.014044132
89	0xbbfc0e6a	-0.007692148
90	0xbc87f5db	-0.016596725
91	0x3ca1d4ce	0.019754793
92	0x3d089405	0.033344287
93	0x3ca7546b	0.020425996
94	0x3a7ccd15	0.0009643597
95	0xbca37ade	-0.019956049
96	0x3cdecb78	0.02719663
97	0x3ce480ea	0.027893502
98	0x3cab542f	0.020914165
99	0x38c873fa	9.5583455e-05
100	0x3c9a5790	0.018840581
101	0x3c87468c	0.016513132
102	0x3c2d4af9	0.010576957
103	0x3bf36177	0.00742739
104	0x3c83069d	0.015994364
105	0x960dd799	-1.145792e-25
106	0x1677d256	2.0018871e-25
107	0x16ab1198	2.7637643e-25
108	0x96a38d81	-2.6423372e-25
109	0x96409658	-1.5557077e-25
110	0xbc236b05	-0.009974246
111	0x3c367d9a	0.011138344
112	0xbd05f640	-0.032705545
113	0x3c500183	0.012695673
114	0x39f373d4	0.0004643487
115	0xbb1625fb	-0.0022910822
116	0x3c400b53	0.01172145
117	0xbd347d10	-0.04406458
118	0x3c7e6b51	0.015528516
119	0xbb0b6e82	-0.0021275585
120	0xbb6a7198	-0.0035773274
121	0x3ceac9c0	0.028660655
122	0xbd309d53	-0.043118786
123	0x3d02da22	0.03194631
124	0x3902d9c6	0.00012478893
125	0x21284e02	5.7023857e-19
126	0xa0f7d8a4	-4.1986788e-19
127	0x20c09461	3.2624254e-19
128	0x21a81222	1.1388923e-18
129	0x21837883	8.908804e-19
130	0x3c8d7fd8	0.017272875
131	0xbc68a227	-0.014198816
132	0xbd26f8d0	-0.04076463
133	0xbcbc2071	-0.022964688
134	0x3bb8bd79	0.0056378213
135	0xbc284814	-0.010271091
136	0x3cd6e50f	0.02623227
137	0xbd0ffc33	-0.035152625
138	0x3ce79650	0.028269917
139	0xbb3dac39	-0.0028941764
140	0xbc6ba921	-0.014383585
141	0x3cab9bfd	0.020948404
142	0x3d00605b	0.03134189
143	0x3c355a82	0.011068942
144	0x3bd0811e	0.006363048
145	0x19549609	1.09904425e-23
146	0x19e1ef2f	2.336106e-23
147	0x99cddba5	-2.1285217e-23
148	0x99a39aaf	-1.6916281e-23
149	0x97909c34	-9.345213e-25
150	0x9bd02ed6	-3.444098e-22
151	0x9c4521fd	-6.522576e-22
152	0x9c270651	-5.526383e-22
153	0x1c163df5	4.9710914e-22
154	0x1c7b5f38	8.3172e-22
155	0x3d09fd71	0.033688966
156	0xbc78c3d4	-0.015183408
157	0xbdc28d5f	-0.09499621
158	0xbb79cb5d	-0.0038115599
159	0xbc25abfc	-0.010111805

model.0.bias f4 [32]
0	0x94aec082	-1.7645441e-26
1	0x34586b41	2.0155586e-07
2	0xb49aa030	-2.8801287e-07
3	0xb62fe0b9	-2.6207838e-06
4	0x94c11a37	-1.949836e-26
5	0xaa321677	-1.581737e-13
6	0x3657077c	3.2041853e-06
7	0xb4bea12c	-3.5507526e-07
8	0x36115673	2.1657004e-06
9	0x33997f90	7.147821e-08
10	0xb6c3c573	-5.834439e-06
11	0x39821d91	0.0002481756
12	0xb689d106	-4.1072517e-06
13	0x1a5d5574	4.5770757e-23
14	0xb4d00688	-3.874777e-07
15	0x151b06ca	3.1307356e-26
16	0xb7be89c8	-2.2713924e-05
17	0xb21d8980	-9.169867e-09
18	0xb5ca3544	-1.5065675e-06
19	0x36c96916	6.0025004e-06
20	0xb3ae21d8	-8.1086625e-08
21	0x204d5124	1.7391023e-19
22	0xb4995364	-2.8559145e-07
23	0xb4b0409c	-3.2829564e-07
24	0xb66183ba	-3.3604288e-06
25	0xb08a8765	-1.0079303e-09
26	0xb62a4dea	-2.5377326e-06
27	0x3557f765	8.045375e-07
28	0xb5bdf620	-1.4153229e-06
29	0x1b28096d	1.389968e-22
30	0xb5c4ef5f	-1.4672804e-06
31	0xb7a1ee0d	-1.9303547e-05

model.1.weight f4 [32]
0	0x1bb9b578	3.0722954e-22
1	0x3b303e0c	0.0026892452
2	0x3d4818f3	0.04885192
3	0x3cd4d1c1	0.025978925
4	0x16b9bb94	3.000674e-25
5	0x16d3bc43	3.4207698e-25
6	0x3797c649	1.8092936e-05
7	0x3d146eec	0.036238596
8	0x3d2f7ceb	0.04284374
9	0x3d028294	0.03186281
10	0x3db492f2	0.0881709
11	0x1c648c26	7.562001e-22
12	0x3d166a71	0.036722604
13	0xba381c40	-0.00070232525
14	0x3daede02	0.085384384
15	0xaaca91f9	-3.5983697e-13
16	0xbd3ebad8	-0.046564907
17	0xbd077cc4	-0.03307797
18	0xbd500145	-0.05078246
19	0x3d56a6fb	0.05240534
20	0x3d1504c2	0.03638149
21	0x9b895c5a	-2.272443e-22
22	0x3d69aa15	0.05704697
23	0x3da544f7	0.080697946
24	0x3d384327	0.044985916
25	0xb5bf75c9	-1.4264889e-06
26	0x3d558d1b	0.05213652
27	0xbcfb71e0	-0.030693948
28	0x3d38d051	0.04512054
29	0x2211f6c0	1.9781793e-18
30	0xb1a02434	-4.6607287e-09
31	0x3de43e2d	0.111446716

model.1.bias f4 [32]
0	0xa90f9626	-3.188261e-14
1	0xbafdf8e8	-0.0019376548
2	0xbcb1aae6	-0.021687936
3	0x3a0997b5	0.00052487414
4	0x287f8f62	1.4186435e-14
5	0xb0863967	-9.766098e-10
6	0xba3f6e19	-0.00073024776
7	0xbcd71c16	-0.02625851
8	0xbcba1237	-0.022713764
9	0xbccc182b	-0.024913868
10	0xbdcef91a	-0.10106106
11	0x2c9ed382	4.514112e-12
12	0xbc471640	-0.012151301
13	0xb6a99cfc	-5.054868e-06
14	0xbdb1b2b2	-0.086766616
15	0xa5ff4474	-4.4281834e-16
16	0xbcca491d	-0.024693066
17	0xbcbab92b	-0.022793373
18	0xbd10ec1b	-0.035381418
19	0xbd64549d	-0.055744756
20	0xbcee07dd	-0.029056484
21	0xb088c866	-9.952259e-10
22	0xbcfc64fc	-0.030809872
23	0xbd4abca6	-0.049496315
24	0xbd30f9ba	-0.043206908
25	0xa51e2616	-1.371722e-16
26	0xbd111c6e	-0.035427503
27	0xbc6f49f3	-0.014605033
28	0xbd3baff2	-0.04582209
29	0x308248e1	9.479458e-10
30	0xb3043718	-3.0783752e-08
31	0xbdb38365	-0.08765296

model.1.running_mean f4 [32]
0	0x965079f5	-1.6840589e-25
1	0xb83f39a9	-4.559165e-05
2	0xbbd9c2ed	-0.0066455514
3	0xbcb536da	-0.022120882
4	0x16403784	1.5527154e-25
5	0x2a0b125c	1.235205e-13
6	0xb5925465	-1.090241e-06
7	0xbbbd79f1	-0.005782359
8	0xbcbeb64c	-0.023280285
9	0x3cb4ca53	0.022069132
10	0x3cbd8e87	0.023139251
11	0xb8a9d892	-8.098887e-05
12	0xbcc453b8	-0.023965701
13	0x2cf654c4	7.0011514e-12
14	0x3c2b4de9	0.010455587
15	0x1a09911e	2.844816e-23
16	0x3cc96b53	0.024587309
17	0xbcd2eac3	-0.025746709
18	0x3cbdafbc	0.023155086
19	0x3cba3831	0.022731872
20	0x3ce6a890	0.028156549
21	0xa00bee00	-1.1852506e-19
22	0xbbe99d89	-0.0071293754
23	0xbc073ae2	-0.008253785
24	0x3bbbe53c	0.005734114
25	0x30f45846	1.7778425e-09
26	0xbcb464f9	-0.022020804
27	0x3b2b85f0	0.0026172362
28	0x3cb74dfc	0.022376053
29	0x9afc41b8	-1.0433093e-22
30	0x34c1a716	3.6070622e-07
31	0xbd147d84	-0.036252514

model.1.running_var f4 [32]
0	0x00000004	6e-45
1	0x312d3f17	2.5210676e-09
2	0x38582d1e	5.154043e-05
3	0x3a14c80a	0.000567556
4	0x00000004	6e-45
5	0x0007fda9	7.33845e-40
6	0x2dc6d9ea	2.2606767e-11
7	0x386bfcbe	5.626375e-05
8	0x3a2c4949	0.00065721996
9	0x3a183784	0.00058066123
10	0x3a348cc8	0.0006887433
11	0x1a9d887f	6.51542e-23
12	0x3a2e9088	0.000665911
13	0x1a9117b9	6.000892e-23
14	0x391078fc	0.0001377798
15	0x00000004	6e-45
16	0x3a410538	0.00073631434
17	0x3a46ba2a	0.0007580841
18	0x3a2fbe26	0.00067040545
19	0x3a29e9e2	0.00064816896
20	0x3a6de176	0.0009074429
21	0x00000004	6e-45
22	0x3887b559	6.47108e-05
23	0x38b5067b	8.63196e-05
24	0x382896f4	4.0194907e-05
25	0x0b7ec3f8	4.906605e-32
26	0x3a219770	0.00061642285
27	0x374f4825	1.2354959e-05
28	0x3a21bd53	0.0006169874
29	0x00000004	6e-45
30	0x140f5c38	7.237842e-27
31	0x3adc1847	0.0016791903

model.4.weight f4 [16, 32]
0	0xa5f904e0	-4.3197918e-16
1	0xaac9967a	-3.5809187e-13
2	0xbc29ac0b	-0.01035596
3	0xbb231183	-0.0024882264
4	0x27e1ed38	6.270724e-15
5	0x2ebe3104	8.6489066e-11
6	0xa84a9929	-1.1246464e-14
7	0xbc8ff14b	-0.017571112
8	0x3a28371a	0.0006416902
9	0x3a43d6ec	0.00074706855
10	0xbcbca446	-0.02302755
11	0xac53537b	-3.0031244e-12
12	0xba17de50	-0.000579332
13	0x235c7072	1.1950035e-17
14	0xbc371f78	-0.011176936
15	0xa28ce705	-3.8191677e-18
16	0xba8ab9d9	-0.0010583951
17	0x3b9e74f2	0.0048357183
18	0x3b012ce7	0.0019710602
19	0xbc48f1fb	-0.012264724
20	0x3b9d9e7c	0.0048101526
21	0x2ca677fa	4.731324e-12
22	0xbb7cbc50	-0.0038564391
23	0x3d1acbd1	0.03779203
24	0x3ce41843	0.0278436
25	0xa3e32105	-2.4625374e-17
26	0x3a364582	0.00069531065
27	0xbc1637d2	-0.009168582
28	0xbc245e4b	-0.010032247
29	0x2ed6b80b	9.764286e-11
30	0x9a5bfbc6	-4.549152e-23
31	0x39041bff	0.0001259893
32	0x26fd6c3c	1.7584739e-15
33	0xb4f06dab	-4.4783278e-07
34	0x3c440a33	0.011965322
35	0xbb961223	-0.004579799
36	0x287d6ff6	1.4068599e-14
37	0x2f21b10e	1.4705767e-10
38	0xab6b62e5	-8.3626015e-13
39	0xbb00b1eb	-0.0019637297
40	0xbc08f010	-0.008358017
41	0xbc08e877	-0.008356205
42	0x3bf6968b	0.0075252703
43	0x2ac14c2a	3.4336536e-13
44	0xbc02021d	-0.007935074
45	0x30431b21	7.097914e-10
46	0xbd442e40	-0.04789567
47	0x24bb0d1a	8.112052e-17
48	0xbb9ab67a	-0.00472146
49	0xbbbe10fa	-0.0058003636
50	0xbc10eec1	-0.008845986
51	0xbb17d476	-0.0023167408
52	0xbbe1fe92	-0.006896802
53	0x2f1ecf9e	1.4443777e-10
54	0xbd1d3c80	-0.038387775
55	0xbd12e569	-0.035863314
56	0x3c043e9e	0.00807157
57	0x259e6004	2.7473694e-16
58	0xbbd250e6	-0.0064183353
59	0x3c822d76	0.015890818
60	0xbc0c3a49	-0.008558818
61	0xaf3e6fae	-1.7320076e-10
62	0x9a0ef8f4	-2.9566014e-23
63	0xbc1f2ffc	-0.00971603
64	0xa04c5198	-1.7306469e-19
65	0xac39e09f	-2.641477e-12
66	0x3a00f1da	0.0004918851
67	0x395b1a0a	0.00020895168
68	0x1d69e134	3.095372e-21
69	0x380423ac	3.1504474e-05
70	0x33554bfa	4.9662027e-08
71	0xb928b585	-0.0001608935
72	0x3989e2eb	0.00026299743
73	0x3835c0b4	4.333323e-05
74	0xb9440d96	-0.00018697078
75	0x2d03bd7c	7.488562e-12
76	0x39e73cdd	0.000441051
77	0x2b170b95	5.366205e-13
78	0xb8192b00	-3.651809e-05
79	0x9d460002	-2.6205086e-21
80	0x38eda824	0.00011332359
81	0x359287c0	1.0917356e-06
82	0xb94891e6	-0.00019127838
83	0x399352af	0.0002809963
84	0xb95aea77	-0.00020877445
85	0xa8cd72c4	-2.2809344e-14
86	0xb86b6440	-5.612173e-05
87	0x3a8c7e64	0.001071882
88	0x3a26b277	0.0006358991
89	0x9ce8ba14	-1.5400572e-21
90	0xb7d019c8	-2.4807538e-05
91	0xb9b685a0	-0.00034813304
92	0xb8a6dbc8	-7.956434e-05
93	0x2bf07a86	1.7087033e-12
94	0x14431f84	9.8511995e-27
95	0x39ca9c3c	0.00038644846
96	0xa811c9fe	-8.092917e-15
97	0x2e43b21e	4.4496067e-11
98	0xb574ed70	-9.12426e-07
99	0x360e34d0	2.119039e-06
100	0xada8b988	-1.9181781e-11
101	0x35030c10	4.8818856e-07
102	0xb9af691e	-0.0003345692
103	0x37879a40	1.6165082e-05
104	0x34cc2a70	3.8028838e-07
105	0xb7053274	-7.939165e-06
106	0x368df4c6	4.230623e-06
107	0x361a0a47	2.295377e-06
108	0xb6af3a19	-5.22217e-06
109	0x17697e4a	7.544576e-25
110	0x364e419e	3.0734586e-06
111	0x2a268065	1.4788308e-13
112	0x36ded176	6.6405e-06
113	0x36296c5c	2.5246036e-06
114	0x357989aa	9.2960056e-07
115	0xb6ecd8cc	-7.0585866e-06
116	0xb723328d	-9.727327e-06
117	0x29af69d8	7.789922e-14
118	0x36620d85	3.3684494e-06
119	0x372143d6	9.612142e-06
120	0xb642e5ce	-2.9042017e-06
121	0x27d2b4c8	5.8482712e-15
122	0xb7020aac	-7.751089e-06
123	0xb5eedfba	-1.7797495e-06
124	0x36c2baea	5.80341e-06
125	0x36d95633	6.477139e-06
126	0xa2017487	-1.754445e-18
127	0xb7137de1	-8.791191e-06
128	0x26139606	5.120419e-16
129	0xae5e7951	-5.0584707e-11
130	0xbc8ad905	-0.016949186
131	0x3bbabed1	0.0056990166
132	0x27c9a213	5.596443e-15
133	0x2fb9eb19	3.381835e-10
134	0x2919dacb	3.4162597e-14
135	0xbcc2af10	-0.023765117
136	0x3be77983	0.007064046
137	0x3b16391d	0.0022922226
138	0x3b4d673a	0.0031342045
139	0xaca4565c	-4.670748e-12
140	0x3c115e4e	0.008872582
141	0x2550f906	1.8125497e-16
142	0x3d428a72	0.047495313
143	0x23ff808e	2.77016e-17
144	0x3baedc4b	0.0053363196
145	0x38c537c0	9.404076e-05
146	0x3b83237b	0.0040020323
147	0x3aba8ef2	0.0014233275
148	0x3b080e9f	0.0020760668
149	0x2db80ed7	2.0924968e-11
150	0xbc700d0c	-0.014651548
151	0x3d535cd1	0.05160219
152	0xbce5a539	-0.028032886
153	0x25002db8	1.111772e-16
154	0xb9f7b701	-0.0004724786
155	0xbc09ee53	-0.008418637
156	0x3b2cd2e6	0.0026370822
157	0xaeb0e763	-8.044656e-11
158	0x1a1eb6f0	3.282141e-23
159	0xba5a699f	-0.0008331779
160	0xa76d2f77	-3.2916088e-15
161	0xb7d468a3	-2.5321095e-05
162	0xbbe6e072	-0.007045799
163	0xbc58c780	-0.013231158
164	0x27a234e7	4.502139e-15
165	0x2f64e207	2.081678e-10
166	0x34fdfa37	4.7306978e-07
167	0x3bb41ba4	0.005496459
168	0xbca846fc	-0.02054166
169	0xbc58c3a6	-0.01323024
170	0xbd3e7757	-0.04650053
171	0x2aaf9042	3.1186344e-13
172	0xbc7a0806	-0.015260702
173	0xb40b659e	-1.2982352e-07
174	0xbbbba351	-0.005726256
175	0x24762246	5.3371778e-17
176	0xbcc53e97	-0.024077697
177	0xbc7c5d72	-0.0154031385
178	0xbcc99cda	-0.024610925
179	0xbcee53f7	-0.029092772
180	0xbc8f2488	-0.017473474
181	0x30136538	5.362213e-10
182	0xbb079e73	-0.0020693808
183	0xbbf019ca	-0.007327293
184	0xbbfd6526	-0.007733005
185	0x25c04f41	3.3360395e-16
186	0xbce70351	-0.028199824
187	0x3b7cf3eb	0.0038597535
188	0xbcb96257	-0.0226299
189	0x3035aaaf	6.608997e-10
190	0x9ae2e375	-9.3838886e-23
191	0xbd5e6a9b	-0.054300886
192	0xa79cd6d5	-4.353162e-15
193	0xb7742f09	-1.4554485e-05
194	0xbbf7741d	-0.0075516836
195	0xbc43a5f7	-0.011941425
196	0xa79e3dea	-4.3920937e-15
197	0x2f47abf4	1.8160035e-10
198	0xad8fcf1e	-1.6349196e-11
199	0x3bc7c0a4	0.0060959626
200	0xbcadc101	-0.021210195
201	0xbc8411d1	-0.016121777
202	0xbd3f0714	-0.04663761
203	0xaad95fd8	-3.8613448e-13
204	0xbc4ad6cd	-0.012380314
205	0xb4789113	-2.3149578e-07
206	0xbb3c2293	-0.0028707131
207	0xa490b4e2	-6.275647e-17
208	0xbcbc1993	-0.022961413
209	0xbc861ef6	-0.016372185
210	0xbcce63d5	-0.025194088
211	0xbcedcceb	-0.029028377
212	0xbc91919c	-0.017769627
213	0xaf742516	-2.2204846e-10
214	0xba43ed18	-0.00074739894
215	0xbb3f0b3a	-0.0029150979
216	0xbb7d1fb9	-0.0038623645
217	0xa5e0dfca	-3.900945e-16
218	0xbcce3b64	-0.025174804
219	0x3ad919e0	0.0016563497
220	0xbcc0f9c3	-0.023556596
221	0x2ff3a3f4	4.4317938e-10
222	0x1aa3aef9	6.7697903e-23
223	0xbd5bbb56	-0.053645454
224	0xa7441a3f	-2.7214692e-15
225	0xb79b24a7	-1.8494507e-05
226	0xbc146cab	-0.009059112
227	0xbc7d851f	-0.015473633
228	0xa73fbbb5	-2.660833e-15
229	0x2f409fb7	1.751904e-10
230	0x36077a47	2.0187742e-06
231	0x3b512892	0.003191505
232	0xbc9f03e1	-0.01941103
233	0xbc58ea32	-0.01323943
234	0xbd3826d3	-0.0449589
235	0xaa4f7ae9	-1.8427936e-13
236	0xbc9df46a	-0.019281585
237	0xb44f2506	-1.9291846e-07
238	0xbc613c40	-0.013747275
239	0x24800f1f	5.553677e-17
240	0xbcb7d3c3	-0.022439843
241	0xbcb06030	-0.02153024
242	0xbcce42e0	-0.025178373
243	0xbced8013	-0.028991735
244	0xbcbaa452	-0.022783432
245	0xaebe5669	-8.655549e-11
246	0xbbaafdce	-0.005218244
247	0xbc434f8e	-0.011920823
248	0xbbb3af30	-0.0054835305
249	0x24ed4621	1.0290117e-16
250	0xbceb61bf	-0.028733132
251	0x3c0d4f3b	0.008624847
252	0xbcac9cc6	-0.02107085
253	0x2faed99f	3.1805045e-10
254	0x1aa83eb2	6.958446e-23
255	0xbd602985	-0.054727096

model.4.bias f4 [16]
0	0x3604be1f	1.9780198e-06
1	0x33488b40	4.6692776e-08
2	0xaf5f1e56	-2.029251e-10
3	0x301ec850	5.7764726e-10
4	0xb48a3920	-2.5746067e-07
5	0x36488cc4	2.9884259e-06
6	0xb71ad6c6	-9.229121e-06
7	0xb75fa07f	-1.3329204e-05
8	0xa8159f60	-8.3057205e-15
9	0x351747ec	5.6356544e-07
10	0x3783a6ea	1.5694142e-05
11	0xb70dd243	-8.45321e-06
12	0xb4814368	-2.4077167e-07
13	0xb76a93d8	-1.3981909e-05
14	0xb65d5be0	-3.2985045e-06
15	0x3708def1	8.158139e-06

model.5.weight f4 [16]
0	0x3d507bc8	0.050899297
1	0x3d9130e0	0.070894
2	0x3a01ee00	0.0004956424
3	0x35eb95fa	1.7552513e-06
4	0x3d99f17d	0.07516763
5	0x3dc15d55	0.0944163
6	0x3dbc5fb2	0.0919794
7	0x3dc98779	0.098402925
8	0x14bc6ce8	1.9026105e-26
9	0x3d569bef	0.052394804
10	0x3d6ec161	0.05828989
11	0x3db9c6c0	0.09071112
12	0x2c85bf46	3.801323e-12
13	0x3dc566ea	0.0963877
14	0x3d951f1a	0.07281323
15	0x3d9e71d0	0.07736552

model.5.bias f4 [16]
0	0xbbb4435e	-0.005501195
1	0xb990a5a0	-0.0002758922
2	0xbb29e4c6	-0.0025923713
3	0xb8d3a486	-0.00010091909
4	0xbc6d805c	-0.014495935
5	0xbcd2db78	-0.025739416
6	0xbcbbc283	-0.022919899
7	0xbd056fcb	-0.032577317
8	0xaf856e24	-2.427082e-10
9	0xbb8fb21d	-0.0043852464
10	0xbc2684c7	-0.0101634925
11	0xbc7f1f80	-0.015571475
12	0xb299be66	-1.7898127e-08
13	0xbceb3b2d	-0.02871474
14	0xbb5ceb11	-0.0033709446
15	0xbc66c1c4	-0.014084283

model.5.running_mean f4 [16]
0	0x374af368	1.2096811e-05
1	0xbaa7c457	-0.0012799603
2	0x3816cc8f	3.5953297e-05
3	0x32b23480	2.0745802e-08
4	0x3a35d060	0.00069356523
5	0xbb07440d	-0.0020639927
6	0xbb0167c8	-0.0019745696
7	0xbb1708e5	-0.0023046073
8	0x27bb7803	5.2033043e-15
9	0xb8a3b0ea	-7.8053985e-05
10	0x38affd9b	8.391888e-05
11	0xbaef3b6c	-0.0018251962
12	0xb665025a	-3.4125028e-06
13	0xbb10c7a4	-0.0022091651
14	0xba7a660d	-0.000955195
15	0x3a67bc68	0.00088400254

model.5.running_var f4 [16]
0	0x34c13a53	3.5991488e-07
1	0x35867eb5	1.0020655e-06
2	0x301dfb47	5.7473354e-10
3	0x28f2bca0	2.69492e-14
4	0x3538918d	6.8757146e-07
5	0x35ad62f6	1.2918306e-06
6	0x359d64d9	1.1726762e-06
7	0x35cfad1a	1.5473081e-06
8	0x00000200	7.17e-43
9	0x34cf2e47	3.8590426e-07
10	0x34c8707c	3.7334746e-07
11	0x358e1d42	1.058834e-06
12	0x1710873d	4.6699604e-25
13	0x35c0aab4	1.4354796e-06
14	0x3500436b	4.778182e-07
15	0x3538c9ba	6.883889e-07

model.8.weight f4 [8, 16]
0	0xbb3a9562	-0.0028470387
1	0xbc1d0393	-0.009583372
2	0xb888d268	-6.5241766e-05
3	0x38146869	3.538319e-05
4	0xbc0d8fab	-0.00864021
5	0xbcead5ba	-0.028666366
6	0xbcdf3f31	-0.027251812
7	0xbcf7dc95	-0.030256549
8	0xaeb8b74a	-8.39991e-11
9	0xbbc83263	-0.006109522
10	0xbb9eafc7	-0.0048427316
11	0xbcb7e446	-0.022447716
12	0xad0fce4f	-8.174419e-12
13	0xbcf19f47	-0.029494895
14	0xbbae9375	-0.005327637
15	0xbc310297	-0.01080384
16	0xbc5d08db	-0.013490881
17	0x38a0d840	7.669674e-05
18	0x3a206ac3	0.00061194244
19	0xb8bab832	-8.90348e-05
20	0xbc20771b	-0.009794022
21	0x3d0c5311	0.034258906
22	0x3d05927c	0.0326104
23	0x3d2684ec	0.040654108
24	0x2ef01943	1.0918424e-10
25	0xbc62db83	-0.013846281
26	0xbbef6147	-0.0073052975
27	0x3ca02813	0.019550359
28	0xac0e5f12	-2.0232188e-12
29	0x3d0c55f8	0.034261674
30	0x3baa01b6	0.0051881922
31	0xbc3232d1	-0.010876373
32	0x3cb77732	0.022395704
33	0x3d23b4a0	0.03996718
34	0xbac3ec6a	-0.0014947776
35	0xb874d23e	-5.8369937e-05
36	0x3d19a248	0.03750828
37	0xbd056788	-0.03256944
38	0xbd104f73	-0.03523202
39	0xbd1560d5	-0.0364693
40	0xad306ba4	-1.0028343e-11
41	0x3ce3aa81	0.027791264
42	0x3ce157f7	0.027507765
43	0xbd1ba528	-0.037999302
44	0xace7ecfd	-6.591726e-12
45	0xbd0ea1f1	-0.034822408
46	0x3d21f964	0.039544478
47	0x3d2da7f1	0.04239649
48	0x3cd43cda	0.025907923
49	0x3d1db6b8	0.038504332
50	0x39de82d9	0.0004244063
51	0x381af166	3.694128e-05
52	0x3d2c0a4c	0.042002007
53	0xbd07b0a6	-0.03312745
54	0xbd07d7a0	-0.03316462
55	0xbd119b32	-0.035548396
56	0x2eb445e8	8.19787e-11
57	0x3cd399db	0.0258302
58	0x3d0803e6	0.033206843
59	0xbd1aa21c	-0.037752256
60	0x2bf21319	1.7200435e-12
61	0xbd0c6b27	-0.034281876
62	0x3d29b5ec	0.04143326
63	0x3d155238	0.036455363
64	0xbb4cfe03	-0.0031279332
65	0xbc0a7d7b	-0.008452768
66	0xbaa74376	-0.0012761194
67	0x38ccddfc	9.768826e-05
68	0xbc1ddb60	-0.009634823
69	0xbceffc4a	-0.029295105
70	0xbce784dc	-0.028261594
71	0xbcf2fd89	-0.02966191
72	0xae612882	-5.1195055e-11
73	0xb94321e9	-0.00018609282
74	0xb96f84a1	-0.00022842224
75	0xbcd7db08	-0.02634956
76	0x2ca2b8b6	4.624824e-12
77	0xbcfceeb8	-0.030875549
78	0xbb83a634	-0.0040176157
79	0xbc54fc00	-0.012999535
80	0xbc5b7081	-0.013393522
81	0xba9e1682	-0.0012061151
82	0x3a8d21cf	0.0010767522
83	0xb90f813d	-0.00013685688
84	0xbc236734	-0.009973336
85	0x3d0bea49	0.03415898
86	0x3cfdb580	0.030970335
87	0x3d224d6a	0.03962461
88	0x2da8c803	1.9188212e-11
89	0xbc5edb37	-0.01360207
90	0xbc0ed2c3	-0.008717242
91	0x3cb29629	0.021800118
92	0xac80a5e7	-3.6563977e-12
93	0x3d0e9a6d	0.03481524
94	0x3b876ea1	0.004133061
95	0xbc33cb57	-0.010973773
96	0x3cd8a0ab	0.0264438
97	0x3d18c686	0.0372987
98	0x3a808410	0.0009804983
99	0xb8c7f3a3	-9.53444e-05
100	0x3d22bd82	0.03973151
101	0xbd058aa7	-0.032602932
102	0xbd0a5583	-0.033772957
103	0xbd12c707	-0.03583434
104	0x2d829042	1.4843352e-11
105	0x3d000dbb	0.031263094
106	0x3d15b61c	0.036550626
107	0xbd14e95f	-0.036355373
108	0xaa4022b0	-1.706506e-13
109	0xbd0cfb01	-0.034419063
110	0x3d24e4e9	0.04025737
111	0x3d2b8127	0.041871216
112	0xbbc45d49	-0.005992566
113	0xbc9e4b3f	-0.01932299
114	0xbaabbbe3	-0.0013102259
115	0x386e7652	5.6853816e-05
116	0xbcb46201	-0.022019388
117	0xbcd9b735	-0.026576618
118	0xbccec542	-0.025240544
119	0xbcee257e	-0.029070612
120	0xaf18a76f	-1.3883804e-10
121	0xbb27c074	-0.0025596889
122	0xbc82606a	-0.015915114
123	0xbca045dd	-0.019564563
124	0x2c87b966	3.857514e-12
125	0xbcdd4f3d	-0.027015323
126	0xbc4af8a6	-0.012388384
127	0xbcbdbffa	-0.02316283

model.8.bias f4 [8]
0	0xb6a7aa7c	-4.996835e-06
1	0x35a11256	1.2000771e-06
2	0x36c6a832	5.9204403e-06
3	0xb6271d1c	-2.4901883e-06
4	0xb642d332	-2.9031185e-06
5	0xb54613f0	-7.378976e-07
6	0xb6f9024e	-7.4210466e-06
7	0x3739c186	1.10719175e-05

model.9.weight f4 [8]
0	0x3d947daf	0.07250535
1	0x3dabb572	0.08384217
2	0x3e0a47d8	0.13503969
3	0x3e097886	0.13424882
4	0x3d93c73c	0.07215735
5	0x3daaf9c6	0.08348422
6	0x3e0a833d	0.13526626
7	0x3da2fbc7	0.07958179

model.9.bias f4 [8]
0	0x3d4427c7	0.047889497
1	0x3c8497c3	0.016185647
2	0x3cc263a6	0.023729157
3	0x3cabef3d	0.020988101
4	0x3d4e6614	0.050390318
5	0x3c802688	0.015643373
6	0x3ca7df81	0.020492317
7	0x3d515ab8	0.051111907

model.9.running_mean f4 [8]
0	0xba7f0b23	-0.00097291375
1	0x3a4e7e16	0.00078770646
2	0xb88ea2bc	-6.801399e-05
3	0xb82c7c77	-4.1123913e-05
4	0xba8106b9	-0.0009843922
5	0x3a4d3540	0.0007828064
6	0xb7cf284d	-2.469509e-05
7	0xba94037c	-0.0011292542

model.9.running_var f4 [8]
0	0x3641863e	2.883738e-06
1	0x36862f5c	3.9990246e-06
2	0x367df0f9	3.7840202e-06
3	0x36760beb	3.6663794e-06
4	0x364e9d27	3.0787867e-06
5	0x3686718f	4.006731e-06
6	0x367d0b3d	3.770648e-06
7	0x36380913	2.7423418e-06

model.12.weight f4 [4, 8]
0	0xbb9219fb	-0.0044586635
1	0xbc1d899a	-0.009615326
2	0x3d90405d	0.07043526
3	0x3d9686e5	0.07349948
4	0xb9a07ea8	-0.00030611944
5	0xbc15483b	-0.009111459
6	0x3d948f3c	0.07253882
7	0xbcab4267	-0.020905687
8	0xbdb01ebb	-0.08599611
9	0x3dac73eb	0.08420547
10	0xbd5e2f47	-0.054244306
11	0xbd39f431	-0.045398895
12	0xbdb4fb65	-0.08837012
13	0x3dabfa27	0.08397322
14	0xbd357f95	-0.044311125
15	0xbdb49c7f	-0.08818912
16	0xbb8c5c58	-0.004283469
17	0xbc1e21d0	-0.009651616
18	0x3d962639	0.07331509
19	0x3d949fe0	0.07257056
20	0xb932114d	-0.00016981848
21	0xbc2357f4	-0.0099697
22	0x3d95ae59	0.07308645
23	0xbcaaa29a	-0.020829488
24	0xbb8ca53d	-0.004292159
25	0xbc233066	-0.00996027
26	0x3d8c0d55	0.068384804
27	0x3d953efb	0.07287403
28	0x3a2f67fb	0.00066912145
29	0xbc186b19	-0.009302878
30	0x3d9b3c4c	0.0757986
31	0xbca8b2af	-0.020593015

model.12.bias f4 [4]
0	0xb66abacc	-3.4977447e-06
1	0x38a5f389	7.913175e-05
2	0x3587b3f7	1.011066e-06
3	0x35aec0a8	1.3020081e-06

model.13.weight f4 [4]
0	0x3ec701b4	0.38868487
1	0x3f89153b	1.0709604
2	0x3ecced20	0.40024662
3	0x3ec849b8	0.39118743

model.13.bias f4 [4]
0	0x3e86b14d	0.26307145
1	0x3ed3526e	0.41273826
2	0x3e8ad4d2	0.27115494
3	0x3e87827e	0.26466745

model.13.running_mean f4 [4]
0	0x3bec8597	0.0072180736
1	0xbc8a7417	-0.01690106
2	0x3befdcd5	0.0073200264
3	0x3bef6fea	0.0073070424

model.13.running_var f4 [4]
0	0x38754451	5.8476176e-05
1	0x399aaf9a	0.00029504002
2	0x387c4fbc	6.015574e-05
3	0x387839b5	5.918155e-05

model.16.weight f4 [1, 4]
0	0x3ef0ef9d	0.4705781
1	0xbf92f45f	-1.1480826
2	0x3ef84967	0.48493502
3	0x3ef2771a	0.47356492
