examples/models/gibbsphen_mlp_filter_32_16_8_colab.pth (torch, 12330 bytes, 19 tensors)

model.0.weight f4 [32, 5]
00000000: 2e1a 0039 3655 2839 50ce 8fb8 a614 2939
00000010: 72a2 6939 a04b b6b8 660a 3139 7c83 7439
00000020: 60f4 9ab8 32e9 19b9 46ae 17b9 8014 2d39
00000030: 2c68 c638 405d 8838 d2a4 1239 826c 3939
00000040: b8ff fd38 b6ca 1c39 16f2 1a39 c433 5bb9
00000050: 1428 3039 a831 b4b8 2883 43b9 9637 0bb9
00000060: 1cf3 e138 920a 3ab9 9031 d0b8 8c52 9eb8
00000070: 2ca1 93b8 e2b9 4239 9072 c738 12cb 1bb9
00000080: fc90 e2b8 68f6 a5b8 1210 12b9 788e 4f39
00000090: 5292 2739 06c0 3b39 f61f 08b9 7a00 00b9
000000a0: 8426 d738 56e9 08b9 14bd a538 76c7 2039
000000b0: d4fc 2539 ccd9 93b8 3cbd b938 161d 1639
000000c0: 9e3b 5d39 1859 98b8 3c46 1739 120a 2e39
000000d0: 74d1 d938 d800 4639 8646 5339 0ac4 0eb9
000000e0: d005 22b9 a0f2 a7b8 36b3 45b9 506f eab8
000000f0: 18ef 4a39 60a9 eb38 a802 9ab8 9487 d138
00000100: 78df 3bb9 f476 f038 10ed f038 7666 4fb9
00000110: 64fc b438 fac3 35b9 12af 1bb9 08d0 e938
00000120: 0caf 13b9 b4ce dab8 d02f 1cb9 74ea b338
00000130: b61b 1cb9 dce5 f1b8 ba8d 3ab9 1c01 e6b8
00000140: 6611 4939 bc2b 3739 8c05 e5b8 7097 a9b8
00000150: 6271 4639 d4e9 2cb9 1e0a 0b39 30e5 20b9
00000160: 2869 b338 54bf 3eb9 0690 3c39 503d 8ab8
00000170: e0b5 cd38 7023 d1b8 b8a7 bc38 c4b0 88b8
00000180: 0837 1eb9 448b 3039 7ca5 16b9 e06e f0b8
00000190: a40e b438 04d6 f6b8 4493 dab8 18ff 7f39
000001a0: 389a e0b8 8474 f238 600f e438 b69a 1639
000001b0: 3077 b2b8 1865 3639 cc6f 9038 22cf 29b9
000001c0: 06b3 2939 f870 2639 4a5b 08b9 a8f3 8d39
000001d0: a03f 88b8 ece9 9cb8 5259 5139 a0ee 1f39
000001e0: c0a9 eab8 e682 2cb9 60ff a5b8 8c1f 0139
000001f0: 98a2 b0b8 e491 a038 b053 cf38 8c11 1839
00000200: d0f0 fd38 1058 7fb8 0871 a1b8 c860 9fb8
00000210: f8aa 4d39 d6b7 0e39 38ba d038 44e8 9cb8
00000220: cc16 b438 84b5 abb8 94d4 c9b8 fca9 a238
00000230: 54a8 a2b8 3c99 9db8 1c7f a9b8 f4df c0b8
00000240: 1c4d ac38 2cbc a6b8 58e5 a238 4402 9eb8
00000250: 9c7d a4b8 c0e1 a4b8 f40d a838 88ce 3f39
00000260: 4288 3fb9 34f3 9b38 f679 1e39 a8b0 1139
00000270: f4d6 e5b8 9ee1 2339 647a 3f39 3408 87b9
0.00012216784 0.00016053472 -6.8572e-05 0.00016124788 0.00022281127 -8.6925225e-05 0.00016883909 0.00023318635
-7.3888106e-05 -0.00014678089 -0.00014465404 0.00016506203 9.460779e-05 6.5023545e-05 0.00013985045 0.00017683397
0.000121116114 0.00014952835 0.00014776769 -0.00020904752 0.00016799598 -8.592318e-05 -0.00018645509 -0.0001327678
0.00010774119 -0.0001774228 -9.9274446e-05 -7.549403e-05 -7.039527e-05 0.00018570528 9.5103984e-05 -0.00014857601
-0.00010803525 -7.91371e-05 -0.00013929632 0.00019794132 0.0001598087 0.00017905244 -0.00012981877 -0.00012207209
0.00010259173 -0.00013056895 7.903032e-05 0.00015333094 0.00015829812 -7.050074e-05 8.856735e-05 0.0001431595
0.00021098412 -7.26452e-05 0.00014426647 0.00016597685 0.0001038638 0.00018883066 0.000201488 -0.00013615206
-0.00015451689 -8.008373e-05 -0.00018854145 -0.00011178723 0.0001935329 0.00011237222 -7.343787e-05 9.99115e-05
-0.00017916958 0.000114662485 0.00011488248 -0.00019779228 8.63008e-05 -0.00017334512 -0.0001484717 0.000111490546
-0.00014084222 -0.000104335515 -0.00014895131 8.5790554e-05 -0.00014887642 -0.0001153459 -0.0001779114 -0.00010967461
0.00019175335 0.00017468532 -0.00010920604 -8.0867554e-05 0.0001892499 -0.00016490306 0.00013259842 -0.00015344168
8.554972e-05 -0.00018191087 0.0001798273 -6.591773e-05 9.8090386e-05 -9.972497e-05 8.9957786e-05 -6.5179105e-05
-0.00015088555 0.00016836548 -0.00014366762 -0.00011464744 8.585796e-05 -0.000117700576 -0.000104224804 0.00024413725
-0.00010709878 0.00011561162 0.00010874751 0.00014362749 -8.509902e-05 0.00017394533 6.887279e-05 -0.00016194259
0.00016183787 0.00015873078 -0.00013003979 0.00027075154 -6.4968364e-05 -7.482231e-05 0.00019965068 0.00015252316
-0.00011189608 -0.00016451962 -7.9153804e-05 0.00012314151 -8.4226194e-05 7.656569e-05 9.886117e-05 0.00014502386
0.00012108835 -6.0878752e-05 -7.698132e-05 -7.599738e-05 0.00019614014 0.0001361066 9.952899e-05 -7.4819225e-05
8.587315e-05 -8.187725e-05 -9.624023e-05 7.756424e-05 -7.7561155e-05 -7.5148855e-05 -8.082224e-05 -9.196988e-05
8.215962e-05 -7.9505466e-05 7.7674806e-05 -7.534449e-05 -7.843526e-05 -7.8621786e-05 8.013463e-05 0.00018292118
-0.0001826594 7.436276e-05 0.00015113488 0.00013894087 -0.00010959609 0.0001562894 0.00018260774 -0.00025755318

model.0.bias f4 [32]
00000000: 2887 c738 ceb0 27b9 9819 1939 9819 19b9
00000010: f8b8 e0b8 d0f6 fa38 4c70 a0b8 9819 19b9
00000020: 2492 a0b8 f451 06b9 9819 1939 4ae8 16b9
00000030: 3414 a8b8 dcc8 1f39 9819 19b9 78ea 0139
00000040: 1467 11b9 9819 19b9 3e21 02b9 b465 2cb9
00000050: 5ae5 18b9 a836 3c39 648b e838 e0de c6b8
00000060: 8c12 e0b8 b493 a038 1ced dfb8 ec39 ac38
00000070: f692 3b39 9a9f 21b9 64fc 0839 2c77 32b9
9.514234e-05 -0.00015992226 0.00014600751 -0.00014600751 -0.000107156055 0.000119669014 -7.6503115e-05 -0.00014600751
-7.656615e-05 -0.00012809766 0.00014600751 -0.00014391649 -8.0146274e-05 0.00015238248 -0.00014600751 0.00012389745
-0.00013866677 -0.00014600751 -0.0001241015 -0.00016441086 -0.0001458129 0.00017949438 0.000110885856 -9.4828894e-05
-0.00010684607 7.6569064e-05 -0.00010677634 8.212388e-05 0.00017888457 -0.00015413613 0.00013063994 -0.00017019798

model.1.weight f4 [32]
00000000: c49e c3b8 6ae6 66b9 fca3 2539 d60c 4d39
00000010: 6647 6c39 4468 1c39 9c62 b0b8 849c 8fb8
00000020: 70a4 d438 ecb3 e138 c0b0 90b8 e4d6 8838
00000030: e2de 1139 2a85 48b9 5020 a038 e46a 64b9
00000040: ec4f 8838 f83d 7f39 d036 a338 7825 bfb8
00000050: 7c9a cab8 d88d 7b39 08b7 0939 8089 8c38
00000060: f82c 8e38 a0fe 1439 e03b cfb8 e43d a638
00000070: ec44 b738 94fa 12b9 6621 1439 1ab4 12b9
-9.327897e-05 -0.00022020345 0.00015796715 0.00019555105 0.00022533312 0.00014916161 -8.4107014e-05 -6.847925e-05
0.000101395766 0.00010762349 -6.899377e-05 6.525012e-05 0.00013911308 -0.00019123094 7.635413e-05 -0.00021783594
6.499872e-05 0.0002434178 7.782655e-05 -9.114569e-05 -9.6608856e-05 0.00023990066 0.00013133523 6.7013316e-05
6.779464e-05 0.00014209235 -9.881682e-05 7.927025e-05 8.738958e-05 -0.00014016993 0.00014126822 -0.00013990738

model.1.bias f4 [32]
00000000: 1040 8438 7085 aab8 928b 3fb9 188f d8b8
00000010: 3052 1e39 e861 bbb8 e433 4eb9 70ea c738
00000020: 5cac 08b9 e24f 64b9 5aa2 6cb9 d458 4eb9
00000030: 62e9 3139 e47f abb8 9cad 55b9 b83a 8e38
00000040: 8467 25b9 3483 c5b8 5078 3639 669a 4039
00000050: 7441 e738 4835 b7b8 78c4 2439 d6be 5fb9
00000060: f080 e4b8 f075 9338 a804 dfb8 26dd 14b9
00000070: be2b 03b9 9011 df38 f438 9638 f8da 1439
6.306183e-05 -8.131086e-05 -0.00018267173 -0.00010326336 0.00015098671 -8.935091e-05 -0.00019665022 9.532727e-05
-0.0001303418 -0.00021773533 -0.00022567195 -0.00019678782 0.00016966977 -8.177737e-05 -0.00020377937 6.782025e-05
-0.00015774189 -9.4181305e-05 0.00017401692 0.00018368065 0.0001102713 -8.7360444e-05 0.00015713449 -0.00021338029
-0.00010895904 7.031474e-05 -0.00010634336 -0.00014196764 -0.00012509429 0.0001063674 7.163166e-05 0.00014195952

model.1.running_mean f4 [32]
00000000: a03e a73a b6a3 36ba 1586 9f3a 3bcd 4b39
00000010: 5c4e 40ba 6455 27b9 f36c 9bba d507 73b9
00000020: b921 7939 344e 5eb9 be8b e83a 8854 e2ba
00000030: e6c8 6cb9 d5a2 383a 5cc9 a4ba c859 79b9
00000040: 6165 4fb9 2908 56ba 8d91 7eb9 73b8 a0ba
00000050: 58ea 3cba 9621 a93a 5b0c 3e3a 70f1 03b9
00000060: 9686 9bba f48b 9b3a 7e7f 54b9 2529 8339
00000070: 0649 f8b8 8853 9cba fe67 9d3a 2346 a0b9
0.0012759753 -0.0006967144 0.0012170697 0.00019436043 -0.0007335895 -0.00015958172 -0.0011858031 -0.00023177204
0.00023759053 -0.00021200703 0.0017741842 -0.0017267624 -0.00022581554 0.0007043307 -0.0012572217 -0.00023779937
-0.00019778825 -0.0008164668 -0.0002427755 -0.0012262001 -0.0007206551 0.0012903686 0.0007249766 -0.00012583076
-0.0011865671 0.0011867271 -0.0002026539 0.00025016922 -0.00011839163 -0.001192675 0.0012009142 -0.00030569834

model.1.running_var f4 [32]
00000000: e8ae 0e33 6c60 1633 eadb 2133 5420 3633
00000010: 49dd f532 9b4a 2433 9ba9 1e33 d6c7 3b33
00000020: 6d1a dc32 b921 e932 0564 1e33 9cb0 1433
00000030: 41e7 0133 612c f832 e5c1 d532 3647 2433
00000040: 1c07 1533 3a02 2132 f180 1132 e409 0533
00000050: 1d31 1233 f215 d332 d3da 1633 6d7c 1433
00000060: 9b1c d832 ee3c 1833 b051 2633 6e5b 0033
00000070: acff 0e33 d059 b932 b21f 0833 1250 2833
3.3221028e-08 3.501229e-08 3.7685744e-08 4.240458e-08 2.8622383e-08 3.825208e-08 3.6941497e-08 4.372108e-08
2.5623388e-08 2.7140105e-08 3.687821e-08 3.461956e-08 3.0245477e-08 2.8891181e-08 2.4884637e-08 3.824899e-08
3.4698232e-08 9.37194e-09 8.469429e-09 3.097547e-08 3.4037942e-08 2.4573612e-08 3.5123616e-08 3.45721e-08
2.5158718e-08 3.5445673e-08 3.872418e-08 2.9885477e-08 3.3294484e-08 2.1577677e-08 3.1693794e-08 3.918837e-08

model.4.weight f4 [16, 32]
00000000: 8c36 bab8 ccdd 2939 b012 e0b8 b478 9f38
00000010: cc8b e3b8 b40a 9c38 403c a538 78b2 7eb8
00000020: b669 2eb9 0ec6 3739 e43d a7b8 689e ae38
00000030: 8244 0839 82fe 5139 46cc 0b39 7282 1fb9
00000040: b0d7 f738 9422 aeb8 ea5e 4b39 7ceb d6b8
00000050: 2ccf 9a38 bc7c e0b8 caa1 0fb9 c091 14b9
00000060: 0c80 c638 6ea1 1839 42ca 0e39 e875 d238
00000070: de23 32b9 0426 ef38 5efb 04b9 f4a7 4ab9
00000080: b83e a938 9c6f cd38 e6fa 06b9 2870 9bb8
00000090: 1428 1839 d471 97b8 0e23 3f39 7c56 3139
000000a0: e6b6 31b9 c020 e8b8 9ebc 3939 aeb3 0039
000000b0: ee4b 3039 1088 34b9 d838 a438 a858 e938
000000c0: b497 1439 78df aeb8 3666 2eb9 74c2 feb8
000000d0: 6cc9 dcb8 88ea b6b8 88a8 9b38 90df 03b9
000000e0: 82b0 2339 02a8 3539 7c26 8f38 2ea5 1e39
000000f0: da5a 3db9 fc05 e4b8 74c9 aa38 584c 0d39
00000100: 30c6 dd38 4622 3eb9 9c01 1b39 40ae 2cb9
00000110: 0257 3539 5ca6 e5b8 90e7 df38 c869 e338
00000120: 9e15 3a39 1046 2739 7658 3939 487a 9038
00000130: 9c31 fc38 d061 b638 ce07 0e39 2498 9138
00000140: 8889 b438 3097 43b9 088b 4639 8232 4039
00000150: 74ae be38 38c7 a638 f4de c438 46d0 41b9
00000160: d06d 2139 447a 9ab8 6cef b038 4c87 9f38
00000170: 441b a7b8 2425 f1b8 8076 ad38 e831 e4b8
00000180: e093 a138 6498 d138 fa3a 42b9 147f 38b9
00000190: a0f3 2139 3882 9db8 2802 adb8 8ebe 33b9
000001a0: f8e4 d238 f810 09b9 ba6e 46b9 2428 ad38
000001b0: 3434 1d39 3c05 a438 ba97 3d39 b4c1 88b8
000001c0: c06a a6b8 6e4d 2a39 bc78 a1b8 8853 12b9
000001d0: 9483 e338 d0e1 0839 10d4 a8b8 f04e b438
000001e0: e865 8c39 5cbc 9838 302f 62b9 6cb4 cf38
000001f0: c8a7 99b8 92c8 1fb9 2cad 9338 38da a638
00000200: 549d 9d38 5014 a3b8 78d4 cf38 3c56 3db9
00000210: 4c19 9fb8 ee42 0339 48c9 d838 6c2b c0b8
00000220: c8ba 8c38 ba36 3339 ba10 24b9 606e 89b8
00000230: 5c2a 04b9 405a 1eb9 c83c a938 3a5d 3ab9
00000240: 024e 09b9 36f4 23b9 04a8 2eb9 ac11 a7b8
00000250: 94b5 9a38 80b1 da38 5a31 2339 f80c 9eb8
00000260: 3efa 3b39 7097 4939 6408 d438 c07f 02b9
00000270: 6872 acb8 0ca6 9a38 8c41 d338 6a4a 2cb9
00000280: 3c08 e038 a052 d838 52a0 37b9 8ce6 d338
00000290: fc2d d238 3a80 43b9 cc42 b038 0ef0 3939
000002a0: b0af 93b8 b480 e138 8c6a a738 c41a c638
000002b0: 5c72 a338 4490 aa38 029b 1439 381a a338
000002c0: 3eff 32b9 7e58 04b9 2c45 e2b8 b462 df38
000002d0: 6a03 0639 b4e9 2a39 c4c5 b5b8 6875 07b9
000002e0: 1481 2c39 e890 bb38 58f9 87b8 ccfe cd38
000002f0: 9897 ef38 0ab9 33b9 6887 a138 2033 cdb8
00000300: 049e a2b8 5871 ce38 7abc 2d39 9456 13b9
00000310: 187b d9b8 c4b3 8838 8846 2cb9 4623 0439
00000320: 18b5 a9b8 740d 34b9 5435 1d39 645e a238
00000330: 90a9 0139 a008 c538 f8da 86b8 a6ca 21b9
00000340: c83c a938 909e ebb8 f2fa 02b9 184a 9cb8
00000350: a43f 0539 98b0 93b8 20b9 2439 bc07 b9b8
00000360: 2071 9838 0003 a838 d4e7 3639 3ce6 a438
00000370: b8c2 0339 d28b 27b9 ec39 1539 da56 48b9
00000380: 10e6 afb8 7837 dc38 f4ec ceb8 0c60 f838
00000390: 6093 8938 7eb3 1f39 c47f dc38 aac7 2e39
000003a0: 101b bc38 24be d938 5032 92b8 64d0 a238
000003b0: fc71 2639 4ca9 afb8 0896 34b9 04b5 7c39
000003c0: 543e f638 7eff 0f39 3ac3 07b9 9c2b ed38
000003d0: 941f aeb8 2eac 2539 5a6d 1a39 8e9b 13b9
000003e0: 34df af38 7444 2439 469e 1739 0c94 9738
000003f0: 9812 d738 5054 d1b8 dcf9 a6b8 bec2 0fb9
-8.879331e-05 0.00016199722 -0.00010684633 7.6041935e-05 -0.00010850243 7.440653e-05 7.8790355e-05 -6.072453e-05
-0.00016633313 0.00017526021 -7.9747086e-05 8.326472e-05 0.00012995492 0.00020026605 0.00013332171 -0.00015212016
0.00011818053 -8.303407e-05 0.00019394947 -0.000102481776 7.381881e-05 -0.00010704386 -0.00013697814 -0.00014168676
9.465226e-05 0.00014555987 0.00013617522 0.00010035542 -0.00016988764 0.00011403489 -0.00012682143 -0.00019326789
8.07023e-05 9.7959506e-05 -0.00012872703 -7.411867e-05 0.0001451078 -7.221443e-05 0.00018228238 0.00016912253
-0.0001694817 -0.00011068722 0.0001771324 0.00012273967 0.00016812954 -0.00017216825 7.8307174e-05 0.00011126819
0.00014170894 -8.338591e-05 -0.0001663201 -0.000121478835 -0.00010527935 -8.722121e-05 7.422367e-05 -0.00012576417
0.00015610646 0.00017324093 6.8259396e-05 0.00015129588 -0.0001805829 -0.00010873002 8.143755e-05 0.00013475248
0.000105750165 -0.0001813258 0.00014782551 -0.00016468111 0.00017293918 -0.00010950558 0.000106766005 0.00010843907
0.00017746395 0.00015952461 0.00017675929 6.889232e-05 0.00012025537 8.696655e-05 0.00013545083 6.942477e-05
8.608686e-05 -0.00018652971 0.00018934545 0.00018329363 9.0924004e-05 7.952604e-05 9.3875366e-05 -0.00018483502
0.00015395065 -7.366066e-05 8.43693e-05 7.606912e-05 -7.968259e-05 -0.000114986935 8.271355e-05 -0.00010881183
7.704622e-05 9.9942816e-05 -0.00018523252 -0.00017594948 0.00015444914 -7.5105985e-05 -8.2496845e-05 -0.00017141757
0.00010056229 -0.0001307166 -0.00018924 8.2567596e-05 0.00014992134 7.8211044e-05 0.00018080967 -6.5210654e-05
-7.9353806e-05 0.00016241308 -7.699567e-05 -0.00013954763 0.00010848712 0.00013054092 -8.050364e-05 8.597772e-05
0.00026778807 7.2830095e-05 -0.00021570618 9.9041354e-05 -7.32686e-05 -0.0001523814 7.041762e-05 7.956143e-05
7.515648e-05 -7.776229e-05 9.9101046e-05 -0.0001805657 -7.586423e-05 0.00012518067 0.00010337174 -9.1633614e-05
6.710511e-05 0.00017091157 -0.0001564649 -6.553228e-05 -0.00012604281 -0.00015101675 8.069869e-05 -0.00017773072
-0.00013094398 -0.00015635867 -0.00016656524 -7.966472e-05 7.377114e-05 0.00010428112 0.00015563276 -7.536443e-05
0.00017926932 0.00019225269 0.000101105106 -0.00012445357 -8.222909e-05 7.374221e-05 0.00010073473 -0.0001643092
0.00010682686 0.00010315073 -0.00017511964 0.00010104207 0.000100221456 -0.00018644417 8.404776e-05 0.00017732402
-7.0422306e-05 0.00010752809 7.9830264e-05 9.446361e-05 7.793747e-05 8.133103e-05 0.00014172125 7.777329e-05
-0.00017070488 -0.00012621467 -0.00010789404 0.000106518535 0.00012780508 0.00016299525 -8.667589e-05 -0.0001291834
0.00016451284 8.943846e-05 -6.4837455e-05 9.822621e-05 0.000114246446 -0.00017139703 7.7022996e-05 -9.7846845e-05
-7.754195e-05 9.8439574e-05 0.00016568779 -0.00014051265 -0.00010370294 6.518469e-05 -0.00016429473 0.00012601641
-8.092279e-05 -0.0001717115 0.00014992553 7.7423436e-05 0.00012365566 9.3952985e-05 -6.430404e-05 -0.00015429649
8.069869e-05 -0.00011235208 -0.0001249125 -7.452461e-05 0.00012707576 -7.0423994e-05 0.00015709223 -8.822928e-05
7.268996e-05 8.011423e-05 0.00017443235 7.863014e-05 0.00012565672 -0.00015978448 0.00014231325 -0.00019105841
-8.387503e-05 0.00010500749 -9.8669814e-05 0.00011843452 6.56012e-05 0.00015230288 0.00010514216 0.00016668314
8.969579e-05 0.00010382783 -6.971194e-05 7.763578e-05 0.00015873456 -8.376184e-05 -0.00017222029 0.00024100026
0.000117418036 0.00013732721 -0.00012947331 0.000113091635 -8.3028484e-05 0.00015799768 0.00014727321 -0.00014076961
8.386225e-05 0.0001566576 0.00014459444 7.227817e-05 0.00010255462 -9.981601e-05 -7.962037e-05 -0.0001371009

model.4.bias f4 [16]
00000000: 58d4 1b39 4ebe 2339 6a3e 07b9 8e53 15b9
00000010: da4a 2839 488c 1c39 349d 39b9 d47a e238
00000020: be06 2b39 04e5 b338 568c 58b9 ec46 33b9
00000030: fe09 17b9 66c8 4d39 7239 16b9 aa43 0439
0.00014861056 0.00015615785 -0.00012897854 -0.00014240874 0.00016049613 0.00014929578 -0.00017701538 0.00010799398
0.00016310342 8.5780426e-05 -0.00020651644 -0.0001709719 -0.00014404205 0.00019624978 -0.00014326515 0.00012613708

model.5.weight f4 [16]
00000000: 2076 9838 24d4 b738 1839 6cb9 c489 13b9
00000010: 205b a638 fc44 2939 60e8 8cb8 6917 8a39
00000020: de56 1eb9 1cfb a838 4859 f2b8 86cf 8db9
00000030: 6283 2b39 767e 40b9 7c79 0439 986f b838
7.269927e-05 8.765634e-05 -0.00022527983 -0.00014070334 7.93247e-05 0.00016142795 -6.7190034e-05 0.00026338853
-0.00015100415 8.057637e-05 -0.00011556089 -0.00027048233 0.00016356775 -0.00018357657 0.00012633757 8.79459e-05

model.5.bias f4 [16]
00000000: d65b 6039 4847 a5b8 b2f0 1639 c07a 1739
00000010: 18fc 8038 1661 47b9 9450 93b8 081e bdb8
00000020: 60bf 40b9 e08f 6cb8 e4cc 84b8 e059 de38
00000030: 5455 f538 2a89 2db9 f0d6 8938 a079 edb8
0.00021396516 -7.88109e-05 0.00014394781 0.0001444621 6.150472e-05 -0.00019014286 -7.024515e-05 -9.017816e-05
-0.0001838184 -5.640078e-05 -6.332414e-05 0.000106025254 0.00011698404 -0.00016549663 6.572704e-05 -0.00011323695

model.5.running_mean f4 [16]
00000000: 28af 093a 6d9f 0b3a c194 05ba 39a4 08ba
00000010: d503 0c3a 3b49 0a3a c34e 0fba 24fc 013a
00000020: 1268 0c3a f39d fb39 ab52 14ba 7823 0eba
00000030: 4a70 09ba a06b 123a 6cf4 08ba c492 053a
0.00052522356 0.00053261855 -0.00050957134 -0.00052124594 0.0005341147 0.00052751944 -0.00054667535 0.00049585314
0.0005356084 0.00047992132 -0.00056580704 -0.00054221554 -0.00052428676 0.00055854954 -0.000522441 0.0005095417

model.5.running_var f4 [16]
00000000: f001 9f2a f9f0 962a 9b0f a22a c867 852a
00000010: 5bab 8f2a 159f 902a c6ed 9d2a 0d60 a72a
00000020: 3916 b02a 1433 9e2a bbb3 d52a 58dc b22a
00000030: d782 aa2a 2b19 a32a e0b2 a82a 70ee 942a
2.8245418e-13 2.681256e-13 2.878781e-13 2.369756e-13 2.5520805e-13 2.5689924e-13 2.805379e-13 2.9731808e-13
3.12793e-13 2.810188e-13 3.7961114e-13 3.1772046e-13 3.0288855e-13 2.897208e-13 2.9966914e-13 2.645553e-13

model.8.weight f4 [8, 16]
00000000: 3029 2439 20af dbb8 1863 a238 b043 bf38
00000010: 5ecf 2eb9 029c 7039 e4a6 3939 7035 b9b8
00000020: 125c 38b9 d824 f638 dcd1 4039 a4ea a0b8
00000030: 1cf4 94b8 4c2c 8c38 0811 bbb8 9e9d 54b9
00000040: 440d 1939 1c23 8bb8 f4ee ea38 2c5d 9038
00000050: 10d4 c338 4eb2 6ab9 aadb 31b9 24b0 31b9
00000060: 3ce4 abb8 d279 33b9 d006 d138 ace2 ed38
00000070: c885 3d39 46bd 0439 14f4 95b8 56bf 27b9
00000080: aa16 2539 18f7 c5b8 9893 93b8 e08c cbb8
00000090: ec0a 4fb9 a0cc 3cb9 18d6 c238 becc 3839
000000a0: f46c 86b8 30a7 8ab8 b81c a6b8 cc7f 3039
000000b0: f0e8 b638 0886 8439 00f0 efb8 6800 95b8
000000c0: 06ae 1639 c8bb 8738 f8e6 ed38 c8d3 ac38
000000d0: ccf4 a038 32f0 1439 682a dbb8 e8eb b9b8
000000e0: e456 b2b8 6085 cd38 f48e 8838 50f3 b038
000000f0: 14af c338 fe4d 4939 1817 ad38 6033 b6b8
00000100: 7636 55b9 6e69 1839 a090 9738 1201 00b9
00000110: fccc 05b9 48b8 fdb8 a02e fc38 a49d 2039
00000120: befa 3239 c8c8 0d39 8025 5d39 ebec 83b9
00000130: c023 6c39 4c0f 9038 b0e6 b6b8 7868 3e39
00000140: 4ede 4eb9 5a72 0339 f0dc 8338 2abb 63b9
00000150: 9867 9238 3007 9338 44e7 d8b8 5407 12b9
00000160: fce8 e3b8 c4ae da38 423a 3e39 8a4a 2c39
00000170: 387a a438 7a68 0639 4081 cfb8 94cd 4539
00000180: 2ef1 2039 f815 4c39 608b 9d38 2488 9938
00000190: eee2 17b9 5095 f0b8 c0f3 1f39 4c94 c838
000001a0: 40ba 20b9 d8f1 8838 8691 42b9 dae7 2cb9
000001b0: fc91 d838 20d8 88b8 da90 3a39 3826 91b8
000001c0: 4e14 67b9 3a0f 2e39 3007 6ab9 2846 8738
000001d0: e49a 9c38 f2a7 1039 647b 9d38 9047 02b9
000001e0: c483 b738 2892 4239 a835 f838 8863 94b8
000001f0: b420 d6b8 5c54 1739 daef 4fb9 b460 2139
0.00015655602 -0.00010475353 7.7432196e-05 9.1201975e-05 -0.00016671183 0.00022946301 0.00017705146 -8.831441e-05
-0.00017581906 0.00011737057 0.00018388726 -7.6731e-05 -7.102659e-05 6.683971e-05 -8.920027e-05 -0.00020276612
0.00014596159 -6.634576e-05 0.00011202498 6.88381e-05 9.337824e-05 -0.00022382403 -0.00016961867 -0.00016945653
-8.1964274e-05 -0.00017116152 9.9671655e-05 0.000113432616 0.00018074282 0.00012659011 -7.150337e-05 -0.0001599764
0.00015744069 -9.439717e-05 -7.036998e-05 -9.706034e-05 -0.00019745127 -0.00018005306 9.290519e-05 0.0001762388
-6.409912e-05 -6.611494e-05 -7.920846e-05 0.00016832276 8.721824e-05 0.00025276863 -0.000114411116 -7.104949e-05
0.00014369944 6.4722786e-05 0.00011344062 8.2410465e-05 7.6749915e-05 0.0001420386 -0.000104506325 -8.8654284e-05
-8.503886e-05 9.800005e-05 6.5116124e-05 8.4376545e-05 9.3309354e-05 0.00019197908 8.2535844e-05 -8.6880056e-05
-0.00020333551 0.00014535125 7.2271796e-05 -0.0001220743 -0.00012760231 -0.00012098305 0.00012024981 0.00015317515
0.00017068812 0.00013521605 0.00021090172 -0.00025162785 0.00022520032 6.869304e-05 -8.721405e-05 0.0001815873
-0.00019728506 0.00012535733 6.2877196e-05 -0.00021718131 6.981118e-05 7.010845e-05 -0.00010342759 -0.00013926375
-0.000108676 0.00010427603 0.00018141515 0.00016430966 7.8428944e-05 0.00012818156 -9.894604e-05 0.00018863968
0.00015348635 0.0001946314 7.512304e-05 7.320967e-05 -0.0001448502 -0.000114719034 0.00015254226 9.5643656e-05
-0.00015328173 6.530032e-05 -0.00018555493 -0.0001648957 0.00010326874 -6.525242e-05 0.00017792304 -6.9212576e-05
-0.00022037441 0.00016599605 -0.00022318657 6.450369e-05 7.46751e-05 0.00013795475 7.509327e-05 -0.00012424425
8.750663e-05 0.00018555729 0.00011835556 -7.075729e-05 -0.000102104066 0.00014431908 -0.0001983041 0.00015390181

model.8.bias f4 [8]
00000000: 6c1d a038 a0c3 d338 cc37 ddb8 f442 bab8
00000010: a4a3 c2b8 607c a038 a086 d238 16e5 3939
7.634875e-05 0.00010097702 -0.00010548494 -8.881642e-05 -9.281121e-05 7.652561e-05 0.00010038656 0.00017728316

model.9.weight f4 [8]
00000000: 2ceb 01b9 98e5 83b8 dc21 adb8 92fb 8ab9
00000010: f02a c238 4282 8db9 1557 8f39 acc0 88b8
-0.00012390007 -6.289332e-05 -8.25559e-05 -0.00026508846 9.2586386e-05 -0.00026990665 0.00027339967 -6.520873e-05

model.9.bias f4 [8]
00000000: 9856 4839 80f9 13b8 e835 db38 de12 213a
00000010: 2027 dd38 d807 afb9 a099 f3b7 d62c 0939
0.00019105745 -3.5279896e-05 0.000104527746 0.0006144474 0.00010545389 -0.00033384445 -2.9039395e-05 0.00013082041

model.9.running_mean f4 [8]
00000000: 1ab0 f639 f1cf 003a de6a 01ba 5d0a fbb9
00000010: bd06 feb9 43e9 f639 7c88 003a 5808 0f3a
0.00047051982 0.0004913798 -0.0004936884 -0.00047882172 -0.00048451676 0.0004709457 0.000490315 0.00054562604

model.9.running_var f4 [8]
00000000: 13e1 202a 3992 1c2a f70b 232a ec07 122a
00000010: cd22 3e2a 4163 462a dc55 162a c930 3b2a
1.4288943e-13 1.3906315e-13 1.448146e-13 1.2970153e-13 1.6887464e-13 1.7620368e-13 1.3352465e-13 1.6625862e-13

model.12.weight f4 [1, 8]
00000000: a6b1 3f39 1c6e 87b8 724e 08b9 a717 1cba
00000010: b8c0 ca38 b67a 7cb9 b033 08b8 7846 0139
0.00018281359 -6.457811e-05 -0.00012999194 -0.0005954452 9.668007e-05 -0.00024078306 -3.2473064e-05 0.0001232865
