examples/models/gibbsphen_mlp_filter_64_32_16_colab.pth (torch, 22021 bytes, 19 tensors)

model.0.weight f4 [64, 5]
000000 71 65 2f 96 1f fa cf 95 22 49 75 16 30 d5 df 95
       -1.4168397e-25 -8.4001256e-26 1.9814019e-25 -9.0405333e-26
000010 ee 99 7a 96 34 1c 17 16 7c 6a 7a 96 0e 8b a5 15
       -2.0243411e-25 1.2206582e-25 -2.022844e-25 6.686236e-26
000020 f7 f0 62 96 15 c6 81 16 88 6f 1e 16 ac 6c d8 15
       -1.833217e-25 2.0966081e-25 1.2798331e-25 8.741316e-26
000030 c8 64 4d 96 50 c4 78 16 ac 2b 80 16 9e 2e 53 16
       -1.6591569e-25 2.0095226e-25 2.0707076e-25 1.7059154e-25
000040 c8 f6 54 96 f0 04 0d 96 b0 84 7f 16 62 82 5d 96
       -1.7203094e-25 -1.1391447e-25 2.0640605e-25 -1.789338e-25
000050 e6 3d db 95 24 8c 4e 16 14 8f e8 95 c2 4f 78 16
       -8.8551054e-26 1.6684768e-25 -9.392979e-26 2.0058448e-25
000060 0a f7 16 16 f0 a1 14 95 44 ab 4c 16 25 d9 32 16
       1.2194855e-25 -3.0016108e-26 1.6533031e-25 1.4447244e-25
000070 46 f7 61 16 2c 55 f1 95 d8 0b 7b 96 94 39 db 15
       1.8253381e-25 -9.74735e-26 -2.0279356e-25 8.854424e-26
000080 e6 e0 3b 16 55 f2 1a 96 f3 39 28 96 dc f2 df 15
       1.5176705e-25 -1.2516487e-25 -1.3589217e-25 9.045215e-26
000090 18 ec 07 95 4c cc 46 16 66 4c 9c 15 f8 48 3d 96
       -2.7449278e-26 1.6058777e-25 6.3128434e-26 -1.5290323e-25
0000a0 41 76 7c 16 40 dc b8 95 27 a8 d8 15 5e 7d 7c 16
       2.0393712e-25 -7.46645e-26 8.7507e-26 2.0395957e-25
0000b0 2c ed ed 95 44 1d 88 15 74 bd 77 16 5c 3b 42 16
       -9.609773e-26 5.4976136e-26 2.0012282e-25 1.5689926e-25
0000c0 55 23 49 96 83 e0 76 96 b0 05 30 95 d6 cf 00 16
       -1.62478e-25 -1.9942565e-25 -3.5547404e-26 1.0405339e-25
0000d0 82 03 81 16 aa 72 84 15 b0 19 33 95 50 10 0e 96
       2.0843288e-25 5.3495283e-26 -3.6169026e-26 -1.1475816e-25
0000e0 9f a9 82 96 e1 38 7c 96 e8 8d 6d 16 7a 20 28 96
       -2.1109679e-25 -2.0374346e-25 1.9189485e-25 -1.358118e-25
0000f0 76 f3 3f 96 70 a3 80 96 68 18 64 96 14 39 84 1f
       -1.550568e-25 -2.078266e-25 -1.8425395e-25 5.59986e-20
000100 6e 20 e2 95 dd f6 7b 96 02 48 21 16 38 0b 2c 16
       -9.133184e-26 -2.0353515e-25 1.3028198e-25 1.3897589e-25
000110 3a e0 44 16 00 99 77 93 a8 6e e3 14 d7 77 54 96
       1.5903507e-25 -3.1251218e-27 2.2964789e-26 -1.7163038e-25
000120 57 22 70 96 09 fa 82 96 35 63 62 16 d8 30 2c 16
       -1.9397881e-25 -2.1160427e-25 1.8287439e-25 1.3909462e-25
000130 94 e3 73 95 62 bb 78 96 e4 a4 88 95 96 29 68 16
       -4.9252987e-26 -2.0092408e-25 -5.5190114e-26 1.8753933e-25
000140 57 c2 58 16 be 5f 82 16 78 c2 81 16 c5 dd 57 96
       1.7509664e-25 2.1063055e-25 2.09638e-25 -1.743754e-25
000150 6b 6f 6b 96 49 68 3d 16 10 fc 8a 15 48 00 6f 96
       -1.9018306e-25 1.5300205e-25 5.613544e-26 -1.9306355e-25
000160 fc b7 81 15 ca e7 31 16 33 b0 81 96 f1 54 82 96
       5.239296e-26 1.4371086e-25 -2.0952271e-25 -2.1056238e-25
000170 8a e2 1b 16 66 74 70 96 da 8d a3 15 19 a8 68 96
       1.2592283e-25 -1.9423774e-25 6.605898e-26 -1.8793853e-25
000180 94 c3 c7 15 81 31 0d 96 6a 34 24 16 50 a2 a9 94
       8.068403e-26 -1.140551e-25 1.3264353e-25 -1.712866e-26
000190 80 39 6f 96 93 9e 10 96 48 3d 82 16 08 1a 70 96
       -1.932441e-25 -1.1682265e-25 2.1041307e-25 -1.939526e-25
0001a0 e4 41 80 16 a8 dd 4d 96 d6 a6 51 16 f0 7f 9d 14
       2.0721098e-25 -1.662971e-25 1.693553e-25 1.5903411e-26
0001b0 b8 0d fb 14 e0 38 15 14 20 ce 29 14 84 ab 57 96
       2.5349934e-26 7.533794e-27 8.5729705e-27 -1.7421682e-25
0001c0 b0 c5 1c 96 c0 17 ef 15 f0 40 a3 15 f0 02 2e 16
       -1.2663959e-25 9.65688e-26 6.593763e-26 1.4056535e-25
0001d0 fa dd 3e 16 10 df f7 94 44 df 14 96 74 2c cb 95
       1.5418121e-25 -2.5028609e-26 -1.2025795e-25 -8.206118e-26
0001e0 56 80 9f 15 bc 27 51 96 2b 15 4a 96 76 49 7f 16
       6.442207e-26 -1.6895424e-25 -1.632411e-25 2.0621916e-25
0001f0 fc db 70 16 bc fc 7a 96 c8 c0 76 95 92 ad 05 16
       1.945646e-25 -2.0274588e-25 -4.9831382e-26 1.0798424e-25
000200 16 bf 7b 96 e0 1b b1 13 cc 95 80 96 2b fb 55 16
       -2.0335915e-25 4.470857e-27 -2.077405e-25 1.7285258e-25
000210 68 8d 1f 96 7c 6b 7a 95 9f e9 5e 96 1e d3 22 16
       -1.2888538e-25 -5.0571888e-26 -1.8006735e-25 1.3152873e-25
000220 40 6e 0e 15 7f 87 80 16 9e 2a 9c 15 d6 62 7c 96
       2.8763644e-26 2.0765025e-25 6.3075136e-26 -2.0387585e-25
000230 1c 8c 82 16 b0 b0 ed 14 60 2b 65 16 6d 3c 4a 16
       2.1091054e-25 2.4000575e-26 1.851216e-25 1.6336497e-25
000240 34 85 b8 15 84 04 8e 15 a0 76 12 94 46 9f 10 96
       7.4527166e-26 5.736047e-26 -7.394511e-27 -1.1682485e-25
000250 b8 7e 7a 16 3e c8 82 96 92 53 26 16 28 f9 53 95
       2.0234825e-25 -2.1129003e-25 1.3435743e-25 -4.280766e-26
000260 e8 81 b7 95 8a 8e 57 96 62 2c 30 16 b1 75 fe 15
       -7.411807e-26 -1.7412539e-25 1.4231172e-25 1.0277547e-25
000270 f8 5f 82 96 61 bb 51 96 68 26 b7 15 78 40 1d 95
       -2.1063198e-25 -1.6942012e-25 7.3973706e-26 -3.1756754e-26
000280 f0 b2 aa 95 68 1e 01 16 a5 06 79 96 82 2e 81 16
       -6.8944767e-26 1.0430132e-25 -2.0116156e-25 2.0870425e-25
000290 f8 84 42 15 2f 85 50 16 e6 cb e5 95 05 e2 4b 16
       3.9282882e-26 1.6844132e-25 -9.281406e-26 1.6469529e-25
0002a0 00 f0 52 12 67 28 c9 15 63 bc 4e 96 f3 0a 35 96
       6.656014e-28 8.1247e-26 -1.6699992e-25 -1.4624519e-25
0002b0 ee 9e 2b 16 c9 71 30 96 a0 a6 39 16 d1 bc 1e 16
       1.3863419e-25 -1.4253071e-25 1.4996759e-25 1.2822718e-25
0002c0 a2 46 25 96 de e6 53 16 cb 10 7c 16 95 14 1d 96
       -1.3350882e-25 1.7117293e-25 2.0361697e-25 -1.2688854e-25
0002d0 6b 0f 56 96 a7 37 d9 15 a3 5c 7e 96 ad 6e 22 16
       -1.7291647e-25 8.7733406e-26 -2.0547188e-25 1.3121179e-25
0002e0 fa 09 83 16 e5 c6 65 16 6f e0 5c 16 d1 28 bb 15
       2.1170488e-25 1.8561233e-25 1.7842277e-25 7.5593095e-26
0002f0 4c aa 92 15 52 c6 1f 96 a4 28 6a 16 8c b2 35 16
       5.923761e-26 -1.2906497e-25 1.8915193e-25 1.4677403e-25
000300 8f 4d 69 16 65 82 82 16 94 bf a8 15 a7 3c da 95
       1.8846063e-25 2.1084923e-25 6.8156917e-26 -8.814519e-26
000310 51 fd 79 96 0d a9 cd 95 8a c2 76 96 57 2d 55 96
       -2.0193992e-25 -8.3065556e-26 -1.9933107e-25 -1.722031e-25
000320 62 5f 58 96 8c 7e 82 16 20 a8 74 96 1c 14 c3 95
       -1.7478439e-25 2.1082495e-25 -1.9763214e-25 -7.87916e-26
000330 80 9a 82 96 17 90 cd 95 65 9c 7f 16 c0 38 9e 14
       -2.1100136e-25 -8.3026174e-26 2.0648085e-25 1.5976307e-26
000340 5b 53 82 96 c8 f9 99 95 06 69 20 96 84 f8 d1 95
       -2.1055237e-25 -6.2190293e-26 -1.2957837e-25 -8.4806516e-26
000350 9a 75 3d 96 5e e3 4e 96 b5 34 36 16 17 a3 cd 95
       -1.5304407e-25 -1.6712292e-25 1.4718474e-25 -8.305615e-26
000360 7f 17 6b 16 47 37 7a 16 14 ad 0f 96 80 c7 e1 93
       1.8990563e-25 2.0212282e-25 -1.1606062e-25 -5.6994707e-27
000370 d9 d8 38 96 ac de 5e 16 7c 34 7b 96 fc 53 36 96
       -1.4931827e-25 1.800328e-25 -2.029218e-25 -1.4728344e-25
000380 59 72 0a 96 38 24 18 15 66 21 2a 16 d2 22 2e 96
       -1.1183633e-25 3.0724727e-26 1.3743029e-25 -1.4066595e-25
000390 50 2d 23 15 4c f7 63 96 98 4b b2 15 26 44 0a 96
       3.2953333e-26 -1.8414947e-25 7.2012893e-26 -1.1169055e-25
0003a0 95 4a 3f 16 28 87 43 95 08 f6 50 96 c3 37 70 16
       1.5452391e-25 -3.9486556e-26 -1.687974e-25 1.9404641e-25
0003b0 6e d8 4b 16 66 dc 55 16 80 61 5e 96 48 ea 52 15
       1.6466503e-25 1.7275548e-25 -1.7963783e-25 4.2593978e-26
0003c0 9e 92 75 16 9e 05 83 16 74 e0 22 96 b4 5b 42 16
       1.9837207e-25 2.1167736e-25 -1.3157081e-25 1.5700132e-25
0003d0 84 7d 5b 16 54 63 55 16 80 cb a6 93 e9 f0 5c 96
       1.7730285e-25 1.7237345e-25 -4.2104958e-27 -1.7847476e-25
0003e0 1c ba 6b 16 d2 f8 9c 15 28 31 2d 96 7a 0b 8a 15
       1.9041875e-25 6.340047e-26 -1.399034e-25 5.575586e-26
0003f0 45 2c de 95 e3 bd 60 16 fe 4d a8 95 f4 c4 97 15
       -8.973493e-26 1.8154494e-25 -6.797771e-26 6.129915e-26

model.0.bias f4 [64]
000000 50 ce 82 96 e3 4f c5 15 a8 4b 82 96 d1 44 5e 16
       -2.1132834e-25 7.9693705e-26 -2.1050379e-25 1.7954732e-25
000010 87 f2 70 16 40 50 23 93 20 12 90 14 8c 6f 0e 96
       1.9463574e-25 -2.0613059e-27 1.4547433e-26 -1.1505867e-25
000020 cc ff 8d 95 c8 9c 91 14 25 d2 12 96 5c db 81 95
       -5.735302e-26 1.4703098e-26 -1.1860096e-25 -5.2448773e-26
000030 bc fa d1 15 46 85 70 96 22 4f 80 96 33 98 60 96
       8.4810017e-26 -1.9429099e-25 -2.0729455e-25 -1.8142602e-25
000040 f2 25 46 16 2e a0 5d 96 96 02 73 96 00 b0 b6 92
       1.6006286e-25 -1.7902782e-25 -1.96302e-25 -1.1529202e-27
000050 58 91 23 95 2f a0 45 16 94 b0 f7 15 06 8d 2c 96
       -3.3032244e-26 1.5964078e-25 1.00041097e-25 -1.3938549e-25
000060 da 32 38 16 a0 b7 20 14 4f 11 82 16 a8 0e 24 15
       1.4879448e-25 8.114149e-27 2.1013556e-25 3.3131098e-26
000070 b8 ec fd 15 01 5e 3a 96 1c 5f 1e 96 ce 44 ef 15
       1.0255936e-25 -1.5054623e-25 -1.279315e-25 9.6639886e-26
000080 40 9a 02 15 a0 d8 0c 94 5c b6 59 15 2c 53 83 96
       2.6374973e-26 -7.1109155e-27 4.3966657e-26 -2.121668e-25
000090 25 6a 5f 16 fe 0b 79 96 bc 28 d9 15 f8 55 2d 96
       1.804729e-25 -2.0117844e-25 8.770987e-26 -1.4001956e-25
0000a0 28 8d 82 95 d8 68 4c 96 21 89 32 16 87 58 11 16
       -5.272929e-26 -1.6512072e-25 1.4421996e-25 1.1740941e-25
0000b0 f0 3a d1 15 a0 36 81 16 30 2b 2e 94 8c a7 b6 95
       8.4507415e-26 2.0875547e-25 -8.793272e-27 -7.377356e-26
0000c0 b0 c9 07 94 99 ef 1e 96 5d c2 6a 16 5f 3f 5d 96
       -6.855534e-27 -1.2838742e-25 1.89637e-25 -1.7872234e-25
0000d0 b4 38 1c 96 09 4a 82 16 30 bd fe 95 1a 1e 28 16
       -1.2619472e-25 2.1049355e-25 -1.0288827e-25 1.358043e-25
0000e0 df 18 59 16 49 44 49 16 08 0e 82 16 50 3d 58 96
       1.7536968e-25 1.6258198e-25 2.1011488e-25 -1.7467688e-25
0000f0 92 f5 01 96 13 0b 2e 96 66 29 41 96 ec 26 8f 15
       -1.0498025e-25 -1.4059102e-25 -1.5603479e-25 5.781865e-26

model.1.weight f4 [64]
000000 ba b9 15 16 aa 88 0d 96 fe 53 c3 15 dc 22 3d 16
       1.2094729e-25 -1.1433013e-25 7.889239e-26 1.5278298e-25
000010 9b 51 83 16 fd b2 7b 16 49 b1 db 15 dc f6 64 16
       2.1215692e-25 2.0332097e-25 8.87331e-26 1.8495588e-25
000020 4a e3 ac 15 be 05 83 16 38 7d 80 15 60 de 2e 94
       6.9828846e-26 2.1167815e-25 5.189635e-26 -8.828611e-27
000030 f8 55 2c 96 3d 02 83 16 44 b9 82 16 c0 2c 2e 94
       -1.3921176e-25 2.1165604e-25 2.1119552e-25 -8.7935804e-27
000040 fe af 6c 16 2e 55 94 15 86 a6 02 96 f7 5d 5c 16
       1.9119462e-25 5.9911114e-26 -1.0553862e-25 1.7801109e-25
000050 22 80 0f 96 e2 cb 4f 16 64 5b 21 16 ee 40 8d 15
       -1.159188e-25 1.6785661e-25 1.3034314e-25 5.705189e-26
000060 33 1c 7f 96 a3 7f 73 16 58 08 2a 96 eb 5e f1 15
       -2.0607634e-25 1.9669659e-25 -1.3735123e-25 9.748888e-26
000070 b6 e7 71 96 ae eb 28 96 e2 40 7b 16 f7 a3 cf 15
       -1.954094e-25 -1.3645299e-25 2.0296092e-25 8.3865325e-26
000080 31 2e 75 16 3e 81 43 16 fe 81 3a 96 f4 62 16 96
       1.9805518e-25 1.5792756e-25 -1.5065979e-25 -1.2148128e-25
000090 0b 56 82 16 2a 67 21 96 45 9c 77 16 f0 79 b9 14
       2.1056933e-25 -1.3038029e-25 2.0001811e-25 1.8728322e-26
0000a0 c6 35 7f 96 ab a6 4d 16 8a 31 4f 16 a0 5d 69 96
       -2.0615704e-25 1.6612359e-25 1.6736959e-25 -1.8851133e-25
0000b0 3a dc df 15 7e 2c 4f 16 96 a1 5b 96 c8 cf e1 15
       9.041644e-26 1.6735366e-25 -1.7741667e-25 9.12046e-26
0000c0 0e a9 48 16 b5 da 2c 96 96 56 07 16 e6 bb 57 96
       1.6209216e-25 -1.3963061e-25 1.0932535e-25 -1.7426852e-25
0000d0 f0 6f cc 94 d4 25 c2 15 f0 84 53 96 24 39 51 15
       -2.0642888e-26 7.841566e-26 -1.7086392e-25 4.225229e-26
0000e0 70 26 16 15 a4 16 c9 15 e6 50 b7 15 70 2a ad 94
       3.032258e-26 8.1218974e-26 7.4040747e-26 -1.7485275e-26
0000f0 b0 11 a7 14 28 b6 0b 16 43 8a ed 95 a1 4a 1a 16
       1.6869667e-26 1.1285809e-25 -9.5941676e-26 1.246357e-25

model.1.bias f4 [64]
000000 35 77 56 96 a0 ab 24 95 2a 6e 1f 96 c0 b2 57 14
       -1.7324397e-25 -3.3254924e-26 -1.2878679e-25 1.0889978e-26
000010 ac 82 42 15 b4 36 f3 95 8f 54 51 96 38 35 81 16
       3.928107e-26 -9.8233225e-26 -1.6909568e-25 2.087466e-25
000020 1f 69 5a 96 00 66 cc 93 e0 e8 da 15 1e b8 19 16
       -1.764307e-25 -5.159742e-27 8.841691e-26 1.2417339e-25
000030 ee 75 82 96 9c e6 1f 96 ac ec 77 16 b0 77 2e 14
       -2.1077057e-25 -1.2916685e-25 2.0027182e-25 8.808359e-27
000040 0f 2d 7e 16 62 37 32 16 8d 5d 45 96 ac 87 98 95
       2.0532175e-25 1.4396201e-25 -1.5943053e-25 -6.1606364e-26
000050 ad 84 58 96 40 be b4 95 89 ae 21 16 02 1a 65 16
       -1.7490206e-25 -7.300158e-26 1.306055e-25 1.8506679e-25
000060 bc 77 82 16 f0 cd f8 95 ed 73 6c 96 f1 25 5f 96
       2.1078196e-25 -1.00491314e-25 -1.9100508e-25 -1.8025769e-25
000070 08 87 43 96 d5 5a 60 96 d2 73 61 16 c2 5e 5b 16
       -1.5794583e-25 -1.8123237e-25 1.8211902e-25 1.772058e-25
000080 90 fc 7b 96 88 a9 fe 14 f0 87 44 94 e0 b0 2e 96
       -2.0355313e-25 2.5714314e-26 -9.92228e-27 -1.411142e-25
000090 40 25 77 96 86 6e 03 16 d0 c4 0d 15 a1 cf 76 16
       -1.9964255e-25 1.0616971e-25 2.862998e-26 1.9937238e-25
0000a0 a0 7a 7a 14 fa 9f 7a 16 8e 28 0e 96 9e b4 68 16
       1.2645958e-26 2.0245319e-25 -1.1483465e-25 1.8797803e-25
0000b0 1f cd 5c 96 e4 f8 f9 95 a8 81 d2 15 fc 09 f0 95
       -1.7836183e-25 -1.0096298e-25 8.5022886e-26 -9.695098e-26
0000c0 78 8a 9e 15 60 d3 44 15 11 62 74 16 e1 49 37 16
       6.403416e-26 3.974863e-26 1.9741107e-25 1.4805934e-25
0000d0 a0 d9 71 15 25 62 65 96 82 eb 5a 96 2c 8c c7 15
       4.8841238e-26 -1.8529442e-25 -1.7684213e-25 8.059661e-26
0000e0 19 fd 6e 96 f3 5f 76 96 c2 57 49 96 62 6a ac 15
       -1.930535e-25 -1.9901998e-25 -1.6264342e-25 6.963809e-26
0000f0 27 65 5c 96 c0 de cc 93 67 55 82 96 b6 14 82 16
       -1.7803377e-25 -5.171649e-27 -2.105653e-25 2.1015703e-25

model.1.running_mean f4 [64]
000000 dc d6 1d 16 5d 0a b3 16 38 21 5f 96 20 fd 70 16
       1.2750157e-25 2.892555e-25 -1.8024279e-25 1.9466918e-25
000010 ea c8 34 95 06 0d 37 96 00 d1 92 95 c2 b9 59 95
       -3.6509204e-26 -1.4786732e-25 -5.9298674e-26 -4.3969338e-26
000020 a4 97 1a 17 fe 4b d9 15 f2 01 73 16 11 92 fd 16
       4.995148e-25 8.7765497e-26 1.9629998e-25 4.0966535e-25
000030 6d d1 bd 9e 8a d8 3c 16 22 f8 a1 16 40 8d 97 96
       -2.009777e-20 1.5254847e-25 2.6167547e-25 -2.4484507e-25
000040 0f b2 0a 96 ed 04 72 96 e8 c4 e5 16 40 71 08 97
       -1.1203737e-25 -1.9550159e-25 3.712121e-25 -4.408691e-25
000050 fe 13 9c 16 50 92 50 16 9a 9d 11 97 fc 57 08 16
       2.5215776e-25 1.6848274e-25 -4.705095e-25 1.1013755e-25
000060 f4 4c 8e 16 a7 27 eb 16 f0 23 96 15 f6 8a 8a 16
       2.2989902e-25 3.7991322e-25 6.0641217e-26 2.23828e-25
000070 b6 ed 49 97 a9 a3 6d 15 7f 8e ee 93 64 21 0c 15
       -6.5246636e-25 4.7990874e-26 -6.022016e-27 2.8299115e-26
000080 4f 62 23 96 7d aa b1 96 e4 8f ba 16 aa a2 25 96
       -1.3198056e-25 -2.8703486e-25 3.0140728e-25 -1.3379922e-25
000090 bf 96 54 16 35 3a 1a 16 74 ad 25 97 fa 9b ec 15
       1.7172791e-25 1.2458388e-25 -5.3533304e-25 9.556573e-26
0000a0 8a 9f c7 95 cc 79 db 96 a0 02 97 96 5e 30 5e 16
       -8.062717e-26 -3.5458223e-25 -2.4397022e-25 1.7948279e-25
0000b0 df 2b 63 16 4e a8 4f 95 75 18 4d 95 5d 39 a7 16
       1.8350757e-25 -4.1936086e-26 -4.1418714e-26 2.7016506e-25
0000c0 62 e5 3c 96 26 c0 01 16 de b7 a0 13 53 0d 80 16
       -1.52589e-25 1.0481168e-25 4.0570985e-27 2.0687924e-25
0000d0 e1 a2 9a 16 c1 87 66 96 6b 0d cd 16 e4 f7 08 94
       2.4982833e-25 -1.8622088e-25 3.3128004e-25 -6.915133e-27
0000e0 09 d0 a5 16 7d 51 7a 15 7b e0 0b 16 ac 95 23 96
       2.6788476e-25 5.055138e-26 1.1299164e-25 -1.3214263e-25
0000f0 0c 0c ab 96 0c 42 54 96 4a f5 47 96 1e ac 1a 15
       -2.7634143e-25 -1.7146064e-25 -1.6152492e-25 3.123583e-26

model.1.running_var f4 [64]
000000 04 00 00 00 04 00 00 00 04 00 00 00 04 00 00 00
       6e-45 6e-45 6e-45 6e-45
000010 04 00 00 00 04 00 00 00 04 00 00 00 04 00 00 00
       6e-45 6e-45 6e-45 6e-45
000020 04 00 00 00 04 00 00 00 04 00 00 00 04 00 00 00
       6e-45 6e-45 6e-45 6e-45
000030 ba 65 03 00 04 00 00 00 04 00 00 00 04 00 00 00
       3.11999e-40 6e-45 6e-45 6e-45
000040 04 00 00 00 04 00 00 00 04 00 00 00 04 00 00 00
       6e-45 6e-45 6e-45 6e-45
000050 04 00 00 00 04 00 00 00 04 00 00 00 04 00 00 00
       6e-45 6e-45 6e-45 6e-45
000060 04 00 00 00 04 00 00 00 04 00 00 00 04 00 00 00
       6e-45 6e-45 6e-45 6e-45
000070 04 00 00 00 04 00 00 00 04 00 00 00 04 00 00 00
       6e-45 6e-45 6e-45 6e-45
000080 04 00 00 00 04 00 00 00 04 00 00 00 04 00 00 00
       6e-45 6e-45 6e-45 6e-45
000090 04 00 00 00 04 00 00 00 04 00 00 00 04 00 00 00
       6e-45 6e-45 6e-45 6e-45
0000a0 04 00 00 00 04 00 00 00 04 00 00 00 04 00 00 00
       6e-45 6e-45 6e-45 6e-45
0000b0 04 00 00 00 04 00 00 00 04 00 00 00 04 00 00 00
       6e-45 6e-45 6e-45 6e-45
0000c0 04 00 00 00 04 00 00 00 04 00 00 00 04 00 00 00
       6e-45 6e-45 6e-45 6e-45
0000d0 04 00 00 00 04 00 00 00 04 00 00 00 04 00 00 00
       6e-45 6e-45 6e-45 6e-45
0000e0 04 00 00 00 04 00 00 00 04 00 00 00 04 00 00 00
       6e-45 6e-45 6e-45 6e-45
0000f0 04 00 00 00 04 00 00 00 04 00 00 00 04 00 00 00
       6e-45 6e-45 6e-45 6e-45

model.4.weight f4 [32, 64]
000000 82 6e 28 16 cc dd 21 16 ca 95 4e b5 70 cd d9 95
       1.3605802e-25 1.3075463e-25 -7.695895e-07 -8.7969725e-26
000010 50 19 8c 95 90 2b 82 96 9e ea 81 96 98 4a 80 16
       -5.6585486e-26 -2.1030125e-25 -2.0989138e-25 2.072659e-25
000020 a0 18 50 95 89 0f c5 95 a6 78 dd 15 b3 a5 7e 16
       -4.202469e-26 -7.9592176e-26 8.945154e-26 2.0570242e-25
000030 56 b3 31 96 64 2e 6f 96 a3 ba 7d 16 3c a3 02 16
       -1.4354535e-25 -1.9320905e-25 2.049607e-25 1.0552824e-25
000040 04 5e 14 16 31 72 5e 16 9a 56 6f 96 9b 56 75 96
       1.1985011e-25 1.796905e-25 -1.9333593e-25 -1.981827e-25
000050 0e a2 6c 16 20 ee ae 15 5b e0 35 16 3d 57 5d 96
       1.9115064e-25 7.0653735e-26 1.4691858e-25 -1.7879765e-25
000060 d8 81 71 96 d5 a6 43 16 c0 34 ce 94 60 da 63 14
       -1.9508796e-25 1.5804617e-25 -2.082149e-26 1.1503638e-26
000070 24 77 58 15 bc 6c 27 16 4e d7 93 15 2b 7b 79 16
       4.3714838e-26 1.3524463e-25 5.971252e-26 2.0152925e-25
000080 f8 57 06 96 5a b9 1b 96 7b 8d cf 95 56 24 70 16
       -1.0852192e-25 -1.2579287e-25 -8.382985e-26 1.9398511e-25
000090 00 7f fb 94 31 50 7b 96 d4 5f ed 95 58 76 6e 16
       -2.5394616e-26 -2.0300922e-25 -9.587473e-26 1.926283e-25
0000a0 98 82 62 15 5e 80 45 96 94 5b 1b 16 58 36 47 95
       4.5743357e-26 -1.5954039e-25 1.2549697e-25 -4.02306e-26
0000b0 92 5a ef 95 be 31 25 16 85 b1 08 96 6e 5f 75 96
       -9.6674226e-26 1.334429e-25 -1.1042008e-25 -1.9821055e-25
0000c0 f0 44 ec 15 aa 2a 0b 96 a1 9d 80 16 1d d0 5b 96
       9.5428405e-26 -1.1241793e-25 2.0778993e-25 -1.7756348e-25
0000d0 e9 72 7e 16 68 92 5f 16 3e 48 73 96 b4 ae 40 16
       2.0554216e-25 1.8059994e-25 -1.9652179e-25 1.5564763e-25
0000e0 2c ef ab 95 e7 e9 7b 96 f0 26 1d 96 50 b3 f8 94
       -6.9443697e-26 -2.0349425e-25 -1.2694646e-25 -2.5112327e-26
0000f0 9b db 3d 16 87 0f 5b 16 b6 24 0d 16 39 ca 81 16
       1.5336594e-25 1.7695579e-25 1.1401473e-25 2.0968694e-25
000100 ae 39 98 95 57 fe 80 96 7f 5f 69 16 6c da f9 15
       -6.1483314e-26 -2.0840026e-25 1.8851723e-25 1.0091491e-25
000110 eb 47 bd 15 d3 1f 5c 96 bd 4b d9 95 58 6a 2c 96
       7.644996e-26 -1.77815e-25 -8.7765096e-26 -1.3927606e-25
000120 ab 73 4c 96 32 44 1a 96 24 90 eb 15 64 00 f4 15
       -1.6515487e-25 -1.246154e-25 9.514316e-26 9.855143e-26
000130 5d 26 ed 95 1e 45 6a 16 b2 d0 82 96 ad 1b 80 16
       -9.5784064e-26 1.8924179e-25 -2.1134338e-25 2.069698e-25
000140 81 f3 0f 96 68 ba 5c 96 63 99 5d 96 1c a3 be 95
       -1.1628284e-25 -1.7830278e-25 -1.7900638e-25 -7.699773e-26
000150 c0 df e0 13 53 c9 3b 96 20 e1 78 95 7d c3 7e 96
       5.6766184e-27 -1.5169266e-25 -5.0260793e-26 -2.0579642e-25
000160 b1 b4 7c 96 80 c1 d0 13 40 86 ec 95 5c bb 52 96
       -2.0413414e-25 5.2697388e-27 -9.553145e-26 -1.7022785e-25
000170 c4 36 81 96 86 97 63 16 75 93 73 96 10 43 82 16
       -2.0875636e-25 1.8384726e-25 -1.9675913e-25 2.1044955e-25
000180 b4 43 7e 16 fc 29 39 96 68 7a d5 95 a4 11 82 96
       2.053932e-25 -1.4957429e-25 -8.622314e-26 -2.1013766e-25
000190 bb d9 4f 16 58 1d db 94 93 57 a2 95 e8 f2 56 15
       1.679003e-25 -2.2124923e-26 -6.5569447e-26 4.3408575e-26
0001a0 9c 92 0c 96 fc 09 46 95 de 42 3a 96 fe dc 18 16
       -1.1355372e-25 -3.9993658e-26 -1.504606e-25 1.2348195e-25
0001b0 c4 70 78 16 eb 50 76 96 fa 87 77 96 d6 a5 60 16
       2.0068863e-25 -1.9897255e-25 -1.9995408e-25 1.8146904e-25
0001c0 9e da 81 16 c8 6f 11 16 69 cc 75 16 dc 5e 32 96
       2.097904e-25 1.1748279e-25 1.9855443e-25 -1.4408658e-25
0001d0 0c d7 8d 95 14 4f 5f 95 b0 4f 81 16 69 fa 7c 16
       -5.728873e-26 -4.5096873e-26 2.0891364e-25 2.0435413e-25
0001e0 ff b6 32 16 38 e8 dd 95 78 aa 2b 16 ca 21 11 96
       1.4436469e-25 -8.9627566e-26 1.386706e-25 -1.1723669e-25
0001f0 53 16 47 16 e9 1d 82 96 ea 79 30 16 57 b8 82 16
       1.6082136e-25 -2.1021509e-25 1.4255636e-25 2.1118968e-25
000200 f9 06 14 96 2d 3e bd 95 60 26 44 96 68 92 01 96
       -1.1957545e-25 -7.643459e-26 -1.5844863e-25 -1.0466735e-25
000210 98 0f 72 96 9c 57 b1 15 66 93 78 96 66 2b 7f 16
       -1.9553525e-25 7.1627954e-26 -2.0079791e-25 2.061243e-25
000220 9c 2e 55 16 f0 af 7f 95 f0 49 90 94 44 16 98 95
       1.722071e-25 -5.163563e-26 -1.4569447e-26 -6.142744e-26
000230 91 fa 39 16 48 d2 80 96 02 93 6e 96 09 46 74 16
       1.5023246e-25 -2.0812221e-25 -1.9271874e-25 1.9732262e-25
000240 35 a4 44 96 30 8c b1 94 7e 5f 68 16 98 54 33 16
       -1.5884569e-25 -1.7927727e-26 1.8770943e-25 1.4486198e-25
000250 9e 53 8a 15 4e f8 24 16 b6 e2 08 16 d6 41 f5 95
       5.586968e-26 1.3326166e-25 1.105753e-25 -9.905858e-26
000260 62 be 51 16 66 2d 77 16 46 a9 31 16 68 35 45 96
       1.694296e-25 1.9966826e-25 1.435136e-25 -1.5930385e-25
000270 c0 3a f4 94 ef c8 13 96 7c 0e 27 16 2f 27 48 96
       -2.4660877e-26 -1.1937969e-25 1.3494723e-25 -1.6168236e-25
000280 49 d2 2d 96 88 78 6a 15 d8 c5 80 96 38 5f 34 16
       -1.4041183e-25 4.7351006e-26 -2.0804372e-25 1.457033e-25
000290 b4 17 64 16 38 09 82 96 00 77 82 96 94 2a 5c 16
       1.8425173e-25 -2.100845e-25 -2.1077732e-25 1.7784894e-25
0002a0 b6 6b 62 96 38 e5 e6 14 7e 11 7c 16 85 a1 b8 95
       -1.8290122e-25 2.3314476e-26 2.0361917e-25 -7.457184e-26
0002b0 2c 0a 69 95 58 d7 72 15 60 b8 80 16 ba 6a 62 96
       -4.7062e-26 4.9041387e-26 2.0795872e-25 -1.8289812e-25
0002c0 28 7c 48 96 32 c2 37 96 34 13 f2 95 f3 6b 4f 16
       -1.6195048e-25 -1.48439e-25 -9.777332e-26 1.675539e-25
0002d0 b0 86 18 15 1c 0a 7b 16 24 b9 87 15 da a7 a0 15
       3.0802405e-26 2.0278808e-25 5.4818166e-26 6.488831e-26
0002e0 96 1d 80 16 54 20 7a 96 92 d2 37 96 39 9f 5a 96
       2.0698187e-25 -2.020504e-25 -1.4849067e-25 -1.7660142e-25
0002f0 50 34 ce 95 40 ac 55 96 c7 32 5a 96 49 e0 d7 95
       -8.328527e-26 -1.7260355e-25 -1.7625922e-25 -8.719167e-26
000300 9a bd 22 16 e0 f8 72 96 f8 66 76 95 7c 06 71 96
       1.3146083e-25 -1.9627135e-25 -4.9760532e-26 -1.9469871e-25
000310 29 50 59 16 d8 a4 a9 95 77 47 7c 96 86 26 0c 16
       1.7554414e-25 -6.8518634e-26 -2.0378948e-25 1.1321266e-25
000320 e4 fa 53 95 42 4b 54 96 50 ba 5b 14 30 55 7e 16
       -4.280903e-26 -1.7148971e-25 1.1093418e-26 2.0544837e-25
000330 c7 87 5b 16 a0 7e 6b 96 f2 09 4a 16 91 6c 78 96
       1.7733523e-25 -1.9023105e-25 1.6320568e-25 -2.0067538e-25
000340 a1 9d 0a 16 af 8a 50 96 d0 ef ef 14 14 a0 42 96
       1.119729e-25 -1.6845867e-25 2.4227422e-26 -1.5721707e-25
000350 f3 67 41 16 20 0d 02 95 20 72 1e 96 80 e9 77 16
       1.5623216e-25 -2.6263645e-26 -1.279915e-25 2.0026181e-25
000360 9c 48 08 15 34 45 82 96 75 4b 82 96 f2 91 5a 16
       2.752226e-26 -2.1046306e-25 -2.1050253e-25 1.7655952e-25
000370 30 cd 49 15 96 a4 e8 95 1e 95 a2 95 1f 94 11 16
       4.075349e-26 -9.3963725e-26 -6.5666544e-26 1.1759745e-25
000380 b4 f3 ae 15 65 64 1b 16 12 35 b7 95 a4 00 70 15
       7.0662536e-26 1.2552479e-25 -7.399684e-26 4.846812e-26
000390 15 5d 5d 96 1a 75 17 16 7c bb fa 95 ca e7 37 16
       -1.7881609e-25 1.2234634e-25 -1.01269994e-25 1.4855762e-25
0003a0 1c 7f 3d 96 01 2e 82 96 ac d0 8c 95 e4 79 7c 16
       -1.5307407e-25 -2.1031665e-25 -5.6874776e-26 2.039486e-25
0003b0 0f 55 cd 15 71 12 83 96 bc 54 5b 95 d8 d6 f2 95
       8.293304e-26 -2.117583e-25 -4.429354e-26 -9.8081985e-26
0003c0 55 57 76 16 ce 5a 67 16 5c 00 90 15 70 4b 85 14
       1.9899279e-25 1.8688684e-25 5.8161704e-26 1.3459323e-26
0003d0 48 53 30 15 45 fc 08 16 d2 7d 2d 96 06 bf 1f 96
       3.5608614e-26 1.1065595e-25 -1.401453e-25 -1.2904194e-25
0003e0 e4 02 2c 16 73 b7 7b 16 a0 72 72 14 68 57 81 96
       1.3894961e-25 2.0333505e-25 1.22404835e-26 -2.0896235e-25
0003f0 fc 75 c1 95 6c 56 1b 95 3e 0f 82 16 c1 c0 5d 96
       -7.8138226e-26 -3.1370176e-26 2.1012252e-25 -1.791306e-25

model.4.bias f4 [32]
000000 e5 d4 7a 96 5e 79 81 96 a1 a8 bd 95 02 b9 40 16
       -2.0262017e-25 -2.0917667e-25 -7.660254e-26 1.5568015e-25
000010 61 24 eb 95 80 16 4d 94 4e f5 08 16 70 09 77 16
       -9.497314e-26 -1.03542924e-26 1.1063397e-25 1.9955479e-25
000020 99 01 81 96 5b a0 26 16 76 73 81 96 f6 d9 51 16
       -2.0842082e-25 1.3459972e-25 -2.091394e-25 1.6951662e-25
000030 a3 6a 74 16 08 f6 0e 16 a2 95 49 96 de 93 b1 95
       1.9743812e-25 1.1548302e-25 -1.6283866e-25 -7.1723024e-26
000040 c3 80 2c 96 f8 3f ec 95 b7 4a ca 15 58 b2 82 16
       -1.393468e-25 -9.5420566e-26 8.170503e-26 2.1115183e-25
000050 04 0d 80 16 0c 22 d5 15 f1 1a af 95 c2 5e 3d 96
       2.068773e-25 8.608373e-26 -7.0724443e-26 -1.5297199e-25
000060 27 ed 27 96 99 ce 31 16 aa a9 51 96 74 2b 40 16
       -1.3564985e-25 1.4363137e-25 -1.6936422e-25 1.5523348e-25
000070 ce 50 83 16 c1 c4 7c 16 00 3a ac 15 4c c5 25 96
       2.1215186e-25 2.0418482e-25 6.9561755e-26 -1.339085e-25

model.5.weight f4 [32]
000000 58 4e c2 15 20 b1 82 16 f0 bb 53 16 80 30 cf 95
       7.847958e-26 2.1114414e-25 1.7103747e-25 -8.3683154e-26
000010 30 9b 32 95 a5 30 61 96 87 8a 60 16 62 97 3f 96
       -3.6069235e-26 -1.8190705e-25 1.8138287e-25 -1.5476625e-25
000020 22 60 84 95 93 41 6a 96 7a 81 2a 96 fa 98 9e 15
       -5.3466046e-26 -1.8923061e-25 -1.3773346e-25 6.4057046e-26
000030 b6 e5 78 96 1e 41 83 96 a8 27 26 15 2e d5 20 96
       -2.0105764e-25 -2.1205286e-25 3.3554716e-26 -1.2991965e-25
000040 e5 09 63 96 66 03 c2 95 9b 05 74 96 d6 75 55 16
       -1.8340036e-25 -7.836134e-26 -1.9711932e-25 1.7243185e-25
000050 67 e8 2f 96 e3 f5 64 16 08 29 68 96 01 9d 2c 96
       -1.4209721e-25 1.8495281e-25 -1.8753758e-25 -1.3943591e-25
000060 fc 03 ff 15 c5 b6 6c 16 d3 9c 6e 96 5a 3e 72 16
       1.02999966e-25 1.91216e-25 -1.9274972e-25 1.9568279e-25
000070 86 d2 c4 15 e6 81 3c 96 1b 1e 5a 16 42 bc 76 96
       7.949592e-26 -1.5227508e-25 1.7619399e-25 -1.9931125e-25

model.5.bias f4 [32]
000000 4d 09 55 96 87 c2 78 16 92 f3 63 96 80 75 16 94
       -1.7208938e-25 2.0094662e-25 -1.8413771e-25 -7.5962375e-27
000010 2f 0b 18 96 bb da 7d 16 ce 77 31 96 92 ba a0 15
       -1.2281991e-25 2.0506196e-25 -1.433575e-25 6.491784e-26
000020 c4 0a 83 96 92 56 83 96 91 89 5c 96 ec c1 36 95
       -2.1170986e-25 -2.1218825e-25 -1.7814867e-25 -3.6907585e-26
000030 27 62 3d 96 ad 72 79 16 10 82 42 16 9a e5 81 96
       -1.529827e-25 2.0150245e-25 1.5712236e-25 -2.0985973e-25
000040 3f 79 37 96 4f 3e d9 15 70 ea 32 94 f6 0e 40 16
       -1.4820881e-25 8.774391e-26 -9.032938e-27 1.5514357e-25
000050 f6 8b 7a 96 f7 f5 67 96 09 c9 e3 95 ac 09 6a 96
       -2.0239003e-25 -1.8737644e-25 -9.200175e-26 -1.8905421e-25
000060 2c 18 8b 95 23 3c 66 96 9a 7d 4e 16 54 82 c3 15
       -5.617979e-26 -1.8598228e-25 1.668018e-25 7.8965494e-26
000070 78 60 77 16 e3 d6 78 96 d0 fa 7d 96 ee 76 77 96
       1.9982941e-25 -2.0101087e-25 -2.051632e-25 -1.9990029e-25

model.5.running_mean f4 [32]
000000 2f fa 26 16 ef b6 01 16 6c a5 4c 96 7c 27 d1 15
       1.3488317e-25 1.0478261e-25 -1.6531187e-25 8.4476723e-26
000010 f4 8d 3d 96 0e 0f 84 16 b9 ba 87 96 fd 35 75 94
       -1.5312091e-25 2.133525e-25 -2.1928265e-25 -1.2379986e-26
000020 98 b2 81 15 78 6f 0c 16 08 16 02 16 4e 01 69 96
       5.2384456e-26 1.1344283e-25 1.0508268e-25 -1.8822002e-25
000030 83 91 e1 93 ca d2 86 96 2b 44 bb 95 7a a1 4c 96
       -5.694147e-27 -2.1781894e-25 -7.563625e-26 -1.6529942e-25
000040 fa d4 fa 95 79 9e 89 16 e6 c6 47 16 55 d4 ea 95
       -1.01310214e-25 2.2233554e-25 1.6137853e-25 -9.484685e-26
000050 0c 38 33 95 b4 77 89 96 74 09 4f 96 9c 07 79 16
       -3.6192975e-26 -2.2209087e-25 -1.672431e-25 2.0116461e-25
000060 e9 ea 06 96 f8 5d f1 15 f7 e5 98 95 ee 7b ce 15
       -1.0898558e-25 9.748738e-26 -6.175513e-26 8.3398264e-26
000070 b7 e6 cb 95 b9 9e 20 96 e4 23 8a 96 a7 21 83 16
       -8.235505e-26 -1.2974781e-25 -2.2317753e-25 2.118543e-25

model.5.running_var f4 [32]
000000 04 00 00 00 04 00 00 00 04 00 00 00 04 00 00 00
       6e-45 6e-45 6e-45 6e-45
000010 04 00 00 00 04 00 00 00 04 00 00 00 04 00 00 00
       6e-45 6e-45 6e-45 6e-45
000020 04 00 00 00 04 00 00 00 04 00 00 00 04 00 00 00
       6e-45 6e-45 6e-45 6e-45
000030 04 00 00 00 04 00 00 00 04 00 00 00 04 00 00 00
       6e-45 6e-45 6e-45 6e-45
000040 04 00 00 00 04 00 00 00 04 00 00 00 04 00 00 00
       6e-45 6e-45 6e-45 6e-45
000050 04 00 00 00 04 00 00 00 04 00 00 00 04 00 00 00
       6e-45 6e-45 6e-45 6e-45
000060 04 00 00 00 04 00 00 00 04 00 00 00 04 00 00 00
       6e-45 6e-45 6e-45 6e-45
000070 04 00 00 00 04 00 00 00 04 00 00 00 04 00 00 00
       6e-45 6e-45 6e-45 6e-45

model.8.weight f4 [16, 32]
000000 8d d0 6f 96 80 5b 87 12 ce 10 61 16 f8 2d 82 16
       -1.9372073e-25 8.542254e-28 1.8180658e-25 2.1031643e-25
000010 70 07 6d 95 9e c6 62 96 9c ac 5a 16 14 c8 60 95
       -4.7867636e-26 -1.8318807e-25 1.7664366e-25 -4.5394274e-26
000020 10 19 b9 14 9c 38 ab 95 c0 46 e8 95 ca b4 80 96
       1.8690112e-26 -6.9155664e-26 -9.381568e-26 -2.079361e-25
000030 aa 8c c8 95 14 ef e4 95 5c 06 a5 95 d0 b5 1e 14
       -8.1001285e-26 -9.2465665e-26 -6.6653e-26 8.012818e-27
000040 be 1e 83 16 56 16 7f 16 e6 b5 2a 96 10 5a 33 95
       2.1183593e-25 2.0605784e-25 -1.3789888e-25 -3.621981e-26
000050 cf 84 5d 16 e3 14 78 16 ae 0e 25 16 98 47 ff 95
       1.7894145e-25 2.0039871e-25 1.3333226e-25 -1.03106635e-25
000060 23 7b 78 96 6f 0c 1c 16 4e 78 7e 16 74 17 19 16
       -2.0072136e-25 1.2605503e-25 2.0555918e-25 1.2366642e-25
000070 30 3d 55 16 c0 15 8e 95 b5 d6 23 16 82 ad 65 96
       1.722531e-25 -5.738766e-26 1.3234785e-25 -1.8553222e-25
000080 b4 53 02 96 fe 99 a3 15 29 ff d6 95 30 4a 5e 95
       -1.0527728e-25 6.607813e-26 -8.6836483e-26 -4.4891067e-26
000090 45 0d 58 96 60 b6 82 16 41 59 5d 96 28 db d5 14
       -1.7452528e-25 2.1117728e-25 -1.7880401e-25 2.1593946e-26
0000a0 66 0f 08 96 94 61 25 96 b8 60 5b 16 68 f2 30 96
       -1.0990851e-25 -1.3359384e-25 1.7721198e-25 -1.4293657e-25
0000b0 78 de 2b 16 44 a8 04 96 0c 56 72 15 48 a6 82 96
       1.3883469e-25 -1.071597e-25 4.893939e-26 -2.110757e-25
0000c0 97 da dd 15 02 82 56 16 78 93 24 95 e3 e0 57 16
       8.9606063e-26 1.7327806e-25 -3.323587e-26 1.7438523e-25
0000d0 a5 c1 48 16 40 40 63 16 e8 51 75 16 0e 23 6d 16
       1.6216975e-25 1.8357188e-25 1.9816787e-25 1.9155769e-25
0000e0 11 dd 36 96 7b a4 65 96 bc 66 72 96 23 66 54 96
       -1.4771599e-25 -1.8550374e-25 -1.9581022e-25 -1.7157452e-25
0000f0 67 47 5b 96 3d d1 61 96 f4 93 51 16 a0 9c 9a 13
       -1.771321e-25 -1.8241379e-25 1.6929571e-25 3.902951e-27
000100 44 51 22 16 24 b3 7f 16 82 f9 4e 16 70 83 6b 16
       1.3111899e-25 2.0655263e-25 1.6719278e-25 1.9024623e-25
000110 e5 32 82 96 d6 47 82 16 05 68 35 16 c0 8d 82 96
       -2.1034752e-25 2.1047968e-25 1.4653886e-25 -2.109209e-25
000120 1a b7 78 96 1a 2f 82 16 bd bf 44 96 40 eb 4b 94
       -2.0091057e-25 2.1032358e-25 -1.5893256e-25 -1.0295276e-26
000130 fc 6c 5e 95 38 c8 81 96 00 3a 93 93 c2 4b 11 16
       -4.4918516e-26 -2.096743e-25 -3.716521e-27 1.1736912e-25
000140 e4 e8 69 96 f8 ad 01 16 a6 14 80 96 04 e8 cc 15
       -1.8895077e-25 1.0475432e-25 -2.0692546e-25 8.2761e-26
000150 bc 9d e7 95 36 ea 5b 96 de 97 3c 16 d0 9a 10 15
       -9.354902e-26 -1.7764583e-25 1.523444e-25 2.9202694e-26
000160 c1 88 4d 16 88 3c 83 16 89 1a 6a 96 5c e7 6a 16
       1.660292e-25 2.1202392e-25 -1.8910742e-25 1.8975374e-25
000170 78 5b 8c 15 73 6a 1d 96 dc b5 7b 95 7d fb 47 96
       5.668986e-26 -1.2715948e-25 -5.0832508e-26 -1.6154448e-25
000180 ad 20 5c 96 ac 36 94 95 b2 a9 51 96 8f 5f 10 96
       -1.7781769e-25 -5.986298e-26 -1.6936432e-25 -1.166238e-25
000190 8a ba 0b 16 62 fd 93 15 e0 55 21 15 0e 1e 63 16
       1.1287192e-25 5.9772595e-26 3.2581434e-26 1.8346398e-25
0001a0 80 a8 42 16 dc 66 e8 15 51 ef 64 96 79 a9 69 96
       1.5724364e-25 9.386634e-26 -1.8493208e-25 -1.8875066e-25
0001b0 d2 b9 58 96 dd 5b 7c 16 f4 0a 83 16 c0 28 96 94
       -1.7506976e-25 2.0385385e-25 2.1171104e-25 -1.5162202e-26
0001c0 5c 0d 82 16 f3 61 dc 15 d4 cf 7d 16 f5 25 82 96
       2.1011064e-25 8.901183e-26 2.0502756e-25 -2.1026587e-25
0001d0 d6 2d 61 96 61 b9 ab 15 34 5a 8f 15 d8 90 24 15
       -1.8189819e-25 6.9358826e-26 5.7899555e-26 3.3233798e-26
0001e0 c5 c9 30 16 be 7d 78 16 58 1d 7a 15 67 0c b2 95
       1.4280834e-25 2.0072958e-25 5.0510246e-26 -7.1913195e-26
0001f0 8c 94 80 96 bf a7 a5 95 c4 25 80 16 4c e9 59 95
       -2.0773262e-25 -6.6907626e-26 2.070335e-25 -4.400684e-26
000200 67 f9 6d 96 0a b4 1e 16 ce 38 1e 16 48 ca 3c 16
       -1.9223405e-25 1.2819949e-25 1.2781063e-25 1.5250348e-25
000210 25 cf 68 16 90 40 08 96 a4 84 05 96 80 3c fc 14
       1.8806174e-25 -1.1006365e-25 -1.0785508e-25 2.546936e-26
000220 60 84 81 16 40 d6 1b 96 98 72 74 96 9b 4c 62 16
       2.0924614e-25 -1.2588406e-25 -1.9746322e-25 1.8280307e-25
000230 62 c2 7c 96 43 95 72 96 2c 8a de 15 c7 ec 5c 96
       -2.0417734e-25 -1.9595703e-25 8.988308e-26 -1.7846172e-25
000240 40 7d 65 14 78 fc 8a 15 86 3b 38 96 74 da 7a 16
       1.1586247e-26 5.613608e-26 -1.4882184e-25 2.0263771e-25
000250 e1 df 7d 16 38 da 8e 15 68 da 41 16 1c 33 21 96
       2.0507821e-25 5.769763e-26 1.5659333e-25 -1.3021604e-25
000260 e7 6e 42 96 4f 55 83 96 19 a2 5a 16 1e 55 50 16
       -1.570619e-25 -2.1218029e-25 1.7661049e-25 1.6828964e-25
000270 c9 fb 69 16 14 c3 5d 96 9e 1a 82 16 18 de 81 16
       1.890104e-25 -1.7913794e-25 2.101943e-25 2.0981235e-25
000280 c2 e8 6d 96 97 90 3c 16 6a 63 75 96 cf 20 67 96
       -1.9218153e-25 1.5232144e-25 -1.9822312e-25 -1.8670384e-25
000290 20 b9 09 16 42 e0 1a 96 28 35 4b 95 30 70 7f 96
       1.1125187e-25 -1.2510784e-25 -4.1037456e-26 -2.0634136e-25
0002a0 25 7e 81 16 78 a6 bd 95 28 f6 8f 95 70 7f b2 15
       2.0920682e-25 -7.6599133e-26 -5.8145606e-26 7.209469e-26
0002b0 da 9f 05 96 d1 c2 4a 96 74 00 58 16 17 23 77 96
       -1.0794095e-25 -1.6378903e-25 1.7448484e-25 -1.9963574e-25
0002c0 f7 39 82 96 80 3b f3 93 80 df 27 94 c1 05 5e 96
       -2.1039214e-25 -6.1400496e-27 -8.475423e-27 -1.7934833e-25
0002d0 a3 5d 13 16 18 f3 69 95 0c 4c 79 96 18 c4 10 96
       1.1904112e-25 -4.7245742e-26 -2.0138056e-25 -1.1694104e-25
0002e0 21 c6 7a 96 5c 0b 81 16 fc d6 69 96 c0 17 54 94
       -2.0257358e-25 2.0848243e-25 -1.8889427e-25 -1.0707949e-26
0002f0 a6 95 7f 96 ea 80 71 16 29 33 56 96 a4 37 82 96
       -2.0645957e-25 1.9508503e-25 -1.7302926e-25 -2.1037747e-25
000300 a6 07 64 16 be 28 18 96 ca bb 41 16 50 32 b5 14
       1.8420107e-25 -1.2291318e-25 1.5649672e-25 1.8296174e-26
000310 20 0a e7 15 d9 a7 61 96 7e 93 58 96 18 5c 35 96
       9.331613e-26 -1.8228319e-25 -1.7494881e-25 -1.4650123e-25
000320 b3 a8 1a 16 a0 2a 56 16 eb 45 48 16 e0 d3 20 16
       1.2493253e-25 1.7300232e-25 1.6177934e-25 1.2991553e-25
000330 f8 4b 82 96 ba 4c 02 96 73 10 00 96 34 1b 42 16
       -2.1050576e-25 -1.0525527e-25 -1.0344948e-25 1.5679779e-25
000340 e8 a3 e6 95 43 55 fd 95 7c 4e f3 15 42 79 f1 95
       -9.315486e-26 -1.02320405e-25 9.8270745e-26 -9.7530436e-26
000350 28 92 ff 15 dc 7c 80 96 88 7c 74 16 66 6e 08 16
       1.03224274e-25 -2.0758313e-25 1.9749458e-25 1.1020828e-25
000360 40 4c c5 14 38 db 18 15 27 98 81 16 3c e3 68 95
       1.9921992e-26 3.086909e-26 2.0937096e-25 -4.7031283e-26
000370 ee dc 80 16 66 4b 44 16 e8 1f 62 15 9c 87 57 96
       2.0818942e-25 1.5856545e-25 4.5665506e-26 -1.7410352e-25
000380 a0 56 a1 95 e0 c2 54 95 06 a2 92 95 e2 f5 44 16
       -6.516405e-26 -4.2966788e-26 -5.922456e-26 1.5910341e-25
000390 7a 79 51 16 e8 4c 7f 16 e4 a9 30 96 ef f0 68 16
       1.6921217e-25 2.0623003e-25 -1.4270775e-25 1.8816836e-25
0003a0 dc 3f 82 96 e9 0d 7a 16 8a 45 3b 16 68 71 62 16
       -2.1042934e-25 2.0199228e-25 1.5127682e-25 1.8291919e-25
0003b0 96 e7 73 96 8f ee 81 96 d8 dc c5 15 21 51 34 96
       -1.9702459e-25 -2.0991626e-25 7.9916096e-26 -1.4565884e-25
0003c0 e1 16 51 96 da 9f 5d 96 c4 96 35 95 06 7f 38 96
       -1.6890105e-25 -1.7902678e-25 -3.6671592e-26 -1.4903483e-25
0003d0 40 23 03 95 e0 ec 4e 14 98 27 09 15 de 3b 17 96
       -2.6483047e-26 1.04470575e-26 2.7698164e-26 -1.2216574e-25
0003e0 7f 03 6a 16 d9 0c 0c 16 72 01 0f 96 ad 41 82 96
       1.8903473e-25 1.1313164e-25 -1.1551904e-25 -2.104408e-25
0003f0 4b 60 2c 96 40 f1 81 16 02 d9 22 96 08 09 22 95
       -1.3924434e-25 2.0993324e-25 -1.3154731e-25 -3.2722764e-26

model.8.bias f4 [16]
000000 8b 6d 80 96 68 d1 20 16 c1 cd ce 15 8f d5 38 96
       -2.0748647e-25 1.2990774e-25 8.352736e-26 -1.4930789e-25
000010 c2 92 19 16 ce cb 7c 96 b4 b8 a6 95 72 78 77 96
       1.240555e-25 -2.0420707e-25 -6.7338276e-26 -1.9990507e-25
000020 ba d9 4c 16 9e 49 f1 15 0c 57 4f 96 b9 bb dc 15
       1.6547691e-25 9.745527e-26 -1.6748794e-25 8.9153466e-26
000030 b8 7c 22 15 2a 9e f1 95 b0 8b a1 95 c4 b6 31 16
       3.2814025e-26 -9.7588664e-26 -6.524777e-26 1.4355617e-25

model.9.weight f4 [16]
000000 40 83 28 94 1c bf 81 16 af ff 7c 16 98 51 83 16
       -8.507717e-27 2.096168e-25 2.0437077e-25 2.1215684e-25
000010 a4 d1 82 15 9b 27 40 96 e2 4c 41 16 57 d2 7a 96
       5.2837336e-26 -1.5522134e-25 1.5614676e-25 -2.0261211e-25
000020 28 4a bd 15 c6 ca 4c 16 90 a5 13 15 7e 40 7f 16
       7.645349e-26 1.6542973e-25 2.981702e-26 2.0619086e-25
000030 f8 a5 51 95 0e a9 2e 16 d2 98 81 16 a8 78 45 16
       -4.233814e-26 1.4108952e-25 2.0937517e-25 1.5951606e-25

model.9.bias f4 [16]
000000 4c 63 86 15 60 6a 61 15 16 30 e7 95 75 b9 1c 16
       5.427883e-26 4.5522303e-26 -9.3376023e-26 1.26601e-25
000010 cc d8 50 95 0d 27 62 16 d8 7a 1b 15 e4 51 a1 15
       -4.2176288e-26 1.8268457e-25 3.1398907e-26 6.515658e-26
000020 dc 38 86 16 f2 34 81 96 1d 29 58 16 ae 2b b2 95
       2.168475e-25 -2.0874487e-25 1.7461314e-25 -7.196254e-26
000030 a4 73 87 96 e0 49 8a 15 2d 64 25 96 2a 9a 78 96
       -2.1883406e-25 5.585431e-26 -1.3360204e-25 -2.0081926e-25

model.9.running_mean f4 [16]
000000 fb c5 64 15 65 d1 83 96 fc fd 45 16 ca c6 de 95
       4.6200412e-26 -2.1296338e-25 1.5993677e-25 -8.997872e-26
000010 38 8e 85 96 c0 26 13 15 3d 30 89 16 c9 36 32 16
       -2.1577062e-25 2.9716982e-26 2.2163986e-25 1.4396013e-25
000020 50 7d 6d 96 c1 e5 3a 16 54 4a 7e 16 cb 7b 3b 16
       -1.9184249e-25 1.5097458e-25 2.054141e-25 1.5144802e-25
000030 82 ce 6c 16 41 5f 37 96 fa 58 8a 16 eb 49 80 96
       1.912909e-25 -1.4812679e-25 2.2351255e-25 -2.0726164e-25

model.9.running_var f4 [16]
000000 04 00 00 00 04 00 00 00 04 00 00 00 04 00 00 00
       6e-45 6e-45 6e-45 6e-45
000010 04 00 00 00 04 00 00 00 04 00 00 00 04 00 00 00
       6e-45 6e-45 6e-45 6e-45
000020 04 00 00 00 04 00 00 00 04 00 00 00 04 00 00 00
       6e-45 6e-45 6e-45 6e-45
000030 04 00 00 00 04 00 00 00 04 00 00 00 04 00 00 00
       6e-45 6e-45 6e-45 6e-45

model.12.weight f4 [1, 16]
000000 18 f7 82 95 38 44 64 15 3e b6 ed 15 e3 16 07 16
       -5.289643e-26 4.6098048e-26 9.6011065e-26 1.0912435e-25
000010 20 6d 12 15 cb 5d 68 16 f0 87 f7 94 b0 f5 a7 94
       2.957055e-26 1.8770407e-25 -2.4994244e-26 -1.6959597e-26
000020 d1 7d f2 15 15 a3 68 16 eb a8 5a 16 40 ff ac 94
       9.7941525e-26 1.879227e-25 1.7663201e-25 -1.746824e-26
000030 47 42 8c 16 76 56 b4 95 25 94 24 96 44 db 51 15
       2.2660047e-25 -7.283783e-26 -1.3294561e-25 4.2380184e-26
