examples/models/gibbsphen_mlp_filter_32_16_colab.pth (torch, 9882 bytes, 13 tensors)

model.0.weight f4 [32, 5]
0	0xb58f3f2a	-1.0672713e-06
1	0x3a49ca1a	0.0007697657
2	0xb9445b6f	-0.00018726078
3	0xb9dd0bbe	-0.00042161153
4	0x38b30fe8	8.538348e-05
5	0xb53c2d72	-7.010159e-07
6	0xb7de41fe	-2.6495192e-05
7	0xb263b893	-1.3255106e-08
8	0x3a0d4260	0.0005388614
9	0xb29fb69b	-1.8593076e-08
10	0xaf103c07	-1.311805e-10
11	0xb3c8a0f1	-9.342501e-08
12	0x37b4a082	2.1532414e-05
13	0xad913a33	-1.6510437e-11
14	0x36c2f93f	5.8106666e-06
15	0xb4958ea6	-2.7857203e-07
16	0x31f99716	7.2640303e-09
17	0xacbee586	-5.425607e-12
18	0xb97d3652	-0.00024148196
19	0xadca39ed	-2.2990465e-11
20	0x31c573b6	5.7466094e-09
21	0xacd9ebba	-6.193682e-12
22	0x39a0dbd6	0.0003068137
23	0xb8a8061e	-8.012004e-05
24	0xb6ecec62	-7.0608667e-06
25	0x3a8fa654	0.0010959604
26	0x306014a2	8.1520046e-10
27	0x384be55e	4.8612586e-05
28	0x2d336480	1.01972875e-11
29	0x31dba5b9	6.3925794e-09
30	0xad8a0a50	-1.5693363e-11
31	0xb88aaa60	-6.6120876e-05
32	0xb44aa960	-1.8874334e-07
33	0xadb292f4	-2.0301517e-11
34	0x334ef2b2	4.8183843e-08
35	0xb98a8572	-0.00026420836
36	0xb8e04824	-0.000106945896
37	0xafc6a454	-3.6132752e-10
38	0xac2ada2d	-2.4279565e-12
39	0x388998ab	6.561106e-05
40	0xb3083315	-3.1711426e-08
41	0xae452d85	-4.4833044e-11
42	0xb8bbc632	-8.9537716e-05
43	0xb4ac837c	-3.2133164e-07
44	0xb5e23a6d	-1.6855316e-06
45	0xac7988ac	-3.5460896e-12
46	0xab46adfe	-7.0585194e-13
47	0x2fb84db0	3.3524605e-10
48	0xae8ee7ab	-6.498565e-11
49	0xb1e10ee4	-6.5500547e-09
50	0xaebf2bf0	-8.693479e-11
51	0x321ab3a4	9.004825e-09
52	0x2da3daad	1.8628066e-11
53	0x2d7e081a	1.4440027e-11
54	0xae6e359a	-5.4162543e-11
55	0x39f8d66f	0.00047462012
56	0xb68db2c0	-4.2229367e-06
57	0x3915780b	0.00014254467
58	0xb097fbd8	-1.1058274e-09
59	0x2d0ebe43	8.114012e-12
60	0x3a0ee262	0.0005450604
61	0xb3b24e04	-8.302962e-08
62	0xb51f2c39	-5.929647e-07
63	0x3039667b	6.744824e-10
64	0xb206e912	-7.852821e-09
65	0xabc1e71f	-1.3777624e-12
66	0x301515a7	5.4236654e-10
67	0x355ab615	8.147629e-07
68	0x37a9f2b6	2.0259391e-05
69	0x2e2e282c	3.95987e-11
70	0xbaec7d1b	-0.0018042655
71	0x3903f70a	0.00012585163
72	0x2e0df7ad	3.227967e-11
73	0xad987787	-1.733348e-11
74	0x33b417ac	8.386209e-08
75	0xad1e0471	-8.982246e-12
76	0x397bc63e	0.00024011076
77	0x39c4a250	0.00037504965
78	0xb1e32bb3	-6.6115375e-09
79	0x2ed8d024	9.859516e-11
80	0xad108f93	-8.217332e-12
81	0xb8b2346d	-8.4974665e-05
82	0x30051f61	4.842971e-10
83	0xb0194b62	-5.57682e-10
84	0x313a2ea6	2.709308e-09
85	0xacb196e8	-5.0473965e-12
86	0x34599a93	2.0265934e-07
87	0x35b5aa47	1.3535108e-06
88	0x332504a7	3.8421287e-08
89	0x362c2dc2	2.5656632e-06
90	0xae066838	-3.0560637e-11
91	0x356b0f4d	8.756659e-07
92	0x2d38fd4f	1.0515435e-11
93	0xb39ff399	-7.4483246e-08
94	0xbaa1f091	-0.001235502
95	0x2fb88d1f	3.3569678e-10
96	0xaf27f98d	-1.527722e-10
97	0x2dd9bcce	2.475389e-11
98	0xba0651a7	-0.00051238615
99	0x350ba930	5.2027735e-07
100	0x37286346	1.0036694e-05
101	0x2e0f5c4c	3.259641e-11
102	0x34ea437b	4.3634995e-07
103	0x2e0886ad	3.1042436e-11
104	0x2f4c7227	1.8594247e-10
105	0xb7081c65	-8.112843e-06
106	0xb0ede108	-1.7307977e-09
107	0x3286724c	1.565163e-08
108	0xb98230db	-0.00024831932
109	0x2e38424d	4.1895643e-11
110	0x35aad08c	1.2726682e-06
111	0x2f530bfb	1.9194595e-10
112	0x3025154b	6.005691e-10
113	0x3931b255	0.00016946469
114	0x2f9c9483	2.848176e-10
115	0x2fc3cb8e	3.5614928e-10
116	0x32e7fd88	2.7007232e-08
117	0xb875641a	-5.850578e-05
118	0x2dafb24a	1.9974373e-11
119	0x36744dd3	3.6404133e-06
120	0xae548601	-4.832224e-11
121	0xaeeaf056	-1.068378e-10
122	0xb8088732	-3.2550837e-05
123	0x38cb6fc4	9.700612e-05
124	0x347389b0	2.2681229e-07
125	0x34ef7751	4.4604033e-07
126	0x38d7bbf0	0.00010287005
127	0x36a3ce95	4.881828e-06
128	0x2dd3852c	2.4047063e-11
129	0xb3838a2d	-6.125297e-08
130	0xb124f5c2	-2.4004838e-09
131	0xadc86ce7	-2.278573e-11
132	0xada4d4c6	-1.8739132e-11
133	0x2fdb8088	3.9927195e-10
134	0xb0844810	-9.624745e-10
135	0x2ce70a04	6.566527e-12
136	0xb6aaec68	-5.093916e-06
137	0x35b1496e	1.3208899e-06
138	0x2edd52f1	1.006465e-10
139	0xaea1f9b0	-7.365786e-11
140	0x3728a215	1.0051318e-05
141	0xae35344b	-4.120108e-11
142	0xaee7c606	-1.053984e-10
143	0xb28b6187	-1.622608e-08
144	0xae8d7f53	-6.434555e-11
145	0x3a79fcf1	0.00095362874
146	0xb309c140	-3.2073558e-08
147	0x38a160a8	7.695082e-05
148	0x31f8e038	7.2432407e-09
149	0x36956ca9	4.4531957e-06
150	0x341b66f0	1.4472948e-07
151	0x315c8345	3.2088832e-09
152	0x39471a26	0.0001898786
153	0xb10cd40d	-2.0493218e-09
154	0xb0045d04	-4.8153503e-10
155	0x32c9e647	2.3504198e-08
156	0x2e0608cd	3.047589e-11
157	0xb4f3ee89	-4.5435834e-07
158	0xb85b9bf3	-5.2358908e-05
159	0xb1f7d531	-7.212883e-09

model.0.bias f4 [32]
0	0x37aad1bf	2.036325e-05
1	0xadce1132	-2.3427125e-11
2	0xb216b3a5	-8.771996e-09
3	0xb2a977db	-1.9728693e-08
4	0xb62a115d	-2.534208e-06
5	0xb3d89ba6	-1.0086596e-07
6	0xafa93943	-3.0781608e-10
7	0xad67d356	-1.3177756e-11
8	0xba832f06	-0.0010008521
9	0x2f7857a6	2.2586608e-10
10	0x33a8581b	7.839136e-08
11	0xb49198f9	-2.7119657e-07
12	0xadb88e27	-2.0981506e-11
13	0xb012c432	-5.33933e-10
14	0x336a5e4f	5.4568144e-08
15	0x31c38ad9	5.691032e-09
16	0x2d624f28	1.2864189e-11
17	0xba0c711e	-0.0005357432
18	0xb3070722	-3.1438624e-08
19	0x379e3e6a	1.8864132e-05
20	0x2f6f2d04	2.1752916e-10
21	0xb1be059a	-5.5303646e-09
22	0x34ee3184	4.4366982e-07
23	0xaa8982d0	-2.4426858e-13
24	0xaef960e9	-1.1340424e-10
25	0xb9aa370a	-0.00032465934
26	0xaf940faf	-2.6932187e-10
27	0xb494a01a	-2.7683637e-07
28	0xad5ffd75	-1.2732361e-11
29	0xad0b0fae	-7.904717e-12
30	0xb1a8f635	-4.917434e-09
31	0xac780ba2	-3.5249377e-12

model.1.weight f4 [32]
0	0xadbec169	-2.168639e-11
1	0xb97a5c2e	-0.00023876198
2	0x38426dae	4.635535e-05
3	0x306cbc6f	8.612408e-10
4	0x30967e77	1.094988e-09
5	0xae4e5c80	-4.6921134e-11
6	0xb507bdf2	-5.0567826e-07
7	0x368dc1ba	4.22468e-06
8	0xb53926e5	-6.897447e-07
9	0x2c746caf	3.4734817e-12
10	0xae54c7e7	-4.8380768e-11
11	0xb5a33f7d	-1.2162924e-06
12	0xb85c835c	-5.2574425e-05
13	0x2b9bb60b	1.106394e-12
14	0xb1c1c249	-5.639127e-09
15	0xb9905714	-0.000275307
16	0x2d9efa5e	1.8073706e-11
17	0x306bfab8	8.5848795e-10
18	0x3a4fdd24	0.0007929376
19	0xade7fcd7	-2.6373943e-11
20	0xb90f0397	-0.0001363888
21	0x2edfe907	1.018226e-10
22	0x3aa66c43	0.001269706
23	0xba3be658	-0.0007167808
24	0xaecc43ac	-9.288867e-11
25	0xad0617bf	-7.622291e-12
26	0x3687c40a	4.0461355e-06
27	0x3b0d0b54	0.0021521645
28	0x34962cf1	2.7972376e-07
29	0x39bf1240	0.00036443956
30	0x2ebfd747	8.723915e-11
31	0xb20d02f7	-8.207954e-09

model.1.bias f4 [32]
0	0x3357fea8	5.0290197e-08
1	0xb5a64711	-1.2388647e-06
2	0xb28c956f	-1.63661e-08
3	0x3303930e	3.063456e-08
4	0x333ca6a4	4.392372e-08
5	0x3094770d	1.0802254e-09
6	0xb471dd7f	-2.2525454e-07
7	0x31bce171	5.49715e-09
8	0xb970db28	-0.00022969826
9	0x39fd6897	0.00048333846
10	0x38fa3875	0.00011931445
11	0xaff6d025	-4.4895035e-10
12	0x35c02734	1.4316524e-06
13	0xb2301302	-1.024887e-08
14	0x3106e2dd	1.9628523e-09
15	0x32b5b1f9	2.1152106e-08
16	0x3231d1b7	1.035044e-08
17	0x33414461	4.4998504e-08
18	0xb9cf0bb8	-0.00039490848
19	0x3726fdb0	9.953437e-06
20	0x2ff016c0	4.367191e-10
21	0x2ff4a56a	4.4500875e-10
22	0xb8a6bc78	-7.950602e-05
23	0x32dce04e	2.5713373e-08
24	0x367a4bb6	3.7296973e-06
25	0x3112392b	2.1278292e-09
26	0x3604f84d	1.9814063e-06
27	0x3138b71f	2.6879616e-09
28	0xb50a1c21	-5.144994e-07
29	0xb7d7a116	-2.5705009e-05
30	0xb2075a23	-7.878529e-09
31	0x2e0953c9	3.122461e-11

model.1.running_mean f4 [32]
0	0xb789c366	-1.6422662e-05
1	0xb779d467	-1.489101e-05
2	0xb552fecf	-7.860189e-07
3	0x36d8d14e	6.461668e-06
4	0xb6389234	-2.7503238e-06
5	0xb8448cfe	-4.686135e-05
6	0x360df80d	2.1155022e-06
7	0x367b1672	3.741498e-06
8	0x3848c96f	4.7871315e-05
9	0x2f0763a9	1.2313585e-10
10	0xb130421c	-2.564895e-09
11	0xb7d9c109	-2.5958305e-05
12	0xb80077ca	-3.062914e-05
13	0xb46c282c	-2.1993827e-07
14	0x381d9934	3.75744e-05
15	0xb782f8f5	-1.5613137e-05
16	0x35df612e	1.6643078e-06
17	0x37261697	9.899631e-06
18	0x38322326	4.247124e-05
19	0x379f4ddb	1.8990531e-05
20	0xb49cb53e	-2.9189135e-07
21	0xb6a750e5	-4.986405e-06
22	0xb6462865	-2.9527812e-06
23	0x35dbd790	1.6379508e-06
24	0xb60341d6	-1.9558843e-06
25	0x38042f7c	3.1515476e-05
26	0x2dcd67d6	2.3351914e-11
27	0x348bfc50	2.607435e-07
28	0xb46c3c65	-2.2001184e-07
29	0xb7a513ca	-1.9678748e-05
30	0x35989423	1.1367996e-06
31	0x35c9de9e	1.5040457e-06

model.1.running_var f4 [32]
0	0x34926301	2.7266654e-07
1	0x33cd9e26	9.5748234e-08
2	0x2f9694df	2.739062e-10
3	0x32fef0a3	2.967892e-08
4	0x33a41a20	7.641597e-08
5	0x3537d09f	6.8476396e-07
6	0x3163bc5f	3.3139924e-09
7	0x339ba05a	7.246918e-08
8	0x32063fd7	7.814342e-09
9	0x21ae0380	1.1791625e-18
10	0x22197423	2.0796849e-18
11	0x347842c4	2.3121089e-07
12	0x34a9edc3	3.1651697e-07
13	0x30e25b2b	1.6469576e-09
14	0x33ab4556	7.97542e-08
15	0x3489d858	2.567565e-07
16	0x31eb21de	6.8432504e-09
17	0x2db00875	2.0012639e-11
18	0x34a4a182	3.0664893e-07
19	0x33d24ff8	9.793433e-08
20	0x2e58ad14	4.9266438e-11
21	0x34817002	2.410962e-07
22	0x32d97a3d	2.5317712e-08
23	0x314982bc	2.9323663e-09
24	0x32019115	7.541776e-09
25	0x3316c287	3.5101518e-08
26	0x25624cda	1.9628414e-16
27	0x2f2addfd	1.5540276e-10
28	0x2c0d2b6c	2.006141e-12
29	0x33351e8f	4.217014e-08
30	0x33ea4633	1.0909243e-07
31	0x31159be2	2.1770963e-09

model.4.weight f4 [16, 32]
0	0xbb0bab2d	-0.0021311746
1	0x35d35434	1.5745231e-06
2	0x313022a6	2.5631066e-09
3	0x3a9a5237	0.001177377
4	0xb5596ade	-8.099431e-07
5	0x3a3a8844	0.0007115642
6	0xb62a784b	-2.5401994e-06
7	0xb6546242	-3.1647655e-06
8	0xb2eb165e	-2.7367772e-08
9	0x2bacb759	1.2272224e-12
10	0x3510257c	5.369873e-07
11	0x3b05c69c	0.002041257
12	0x38919b05	6.9430134e-05
13	0x32828edc	1.5198957e-08
14	0xb450d487	-1.9448827e-07
15	0xaf9f1ee7	-2.894389e-10
16	0xbaaa2c1a	-0.0012983114
17	0xb21605fd	-8.732511e-09
18	0x30ef5e3a	1.741632e-09
19	0x38ab58de	8.170468e-05
20	0xb4ec4fdb	-4.4016528e-07
21	0x31890302	3.9875667e-09
22	0x323fc6cf	1.1162867e-08
23	0x2f2b211a	1.556412e-10
24	0x2db476b5	2.0516347e-11
25	0xb15c44f2	-3.2053404e-09
26	0x2d76478b	1.3999367e-11
27	0xae8f86e3	-6.526848e-11
28	0xac211a5e	-2.2894113e-12
29	0xb707b2a8	-8.088224e-06
30	0xb91e85eb	-0.00015117943
31	0xb019aa49	-5.5903066e-10
32	0x3436fd81	1.7042295e-07
33	0x348fcd2f	2.6785116e-07
34	0xb30349c5	-3.0567907e-08
35	0xb0ad7bbf	-1.2622577e-09
36	0xb2d76c96	-2.5078673e-08
37	0xb2db3598	-2.5519327e-08
38	0xb5a2d873	-1.2132936e-06
39	0x34d84ada	4.0287597e-07
40	0xb815e9a9	-3.574198e-05
41	0xade8a833	-2.6450042e-11
42	0x2ee0249d	1.01928445e-10
43	0xb0a96f51	-1.2328006e-09
44	0x3b02d2cf	0.0019962077
45	0xb3bdec0b	-8.843934e-08
46	0xb2ed2c2f	-2.7610524e-08
47	0xb2d2024a	-2.4448259e-08
48	0xb125fd29	-2.4154565e-09
49	0xac85e6aa	-3.805696e-12
50	0x39b8bf6c	0.00035237835
51	0xb88ac079	-6.6162036e-05
52	0xaf8f5f53	-2.607928e-10
53	0x33955240	6.9533144e-08
54	0xae9a346a	-7.01242e-11
55	0xb59e41e5	-1.1791095e-06
56	0x2dc2f094	2.2162085e-11
57	0xb3416467	-4.502763e-08
58	0xadda85aa	-2.484309e-11
59	0x35618685	8.4014783e-07
60	0xb0316db6	-6.4548134e-10
61	0x36de2bc3	6.62121e-06
62	0xb20aef4e	-8.087069e-09
63	0xb711a57b	-8.681202e-06
64	0xb561daa4	-8.4137196e-07
65	0xad7ecc3c	-1.44835775e-11
66	0xb8dbf8f9	-0.000104891085
67	0x365cfc8f	3.2929563e-06
68	0xba874172	-0.0010319187
69	0xaf1c6687	-1.4224542e-10
70	0xb42a581a	-1.5864535e-07
71	0x37a68fb5	1.985566e-05
72	0xb6b7bb4c	-5.475629e-06
73	0xb47c7086	-2.3510265e-07
74	0x360579f1	1.9889524e-06
75	0x371e3c22	9.431535e-06
76	0x362912b7	2.5193856e-06
77	0x307ea01a	9.263218e-10
78	0x2dadbf55	1.9752791e-11
79	0x397c8bfe	0.00024084744
80	0x3338cf09	4.3029136e-08
81	0x3ac48757	0.0014993948
82	0x2e0b47e0	3.166878e-11
83	0xb6573e6d	-3.2073833e-06
84	0xb79355ea	-1.7563772e-05
85	0x354d57a6	7.6495996e-07
86	0xad55b31f	-1.2147421e-11
87	0x36b77b22	5.4681595e-06
88	0x33304125	4.1037442e-08
89	0xb44a14fb	-1.8820349e-07
90	0x306a3a22	8.5211316e-10
91	0x34f2d632	4.523186e-07
92	0xb8d866f5	-0.0001031886
93	0xb7883388	-1.623646e-05
94	0x31c336c3	5.6814726e-09
95	0x2ca1d18a	4.5991587e-12
96	0xae4cfb0b	-4.66072e-11
97	0xb75de784	-1.322653e-05
98	0xb9c6420f	-0.0003781472
99	0xaf9eb7ce	-2.8870634e-10
100	0x364fcba0	3.096393e-06
101	0x35ca27a7	1.5061713e-06
102	0xb6d3c5d2	-6.3113193e-06
103	0x3085e380	9.741683e-10
104	0xbb0dd0be	-0.0021639313
105	0x2e03a9fe	2.9936935e-11
106	0xad9d0aa3	-1.7853557e-11
107	0x302431b9	5.973351e-10
108	0xb8e0c611	-0.00010718045
109	0xb30dc7ac	-3.301072e-08
110	0x3734bca7	1.077276e-05
111	0x35697be5	8.6979554e-07
112	0x33a150a5	7.511816e-08
113	0xb1276c94	-2.4363418e-09
114	0x363a0750	2.7720416e-06
115	0x388e1ae7	6.7760986e-05
116	0xb38488d6	-6.171619e-08
117	0xb4b7275b	-3.411504e-07
118	0xadefa184	-2.7242882e-11
119	0xae24c758	-3.7466336e-11
120	0x33cff5d8	9.6839074e-08
121	0xb7d70a4a	-2.5634788e-05
122	0x35030962	4.8814957e-07
123	0xae415dd3	-4.3966452e-11
124	0x2df277ee	2.7565474e-11
125	0xaf3d2069	-1.7200964e-10
126	0x30bbd4ce	1.3666523e-09
127	0x321ab3ca	9.004859e-09
128	0x2e059abc	3.037813e-11
129	0xacfd3b9b	-7.19731e-12
130	0xaf06cd59	-1.2260183e-10
131	0x332e21f4	4.0543412e-08
132	0x398c5af2	0.0002677064
133	0x2ea56f1b	7.5230676e-11
134	0xb92563f1	-0.00015772857
135	0x3290fd1a	1.6878904e-08
136	0xb50f31d0	-5.334414e-07
137	0x2fdc3e8a	4.0062204e-10
138	0x2df716a7	2.8090709e-11
139	0xb5bd66a1	-1.4111466e-06
140	0xb990f2e9	-0.00027646802
141	0xb3d08a95	-9.710963e-08
142	0xb1941afd	-4.310435e-09
143	0xbabf91fb	-0.0014615649
144	0xb818771a	-3.6350546e-05
145	0x2f38e089	1.6814473e-10
146	0x385095e6	4.973067e-05
147	0xb83d9ded	-4.520819e-05
148	0x2f265419	1.512749e-10
149	0x38b0758d	8.4142295e-05
150	0xaf93033f	-2.674145e-10
151	0xb2bd14c7	-2.2011944e-08
152	0xb3441ec1	-4.5662777e-08
153	0xb316981f	-3.506295e-08
154	0x2ec53ef0	8.969703e-11
155	0x332b92e8	3.994765e-08
156	0x3996cd39	0.00028763132
157	0xad206fa3	-9.119735e-12
158	0xb8135046	-3.512229e-05
159	0x380331e1	3.1279287e-05
160	0x305eae1b	8.101055e-10
161	0xb77c30d2	-1.5031737e-05
162	0x382b0e5a	4.0782943e-05
163	0xb44cdb1f	-1.9078696e-07
164	0xb66761b1	-3.4478546e-06
165	0xb01ed5a7	-5.7783683e-10
166	0x2e5a2419	4.9599522e-11
167	0x3061d2c6	8.215405e-10
168	0x3729a554	1.0111678e-05
169	0xb6b64328	-5.4318407e-06
170	0xb7438360	-1.1653494e-05
171	0x31c686f3	5.7779004e-09
172	0x3971e4ed	0.00023068833
173	0x2dce7e52	2.3475586e-11
174	0x2f4b45d4	1.848755e-10
175	0x35cd39f7	1.529056e-06
176	0xb78410e7	-1.5743497e-05
177	0x2c0128ba	1.835461e-12
178	0xb5f4a9e7	-1.8228865e-06
179	0xb959a47d	-0.0002075601
180	0x3a95ede4	0.0011438695
181	0xb03cab95	-6.8637834e-10
182	0x3ac4c584	0.0015012478
183	0x33f80c0b	1.15505905e-07
184	0x331a67f7	3.5950475e-08
185	0xb5e9dc43	-1.7423957e-06
186	0xb7e431df	-2.7202941e-05
187	0x32a55ac1	1.9249798e-08
188	0xb310b5aa	-3.3692835e-08
189	0x33bb275b	8.715025e-08
190	0xb0e32f10	-1.65298e-09
191	0xb41dd001	-1.4697436e-07
192	0x373815ac	1.09723005e-05
193	0xaebb8e87	-8.5290934e-11
194	0xae02798f	-2.9666544e-11
195	0x306ab400	8.53845e-10
196	0x36d95672	6.4771675e-06
197	0xad8a7f3b	-1.5745285e-11
198	0x3218f152	8.902434e-09
199	0xb7e43e37	-2.7208689e-05
200	0x2eac69ba	7.840435e-11
201	0xb6a5e48c	-4.9439896e-06
202	0x34e4b141	4.259728e-07
203	0x36617a5d	3.3598837e-06
204	0x32af64f3	2.0418588e-08
205	0xb8bc0df3	-8.967137e-05
206	0xad92bc1e	-1.6681819e-11
207	0x3798611e	1.8165036e-05
208	0x36e99f17	6.9624616e-06
209	0xafe06fe8	-4.0824877e-10
210	0xb9a49ef8	-0.00031398959
211	0xaea2ab3e	-7.397326e-11
212	0xb1c5b09b	-5.7535323e-09
213	0xaf89ba3f	-2.505249e-10
214	0xb23dcda9	-1.104801e-08
215	0x382f09a9	4.1732248e-05
216	0xae1b0e62	-3.5255694e-11
217	0x2fcf3ede	3.769775e-10
218	0xb6c1ec00	-5.7793222e-06
219	0x3b1933eb	0.0023376893
220	0xb0bafbc1	-1.3604834e-09
221	0xb9d5b287	-0.0004075954
222	0x340376d2	1.2243552e-07
223	0x2de1f6e1	2.5689175e-11
224	0x3898913d	7.2749775e-05
225	0x312a1e0a	2.4755331e-09
226	0xb9f306fa	-0.0004635377
227	0x2eb8d89d	8.4058295e-11
228	0x2c8d4dde	4.016106e-12
229	0x2e871f91	6.1446966e-11
230	0x3a294144	0.0006456564
231	0xb3d854ee	-1.00737324e-07
232	0xb840c89c	-4.59632e-05
233	0xb71c1539	-9.303266e-06
234	0xb1d30c19	-6.1422836e-09
235	0xad2c182c	-9.782435e-12
236	0x3861cff5	5.3837855e-05
237	0xae91a71d	-6.623522e-11
238	0xae071671	-3.0715378e-11
239	0xb4334603	-1.6696144e-07
240	0x2c9d6746	4.473674e-12
241	0x2d4afcaf	1.1538478e-11
242	0xb1e0f15b	-6.546697e-09
243	0xb2e71e26	-2.690565e-08
244	0xae9d2983	-7.1469074e-11
245	0xaec5425c	-8.9703106e-11
246	0xb3672379	-5.381614e-08
247	0xb39dc0c9	-7.3459496e-08
248	0xb4cc68c3	-3.8074185e-07
249	0xad83f0ed	-1.4999968e-11
250	0xac239758	-2.3247706e-12
251	0x318bfffe	4.0745354e-09
252	0xb376e286	-5.748236e-08
253	0x37c2852b	2.3188613e-05
254	0xb7c114ef	-2.301714e-05
255	0x2c1bf636	2.21635e-12

model.4.bias f4 [16]
0	0xaefa4283	-1.13804986e-10
1	0x3b007042	0.001959816
2	0xb21b2afa	-9.031959e-09
3	0x2d8921ca	1.5590102e-11
4	0x2d0070b4	7.300983e-12
5	0x331ab152	3.601719e-08
6	0xafc4450b	-3.570125e-10
7	0x38462a95	4.7246536e-05
8	0x32b3cdd2	2.0931939e-08
9	0xacbd6552	-5.382952e-12
10	0xb802e855	-3.121079e-05
11	0x356060e1	8.358748e-07
12	0x2f096020	1.2494228e-10
13	0xb52190c5	-6.018784e-07
14	0xb08462ae	-9.63231e-10
15	0x36e527e3	6.8293753e-06

model.5.weight f4 [16]
0	0xb04ceb90	-7.454952e-10
1	0x34846fa1	2.4668137e-07
2	0xb755901d	-1.2729343e-05
3	0xb9135589	-0.00014050877
4	0x3236c3c6	1.0638308e-08
5	0x2ff1da52	4.399277e-10
6	0xb4a5114d	-3.0746233e-07
7	0x3682e163	3.9005404e-06
8	0x322b4a4f	9.970406e-09
9	0x338fe327	6.700275e-08
10	0x3a076a2c	0.0005165662
11	0x32bbe33d	2.1873001e-08
12	0xb2c350cc	-2.273773e-08
13	0x3a607374	0.0008562126
14	0x30abb3cb	1.2492988e-09
15	0xb7e41012	-2.7187201e-05

model.5.bias f4 [16]
0	0x3803fceb	3.1468382e-05
1	0xb96d29d5	-0.00022617665
2	0xba3f2b51	-0.00072925264
3	0x379d9ff1	1.8790337e-05
4	0x38c43e7b	9.357646e-05
5	0xb79ed12e	-1.8932475e-05
6	0xb73c7998	-1.1233984e-05
7	0xb7a4445d	-1.9582158e-05
8	0xb6bef426	-5.690864e-06
9	0xb996d91e	-0.00028771994
10	0xb7825667	-1.5537442e-05
11	0xb71277ca	-8.730169e-06
12	0xb71d242e	-9.366353e-06
13	0xba08f410	-0.00052243564
14	0xb74303d1	-1.1623794e-05
15	0xb7ddf194	-2.6457747e-05

model.5.running_mean f4 [16]
0	0x2eafa87f	7.9880096e-11
1	0xb8c08619	-9.180251e-05
2	0xaffb319b	-4.569188e-10
3	0x32995758	1.7851264e-08
4	0xb08ae9a5	-1.0107227e-09
5	0xb36c6e72	-5.504848e-08
6	0x30b1f101	1.2946942e-09
7	0xb6446fe9	-2.9271416e-06
8	0xb23ee725	-1.1112012e-08
9	0xb3c2b041	-9.0658894e-08
10	0x35a5fe27	1.2367426e-06
11	0xb2f41fc1	-2.8419779e-08
12	0xb14d2687	-2.9853326e-09
13	0x3372fa9a	5.6572937e-08
14	0xb226071b	-9.664087e-09
15	0xb4b9f0dd	-3.4634186e-07

model.5.running_var f4 [16]
0	0x248dca49	6.149169e-17
1	0x27b80b6e	5.108265e-15
2	0x25bb4325	3.2484828e-16
3	0x281b535e	8.622306e-15
4	0x249bb30c	6.752385e-17
5	0x2827a8ce	9.306966e-15
6	0x2707d299	1.8849179e-15
7	0x2a3d2b55	1.6801606e-13
8	0x290c43f8	3.1145198e-14
9	0x28dd1afe	2.4547635e-14
10	0x282973cb	9.406493e-15
11	0x264cd4ac	7.106494e-16
12	0x28952f9f	1.6562975e-14
13	0x296e42ce	5.290456e-14
14	0x284647b1	1.10067535e-14
15	0x28926077	1.6251091e-14

model.8.weight f4 [1, 16]
0	0x3916d56d	0.00014384622
1	0x38a47f3a	7.843827e-05
2	0x38b9c3b6	8.8579414e-05
3	0x37a429aa	1.9569725e-05
4	0x381678ef	3.5875415e-05
5	0x38739e0c	5.8082907e-05
6	0x37eab822	2.7980717e-05
7	0x39c48c48	0.0003748855
8	0xb79599dc	-1.783383e-05
9	0x387e4133	6.061904e-05
10	0xb831a079	-4.234954e-05
11	0x35ffe8f2	1.9066777e-06
12	0x388585cd	6.3668565e-05
13	0xb9ba750e	-0.00035563897
14	0x389a7a53	7.366077e-05
15	0x39435fa0	0.00018632272
