examples/models/gibbsphen_cnn_filter_000000.pth (torch, 20854 bytes, 15 tensors)

normalizer.mean f4 [5]
0	0x00000000	0.0
1	0x00000000	0.0
2	0x00000000	0.0
3	0x00000000	0.0
4	0x00000000	0.0

normalizer.std f4 [5]
0	0x3f800000	1.0
1	0x3f800000	1.0
2	0x3f800000	1.0
3	0x3f800000	1.0
4	0x3f800000	1.0

cnn.embed.weight f4 [64, 5]
0	0x26ba5227	1.292861e-15
1	0xa78e2b9d	-3.9460203e-15
2	0xa787aa4b	-3.765466e-15
3	0x27845a45	3.673523e-15
4	0x26de14f6	1.5410026e-15
5	0x275f449f	3.0984666e-15
6	0x278b4ebb	3.866561e-15
7	0x278fc45b	3.9903362e-15
8	0xa74d65f9	-2.8504744e-15
9	0x278ff080	3.9951224e-15
10	0xa78b46d3	-3.8657038e-15
11	0xa7941b0f	-4.110759e-15
12	0x278fc45b	3.9903362e-15
13	0x27935fd6	4.09046e-15
14	0x26678680	8.0326506e-16
15	0x274764a8	2.7671364e-15
16	0x277540ec	3.4035774e-15
17	0xa751622c	-2.9057796e-15
18	0xa6ac433a	-1.1953119e-15
19	0xa6157c24	-5.1863e-16
20	0x2754f994	2.9556207e-15
21	0xa6d1e1b2	-1.4563463e-15
22	0x2790c1c3	4.0178106e-15
23	0xa78815c9	-3.7771202e-15
24	0x278fe92f	3.994329e-15
25	0x27546c53	2.9479633e-15
26	0xa7044944	-1.8358397e-15
27	0x27902693	4.000985e-15
28	0x27936382	4.0908583e-15
29	0x2790f386	4.0232058e-15
30	0xa68b9a2f	-9.686854e-16
31	0x2775402a	3.4035364e-15
32	0x278fcfa6	3.9915606e-15
33	0x27934e76	4.0885764e-15
34	0x279399e2	4.0967536e-15
35	0x27926cec	4.0641234e-15
36	0x27949225	4.1236702e-15
37	0x278fc45b	3.9903362e-15
38	0x27936eb1	4.092071e-15
39	0xa7110fd1	-2.0131366e-15
40	0x2754953e	2.9501815e-15
41	0x2776976a	3.422144e-15
42	0x254ab1d8	1.7580963e-16
43	0x2794cbd8	4.129926e-15
44	0x278ff080	3.9951224e-15
45	0x2793789e	4.093147e-15
46	0xa7842c3c	-3.668532e-15
47	0x27917765	4.0375032e-15
48	0x27935e01	4.0902615e-15
49	0x278fe8f0	3.9943024e-15
50	0x27542c1c	2.9444822e-15
51	0x27757341	3.406306e-15
52	0x2794b304	4.127234e-15
53	0xa792e9d9	-4.077668e-15
54	0x278ff080	3.9951224e-15
55	0x275a9657	3.0335077e-15
56	0x2782c238	3.629282e-15
57	0x278fc45b	3.9903362e-15
58	0x27941f2a	4.111204e-15
59	0x2781d571	3.6036106e-15
60	0x275438e3	2.9451749e-15
61	0x277540ec	3.4035774e-15
62	0x278fc45b	3.9903362e-15
63	0xa712c297	-2.0367058e-15
64	0x278fe92f	3.994329e-15
65	0x27904d70	4.0051987e-15
66	0x279017c1	3.9993783e-15
67	0xa72b8e78	-2.380825e-15
68	0x251e5580	1.3733284e-16
69	0x278ff080	3.9951224e-15
70	0x278e4562	3.9488142e-15
71	0x2775932c	3.4080362e-15
72	0x27900a1b	3.9978985e-15
73	0x27937c89	4.0935717e-15
74	0x27927317	4.064792e-15
75	0x25e680ea	3.9985996e-16
76	0x2774cefa	3.3974004e-15
77	0x278fc45b	3.9903362e-15
78	0x27935fd6	4.09046e-15
79	0x278ff080	3.9951224e-15
80	0x27542c1c	2.9444822e-15
81	0x2794d260	4.130634e-15
82	0xa771befc	-3.3549001e-15
83	0x2793613b	4.0906114e-15
84	0x278fe92f	3.994329e-15
85	0xa68a1541	-9.581434e-16
86	0x27755ac6	3.4049789e-15
87	0x278fc45b	3.9903362e-15
88	0x27936382	4.0908583e-15
89	0x278ff080	3.9951224e-15
90	0x2790d115	4.0194716e-15
91	0x27949ff1	4.125166e-15
92	0x278fc45b	3.9903362e-15
93	0x2793e299	4.1046374e-15
94	0xa78cb8c6	-3.9058138e-15
95	0x2791569c	4.0339487e-15
96	0x277540ec	3.4035774e-15
97	0xa6645c53	-7.9228513e-16
98	0x26e61aa4	1.5966677e-15
99	0x278fe8f0	3.9943024e-15
100	0x27546c53	2.9479633e-15
101	0x27757341	3.406306e-15
102	0x278ff7b1	3.995902e-15
103	0x27789948	3.4500008e-15
104	0x2784f2d8	3.690065e-15
105	0x2756284c	2.972031e-15
106	0x27945a39	4.117607e-15
107	0x279449b8	4.115818e-15
108	0x2794ad58	4.126619e-15
109	0x278feecb	3.9949373e-15
110	0x26bc997d	1.3086724e-15
111	0x27757341	3.406306e-15
112	0x2743d250	2.7175697e-15
113	0x279354b1	4.089252e-15
114	0xa78999d6	-3.8191928e-15
115	0xa5ee9ddf	-4.1393396e-16
116	0x277540ec	3.4035774e-15
117	0xa793a860	-4.098325e-15
118	0xa7275fa9	-2.3227763e-15
119	0x278ff080	3.9951224e-15
120	0xa7655680	-3.1827026e-15
121	0x27901b1e	3.999743e-15
122	0xa76180b6	-3.1294797e-15
123	0x27935e60	4.0903018e-15
124	0x27949ed1	4.125044e-15
125	0x27542c1c	2.9444822e-15
126	0x2774eb98	3.3989518e-15
127	0x278fc45b	3.9903362e-15
128	0xa74f29db	-2.874971e-15
129	0x278fcb8f	3.991117e-15
130	0x27791137	3.4565024e-15
131	0x269089dd	1.0029375e-15
132	0xa6947ab1	-1.0302819e-15
133	0x274dd9ca	2.8567529e-15
134	0xa73d470a	-2.626753e-15
135	0x279407ad	4.1086574e-15
136	0x277540ec	3.4035774e-15
137	0x2791e5da	4.049479e-15
138	0x27935b67	4.0899795e-15
139	0x278ff080	3.9951224e-15
140	0x275447d0	2.945984e-15
141	0x277540ec	3.4035774e-15
142	0x278fc45b	3.9903362e-15
143	0x26a70b60	1.1591036e-15
144	0x278fe8f0	3.9943024e-15
145	0x275b83c1	3.046378e-15
146	0x277540ec	3.4035774e-15
147	0x2713d5a2	2.0516159e-15
148	0x27934e76	4.0885764e-15
149	0x278ff080	3.9951224e-15
150	0x27546c2d	2.9479552e-15
151	0x277540ec	3.4035774e-15
152	0x278fc45b	3.9903362e-15
153	0x25cf1e5d	3.592935e-16
154	0x278ff080	3.9951224e-15
155	0x27546c53	2.9479633e-15
156	0x2794d05a	4.1304147e-15
157	0x25a6a2f2	2.8906826e-16
158	0x278cc0e5	3.9066943e-15
159	0x2793f1ac	4.1062717e-15
160	0x2753edb8	2.9411e-15
161	0x2775e966	3.4127106e-15
162	0x2743d556	2.7177336e-15
163	0xa4209e6c	-3.4828658e-17
164	0x278ff080	3.9951224e-15
165	0x2756284c	2.972031e-15
166	0x274cc8a8	2.8419463e-15
167	0x25cdbfb5	3.5691737e-16
168	0x2794ae6d	4.1267365e-15
169	0x278ff080	3.9951224e-15
170	0x27540afc	2.9426865e-15
171	0x27757341	3.406306e-15
172	0xa68901a3	-9.506728e-16
173	0x27940803	4.108694e-15
174	0xa778890b	-3.4491205e-15
175	0x27550920	2.9564635e-15
176	0x277540ec	3.4035774e-15
177	0x278fc45b	3.9903362e-15
178	0x2793678a	4.0912953e-15
179	0x278ff080	3.9951224e-15
180	0xa6c91879	-1.395381e-15
181	0xa79071ec	-4.0091543e-15
182	0xa7627d97	-3.1431883e-15
183	0x27934e76	4.0885764e-15
184	0x279171f1	4.036912e-15
185	0x27890bea	3.8038056e-15
186	0x2793ae41	4.0989623e-15
187	0x278fc45b	3.9903362e-15
188	0x27935fd6	4.09046e-15
189	0x278ff080	3.9951224e-15
190	0x2792c200	4.0733476e-15
191	0x2776c9ca	3.4248748e-15
192	0x278fc45b	3.9903362e-15
193	0xa7314e43	-2.460611e-15
194	0x278e0215	3.9415175e-15
195	0x275447d0	2.945984e-15
196	0x2775402a	3.4035364e-15
197	0x278fc45b	3.9903362e-15
198	0xa74d9aa4	-2.8533296e-15
199	0x278ff080	3.9951224e-15
200	0x2755020c	2.9560798e-15
201	0x277260db	3.3636752e-15
202	0xa787d778	-3.770364e-15
203	0x27935fd6	4.09046e-15
204	0x27919168	4.0403234e-15
205	0x25b3c94e	3.118796e-16
206	0x2774cefa	3.3974004e-15
207	0x278fc45b	3.9903362e-15
208	0x27936382	4.0908583e-15
209	0xa746e935	-2.7604442e-15
210	0x27546c53	2.9479633e-15
211	0x27765b6f	3.4188924e-15
212	0xa7193dee	-2.1266587e-15
213	0x2705d851	1.8574723e-15
214	0x278fce77	3.9914323e-15
215	0x275d495c	3.070968e-15
216	0x276401be	3.16423e-15
217	0x278f3c57	3.9755894e-15
218	0x27936382	4.0908583e-15
219	0x278fc050	3.989898e-15
220	0x27540afc	2.9426865e-15
221	0x27765691	3.4186286e-15
222	0x277064c7	3.3361322e-15
223	0x279422d5	4.1116017e-15
224	0x274de907	2.857579e-15
225	0x275447d0	2.945984e-15
226	0xa7037d8a	-1.8247957e-15
227	0x278fc45b	3.9903362e-15
228	0xa67097c4	-8.347241e-16
229	0x278fd4b0	3.992107e-15
230	0x2753edb8	2.9411e-15
231	0xa481fc37	-5.63721e-17
232	0x278fc45b	3.9903362e-15
233	0xa5b7bd11	-3.1873556e-16
234	0x278fd1e5	3.991804e-15
235	0x27546c53	2.9479633e-15
236	0x279419ed	4.110636e-15
237	0x278fc45b	3.9903362e-15
238	0x2794bfc9	4.1286186e-15
239	0x278fe92f	3.994329e-15
240	0xa7445c5b	-2.725053e-15
241	0x2774cefa	3.3974004e-15
242	0x278fc45b	3.9903362e-15
243	0x27936382	4.0908583e-15
244	0x278ff080	3.9951224e-15
245	0x267718cd	8.572895e-16
246	0x277540ec	3.4035774e-15
247	0x27539155	2.9360917e-15
248	0x27886579	3.78576e-15
249	0x278fcb8f	3.991117e-15
250	0x2789b023	3.8216106e-15
251	0xa62d5272	-6.0133167e-16
252	0x26869b2f	9.34018e-16
253	0x2627f6a3	5.827402e-16
254	0x276e7a66	3.3095487e-15
255	0x279359fc	4.0898257e-15

cnn.embed.bias f4 [64]
0	0xa4a24a25	-7.0381906e-17
1	0xa70c6edb	-1.9488998e-15
2	0xa76e0873	-3.3033715e-15
3	0xa78fd011	-3.991606e-15
4	0xa769b9e8	-3.2436026e-15
5	0xa75a2f20	-3.0279124e-15
6	0xa76482cd	-3.1712263e-15
7	0xa719a1f5	-2.1320812e-15
8	0xa754b9bf	-2.9521603e-15
9	0xa75a2f20	-3.0279124e-15
10	0xa780c101	-3.573639e-15
11	0xa70f807f	-1.9914894e-15
12	0xa7122514	-2.028167e-15
13	0xa71ce2ce	-2.17723e-15
14	0xa787906a	-3.76266e-15
15	0xa7122514	-2.028167e-15
16	0xa70c6edb	-1.9488998e-15
17	0xa7300da3	-2.44323e-15
18	0xa78c469a	-3.8934352e-15
19	0xa7827621	-3.6210324e-15
20	0xa70f807f	-1.9914894e-15
21	0xa73a9da2	-2.5898138e-15
22	0xa73a9da2	-2.5898138e-15
23	0xa7327144	-2.4763864e-15
24	0xa7786fd7	-3.4477542e-15
25	0xa7238884	-2.26948e-15
26	0xa7827621	-3.6210324e-15
27	0xa769b9e8	-3.2436026e-15
28	0xa76482cd	-3.1712263e-15
29	0xa77dfcc0	-3.524782e-15
30	0xa70c6edb	-1.9488998e-15
31	0xa76d1884	-3.2903647e-15
32	0xa70c6edb	-1.9488998e-15
33	0xa72aff41	-2.3730613e-15
34	0xa7300da3	-2.44323e-15
35	0xa7786fd7	-3.4477542e-15
36	0xa7427122	-2.6984238e-15
37	0xa788b39c	-3.7942316e-15
38	0xa7786fd7	-3.4477542e-15
39	0xa719a1f5	-2.1320812e-15
40	0xa780aaa9	-3.5712167e-15
41	0xa75f3d02	-3.098054e-15
42	0xa780c101	-3.573639e-15
43	0xa780aaa9	-3.5712167e-15
44	0xa769b9e8	-3.2436026e-15
45	0xa75a2f20	-3.0279124e-15
46	0xa719a1f5	-2.1320812e-15
47	0xa73a9da2	-2.5898138e-15
48	0xa7122514	-2.028167e-15
49	0xa7827621	-3.6210324e-15
50	0xa78fb087	-3.9881864e-15
51	0xa72aff41	-2.3730613e-15
52	0xa72f95cb	-2.4367332e-15
53	0xa72aff41	-2.3730613e-15
54	0xa75a2f20	-3.0279124e-15
55	0xa78d44d7	-3.921e-15
56	0xa73a9da2	-2.5898138e-15
57	0xa72aff41	-2.3730613e-15
58	0xa7333187	-2.486809e-15
59	0xa7122514	-2.028167e-15
60	0xa76482cd	-3.1712263e-15
61	0xa75525e1	-2.9580222e-15
62	0xa76482cd	-3.1712263e-15
63	0xa5825696	-2.2610078e-16

cnn.conv_net.0.weight f4 [16, 1, 3]
0	0xa78bc7f0	-3.8797023e-15
1	0x2659f2ac	7.561588e-16
2	0x278a41d2	3.8374057e-15
3	0xa742e96d	-2.7049449e-15
4	0x2784e85b	3.688928e-15
5	0xa7914731	-4.032277e-15
6	0x25acf32f	3.0002031e-16
7	0xa7817bef	-3.593906e-15
8	0xa7345ca4	-2.5030239e-15
9	0xa744593d	-2.724884e-15
10	0xa790e0d9	-4.021181e-15
11	0x26da1466	1.5132318e-15
12	0xa6689cce	-8.070368e-16
13	0xa785a4d1	-3.709361e-15
14	0xa795d5fd	-4.1587814e-15
15	0x27910bef	4.0258523e-15
16	0xa5f3ed78	-4.2314696e-16
17	0x2780cf5f	3.575197e-15
18	0x27895ac9	3.812357e-15
19	0xa6932d32	-1.0212424e-15
20	0xa70dc4ff	-1.9674473e-15
21	0xa79059d2	-4.0065412e-15
22	0xa787102e	-3.748757e-15
23	0x273eabbd	2.6460896e-15
24	0x272e5ccf	2.4197662e-15
25	0x2637f3dc	6.382137e-16
26	0x27956ca7	4.147361e-15
27	0xa74bb446	-2.8269636e-15
28	0xa710cdb8	-2.0095535e-15
29	0x275d4b78	3.0710823e-15
30	0xa794b2af	-4.127198e-15
31	0xa7763cd0	-3.4172325e-15
32	0xa4cfbe71	-9.009456e-17
33	0xa5975a21	-2.6255398e-16
34	0xa757b279	-2.9933994e-15
35	0xa5239757	-1.4189272e-16
36	0x26e5b4ad	1.5939039e-15
37	0x276cba3b	3.2852535e-15
38	0x2713fd2f	2.05376e-15
39	0xa7891cc4	-3.8056326e-15
40	0x26fea034	1.7668214e-15
41	0xa7855523	-3.700722e-15
42	0x27569701	2.9780325e-15
43	0xa777874c	-3.435148e-15
44	0xa78f65a5	-3.9800676e-15
45	0x25c397fb	3.3930094e-16
46	0x26a74c39	1.1608613e-15
47	0xa5f759d7	-4.2908548e-16

cnn.conv_net.0.bias f4 [16]
0	0xa73e948b	-2.6448322e-15
1	0x276fefce	3.3297911e-15
2	0x25819fd7	2.2486245e-16
3	0x25e348ef	3.9427645e-16
4	0xa5bdcec3	-3.292638e-16
5	0xa6fbcc47	-1.7471993e-15
6	0x2697ecc8	1.054191e-15
7	0xa7267a37	-2.310338e-15
8	0xa70dc1c4	-1.9672721e-15
9	0x275689d2	2.9773178e-15
10	0x252cb8c3	1.4981222e-16
11	0x26ac63bc	1.1961931e-15
12	0xa769efe6	-3.2465295e-15
13	0xa6352a29	-6.285413e-16
14	0xa6496e9f	-6.9885803e-16
15	0x27381b5a	2.5549957e-15

cnn.conv_net.1.conv1.weight f4 [16, 16, 3]
0	0xa6f8b8fd	-1.7258598e-15
1	0x279733aa	4.1966933e-15
2	0x26b6fb65	1.2696928e-15
3	0x27913316	4.0300972e-15
4	0x2701577e	1.7949776e-15
5	0x278c144a	3.8879803e-15
6	0x275f8892	3.1021502e-15
7	0x271d0df8	2.17957e-15
8	0x27081e3d	1.8890184e-15
9	0x2749a5c2	2.798421e-15
10	0xa6cb2442	-1.4095782e-15
11	0xa7957268	-4.1479847e-15
12	0x26a741d1	1.1605792e-15
13	0x2777bf0c	3.4381703e-15
14	0xa6fc34b3	-1.7500297e-15
15	0x27401085	2.6654308e-15
16	0x2774c835	3.3970335e-15
17	0x263e4e43	6.6025556e-16
18	0xa6976a7f	-1.0506596e-15
19	0xa681f8f2	-9.01865e-16
20	0x2782b3d7	3.627723e-15
21	0xa779ccda	-3.4666742e-15
22	0x2782b413	3.6277485e-15
23	0xa70ea39a	-1.9795147e-15
24	0xa795fefa	-4.1632254e-15
25	0xa78ee26f	-3.9658417e-15
26	0x271acf30	2.148411e-15
27	0xa6b5cb06	-1.2614428e-15
28	0x27494c72	2.7935795e-15
29	0xa631eaf7	-6.172765e-16
30	0xa7856a9d	-3.7030506e-15
31	0x27921646	4.054729e-15
32	0x274a8857	2.8107041e-15
33	0xa5ccd8bb	-3.553522e-16
34	0x2766bdf7	3.2021892e-15
35	0xa6e58635	-1.5926444e-15
36	0x279516a7	4.1380367e-15
37	0x27861f67	3.7226518e-15
38	0x272361c0	2.2673785e-15
39	0x278fce49	3.991413e-15
40	0x26ddf508	1.5401371e-15
41	0xa7931c39	-4.0831295e-15
42	0xa7939dae	-4.0971653e-15
43	0x278bf719	3.8848154e-15
44	0x26386047	6.3968304e-16
45	0xa74e57e7	-2.8635895e-15
46	0xa5838510	-2.2815044e-16
47	0x26711b2f	8.365051e-16
48	0x272d54a3	2.4054455e-15
49	0xa7647e0f	-3.1709693e-15
50	0xa741c9cd	-2.6893527e-15
51	0xa7897086	-3.8147137e-15
52	0x26fc066b	1.7487752e-15
53	0xa725199e	-2.2912237e-15
54	0x278396a5	3.6523133e-15
55	0xa72052bf	-2.2249317e-15
56	0x2702e289	1.816393e-15
57	0x278df7e3	3.940412e-15
58	0xa76bd10b	-3.2726124e-15
59	0xa713a8aa	-2.049178e-15
60	0x2754442b	2.9457864e-15
61	0xa77a0e02	-3.4702063e-15
62	0xa6c07a67	-1.3355854e-15
63	0xa781a02d	-3.5978355e-15
64	0x27810975	3.5814946e-15
65	0xa5eaa7e4	-4.0706296e-16
66	0xa7919a85	-4.0413115e-15
67	0x24438693	4.2397874e-17
68	0xa72e7369	-2.4209915e-15
69	0xa7717b68	-3.3512367e-15
70	0x27973b5e	4.1975285e-15
71	0x25f13b2b	4.184693e-16
72	0xa69dfdf5	-1.0962899e-15
73	0xa786068f	-3.7199582e-15
74	0x26ec6036	1.6401868e-15
75	0xa611cd9c	-5.0585633e-16
76	0x278f435f	3.9763517e-15
77	0xa7833c8a	-3.642544e-15
78	0xa705900e	-1.853555e-15
79	0x2689dd30	9.566238e-16
80	0x272b75fb	2.3794974e-15
81	0x2786ffaf	3.7469684e-15
82	0xa6f674c7	-1.7101332e-15
83	0xa650e8e9	-7.248015e-16
84	0xa698f0fc	-1.0612438e-15
85	0x27508793	2.8939294e-15
86	0x274f3f2e	2.876127e-15
87	0xa78bf7a6	-3.884875e-15
88	0xa7244285	-2.2795632e-15
89	0x279319d0	4.0828682e-15
90	0x2738cb99	2.56455e-15
91	0x27862fe5	3.72444e-15
92	0x2702fc2a	1.8177823e-15
93	0xa64be2ae	-7.073698e-16
94	0x26d3d2cb	1.4698202e-15
95	0xa6f9cb70	-1.7332988e-15
96	0xa6987e65	-1.0581378e-15
97	0xa6326191	-6.1888383e-16
98	0x2528163a	1.4579208e-16
99	0xa78009f9	-3.553795e-15
100	0xa74ea68a	-2.8678524e-15
101	0x270ca37c	1.9517528e-15
102	0xa7045b8c	-1.8368308e-15
103	0x27572b29	2.986064e-15
104	0xa789a3fc	-3.820293e-15
105	0xa76a9ace	-3.2557943e-15
106	0xa788a657	-3.792793e-15
107	0x279282c3	4.0664913e-15
108	0x27252e8d	2.2923585e-15
109	0xa780048a	-3.553206e-15
110	0xa7924547	-4.059825e-15
111	0xa7954ba1	-4.1437805e-15
112	0x279317dd	4.082657e-15
113	0xa6ef02ad	-1.6584682e-15
114	0x2563a2a9	1.9744223e-16
115	0x26461b3c	6.873196e-16
116	0xa6fd95ec	-1.7596038e-15
117	0xa690b52d	-1.0041115e-15
118	0x278b42b7	3.8652582e-15
119	0x26523eac	7.294332e-16
120	0x25e5f6ec	3.9892488e-16
121	0xa7725125	-3.3628235e-15
122	0xa6ba34de	-1.2920672e-15
123	0xa7901b8e	-3.9997904e-15
124	0xa73c521e	-2.6134757e-15
125	0xa794b1b8	-4.1270935e-15
126	0xa7731cea	-3.3738699e-15
127	0x27295e18	2.350447e-15
128	0xa7946cde	-4.1196286e-15
129	0xa7860e82	-3.72082e-15
130	0x279326a7	4.0842603e-15
131	0xa746f7ad	-2.7612285e-15
132	0xa78ed33c	-3.964194e-15
133	0xa7230fbf	-2.262933e-15
134	0xa689f290	-9.572031e-16
135	0x27227659	2.2546173e-15
136	0xa6d80fd6	-1.4992303e-15
137	0xa752d640	-2.92595e-15
138	0x2711f209	2.0254e-15
139	0x270dae42	1.9662146e-15
140	0x26f8bef5	1.7260216e-15
141	0xa73ac0a1	-2.591711e-15
142	0x27509384	2.8945767e-15
143	0xa70d208e	-1.9585329e-15
144	0xa707315d	-1.8761773e-15
145	0xa789718f	-3.814826e-15
146	0x2784e118	3.6881407e-15
147	0x271d7489	2.18513e-15
148	0x2741c34e	2.6890005e-15
149	0xa78e0563	-3.9418758e-15
150	0x271d4ae7	2.1828732e-15
151	0xa6fb0d52	-1.7420234e-15
152	0x2796e5af	4.1882387e-15
153	0x2629cfd4	5.8915313e-16
154	0x279104ec	4.025092e-15
155	0xa6721f23	-8.4002814e-16
156	0x26c86f69	1.3907986e-15
157	0x278f7e0f	3.9827146e-15
158	0xa73fc13e	-2.6611332e-15
159	0x26b0d143	1.2269174e-15
160	0xa69044c3	-1.0010645e-15
161	0x279078ef	4.0099145e-15
162	0xa709cabf	-1.9122478e-15
163	0xa792dceb	-4.076266e-15
164	0x2790b7ca	4.0167293e-15
165	0x279392ec	4.095999e-15
166	0xa72a9b5e	-2.3676464e-15
167	0x270226c9	1.806215e-15
168	0xa72068fe	-2.2261377e-15
169	0xa4a35729	-7.083764e-17
170	0x278f0a6c	3.9701773e-15
171	0xa70ad32d	-1.9265826e-15
172	0x26ece74d	1.6438484e-15
173	0xa6ec6ccf	-1.6405282e-15
174	0xa78144b9	-3.58792e-15
175	0xa664122e	-7.912803e-16
176	0x26c47658	1.3632309e-15
177	0xa79169eb	-4.036042e-15
178	0x27105821	2.003179e-15
179	0x27190708	2.1236827e-15
180	0x274ebf53	2.869196e-15
181	0xa7658acf	-3.1855382e-15
182	0xa58cd348	-2.4429298e-16
183	0xa6ce2812	-1.4304983e-15
184	0xa78e29f9	-3.9458424e-15
185	0x268f499b	9.942569e-16
186	0xa787e915	-3.7722735e-15
187	0x27938869	4.0948592e-15
188	0xa6ee071e	-1.6516497e-15
189	0xa784b409	-3.6832554e-15
190	0x272f2f77	2.431186e-15
191	0xa7726377	-3.3638166e-15
192	0xa67f6084	-8.86017e-16
193	0xa6c90cc4	-1.3950637e-15
194	0xa71b6224	-2.1563773e-15
195	0x25931ae0	2.5518646e-16
196	0xa3fab93e	-2.7183507e-17
197	0xa603198e	-4.548439e-16
198	0xa783fb16	-3.663203e-15
199	0x2768b293	3.2293273e-15
200	0x277fb99f	3.5488984e-15
201	0xa7616201	-3.127815e-15
202	0x278396af	3.6523176e-15
203	0xa71e776e	-2.1991648e-15
204	0xa78cf5ab	-3.912416e-15
205	0x26a83b0f	1.167335e-15
206	0xa784a3a9	-3.68148e-15
207	0x274a8fec	2.8111152e-15
208	0x26f05d59	1.6678647e-15
209	0xa74bf5de	-2.8305194e-15
210	0x27908be8	4.0119716e-15
211	0xa6a8fd43	-1.1725988e-15
212	0x2778115a	3.442632e-15
213	0x2757393d	2.9868273e-15
214	0xa74a2d88	-2.8057814e-15
215	0x27448bd7	2.7276271e-15
216	0xa772f02d	-3.3714446e-15
217	0xa72e4698	-2.418562e-15
218	0xa74cad91	-2.8404778e-15
219	0xa7381847	-2.554829e-15
220	0xa7910d5e	-4.0260077e-15
221	0xa7033ba9	-1.8212244e-15
222	0xa5d448ca	-3.6825461e-16
223	0x275d5cb3	3.0720163e-15
224	0xa78bf29a	-3.884328e-15
225	0xa5ae4a00	-3.0234333e-16
226	0xa731aa8b	-2.4656136e-15
227	0xa7048a4c	-1.839365e-15
228	0x278e8674	3.955869e-15
229	0xa63aaa3e	-6.4762434e-16
230	0x26da42d2	1.51449e-15
231	0xa71c4fec	-2.1692675e-15
232	0xa5332a8b	-1.5540189e-16
233	0x277ff804	3.5522808e-15
234	0x255e1111	1.9261213e-16
235	0x268ead81	9.900258e-16
236	0x27957ab8	4.148886e-15
237	0xa6bd18dc	-1.3121248e-15
238	0x2718aa64	2.1186606e-15
239	0x26ea4aba	1.6257266e-15
240	0x276a5911	3.2522306e-15
241	0xa71cb323	-2.174646e-15
242	0xa71ce7b2	-2.1774951e-15
243	0xa7817faf	-3.5943127e-15
244	0x26d911dd	1.5062242e-15
245	0xa75c761c	-3.059516e-15
246	0xa5fbf4fa	-4.3707562e-16
247	0x27973910	4.1972786e-15
248	0x278bf14c	3.8841865e-15
249	0xa7121baa	-2.0276567e-15
250	0xa77271a3	-3.364585e-15
251	0xa77d6797	-3.516696e-15
252	0x2684bc12	9.210317e-16
253	0xa76ee847	-3.3155053e-15
254	0x2753130a	2.9292453e-15
255	0x273e8391	2.643912e-15

cnn.conv_net.1.conv1.bias f4 [16]
0	0x277d99ce	3.519418e-15
1	0xa72c77ed	-2.3934807e-15
2	0xa6994f31	-1.0637973e-15
3	0xa713e36e	-2.0523638e-15
4	0xa790e50d	-4.0216366e-15
5	0xa7315ae5	-2.4612958e-15
6	0xa74eee89	-2.8717553e-15
7	0x277bb109	3.4929218e-15
8	0x2652aa7f	7.308945e-16
9	0xa71c9be7	-2.1733864e-15
10	0x278af372	3.856664e-15
11	0x27711408	3.3456328e-15
12	0x27902929	4.0012655e-15
13	0x25ab495c	2.9713482e-16
14	0x272d7341	2.4071052e-15
15	0xa6d90f29	-1.5061509e-15

cnn.conv_net.1.conv2.weight f4 [16, 16, 3]
0	0x27110bc8	2.012918e-15
1	0x2774a814	3.3952918e-15
2	0x273b5771	2.5998865e-15
3	0xa779c49f	-3.466228e-15
4	0x27891467	3.804726e-15
5	0x2784c456	3.6850228e-15
6	0x26388ea2	6.403113e-16
7	0xa79452a7	-4.1167864e-15
8	0xa6bcf6dd	-1.3112033e-15
9	0xa7360c1d	-2.526414e-15
10	0x274e64cd	2.8642887e-15
11	0xa76d8e60	-3.2967539e-15
12	0x2739a4a2	2.5763155e-15
13	0xa749f49e	-2.802696e-15
14	0xa71ff7eb	-2.220008e-15
15	0xa5aaff51	-2.9663308e-16
16	0x278e6cf9	3.9531066e-15
17	0xa774287c	-3.3883749e-15
18	0xa764b6f2	-3.174053e-15
19	0x27153799	2.0708043e-15
20	0x26b91166	1.284167e-15
21	0x2726e313	2.3160225e-15
22	0xa6b2ddb6	-1.2411326e-15
23	0xa79013c5	-3.9989463e-15
24	0xa7497139	-2.7955732e-15
25	0xa6e8d10d	-1.6154897e-15
26	0x278012ba	3.554744e-15
27	0x26f975e6	1.7309802e-15
28	0xa76fecd3	-3.3296296e-15
29	0xa7674032	-3.209249e-15
30	0x2770b79a	3.3406221e-15
31	0x27914fa1	4.033192e-15
32	0x277a870d	3.476768e-15
33	0xa722528a	-2.252676e-15
34	0x2712020b	2.0262678e-15
35	0x279244ac	4.0597595e-15
36	0x275daf3c	3.0764906e-15
37	0xa714faa1	-2.0674992e-15
38	0x26377460	6.3648597e-16
39	0x268612e3	9.303237e-16
40	0x27890a59	3.8036358e-15
41	0x274c4b95	2.835166e-15
42	0x276fc695	3.3275564e-15
43	0xa74d5b90	-2.8499101e-15
44	0x277a2636	3.4715184e-15
45	0x278a7932	3.8434095e-15
46	0xa753120b	-2.9291913e-15
47	0x2795e20c	4.160089e-15
48	0x26969b4c	1.0450434e-15
49	0x24a92caf	7.3367764e-17
50	0x27281d60	2.3330608e-15
51	0xa6ba05ec	-1.2907948e-15
52	0xa77b2dac	-3.4858006e-15
53	0x27072ec8	1.8760374e-15
54	0x2783fda3	3.6634798e-15
55	0xa79279ae	-4.0655066e-15
56	0xa7928029	-4.066209e-15
57	0x2663ee7c	7.907965e-16
58	0x273aba7e	2.5913783e-15
59	0xa78fd0eb	-3.9916982e-15
60	0x27673247	3.2084945e-15
61	0x273d58ef	2.627723e-15
62	0xa77aa597	-3.4784236e-15
63	0x267c4d39	8.753472e-16
64	0x270b7679	1.935435e-15
65	0x26ec5d87	1.640114e-15
66	0x27404551	2.668293e-15
67	0xa78cd4dd	-3.9088593e-15
68	0xa6f69e5e	-1.7112605e-15
69	0x2790ed1d	4.0225108e-15
70	0x27725644	3.3631011e-15
71	0xa6a0a436	-1.114674e-15
72	0x27935c88	4.090102e-15
73	0x26e0a0c4	1.5586698e-15
74	0x2585ae90	2.319011e-16
75	0xa4b1eb3f	-7.7160036e-17
76	0xa6dc0c6e	-1.5268936e-15
77	0x275520d8	2.9577493e-15
78	0xa7908dfd	-4.0121973e-15
79	0x2762d4f2	3.1479238e-15
80	0x276a45d9	3.2511888e-15
81	0xa71962f5	-2.128666e-15
82	0x26b4998f	1.2531631e-15
83	0xa761a251	-3.1313014e-15
84	0x274a352d	2.8061958e-15
85	0x27704742	3.334532e-15
86	0x25efb4f5	4.1582512e-16
87	0x2773c19b	3.3827978e-15
88	0x279174b1	4.03721e-15
89	0x2788482f	3.7825844e-15
90	0xa58eda40	-2.4780965e-16
91	0x240d38c6	3.062259e-17
92	0x274991a6	2.797331e-15
93	0x2773ea77	3.3850128e-15
94	0xa785e297	-3.7160585e-15
95	0x2795bc8f	4.1560243e-15
96	0xa78ac6cc	-3.851823e-15
97	0xa74cad89	-2.840476e-15
98	0xa79066b2	-4.007937e-15
99	0x2790f387	4.023206e-15
100	0xa7474287	-2.7652862e-15
101	0xa75985d2	-3.0187344e-15
102	0xa74ee028	-2.8709758e-15
103	0x263d81a1	6.5748227e-16
104	0x2791c9ec	4.046451e-15
105	0x2791988e	4.0410985e-15
106	0x278bf0e7	3.8841437e-15
107	0xa79141bd	-4.031686e-15
108	0x27381494	2.5546285e-15
109	0xa5c9bb35	-3.4994798e-16
110	0xa6e381aa	-1.5786435e-15
111	0x26f58196	1.7035414e-15
112	0xa6faae65	-1.7394504e-15
113	0x247b810a	5.453625e-17
114	0x275d839a	3.0741252e-15
115	0xa70abd32	-1.925391e-15
116	0x274eb898	2.8688311e-15
117	0xa4215a7e	-3.498796e-17
118	0x2563ce20	1.9758949e-16
119	0xa760f3d6	-3.1218428e-15
120	0x272a98fe	2.3675177e-15
121	0x263aad9b	6.476699e-16
122	0x2710a3e8	2.0072868e-15
123	0x274ade86	2.8153762e-15
124	0x2758dfd2	3.0097355e-15
125	0xa75f705c	-3.1008377e-15
126	0xa77d88a7	-3.5184883e-15
127	0x274b3797	2.8202045e-15
128	0xa5ae81a7	-3.0272044e-16
129	0xa7723f0a	-3.361842e-15
130	0xa72a3e9d	-2.3626182e-15
131	0x278d3daf	3.920224e-15
132	0xa782b431	-3.6277612e-15
133	0xa6fa2461	-1.7357095e-15
134	0xa65cdd1c	-7.662749e-16
135	0xa714e3b1	-2.0662558e-15
136	0x277b63ee	3.488742e-15
137	0x2729de53	2.3573984e-15
138	0x26beb105	1.323188e-15
139	0xa77dab12	-3.520354e-15
140	0xa78844e8	-3.782229e-15
141	0xa77016bd	-3.3319017e-15
142	0xa793a411	-4.0978577e-15
143	0xa786ff92	-3.746956e-15
144	0xa75e09fc	-3.0814101e-15
145	0x271be79c	2.1636127e-15
146	0xa78dfc35	-3.9408805e-15
147	0x278bc37a	3.8792186e-15
148	0xa6364bf7	-6.3246886e-16
149	0xa7907632	-4.0096177e-15
150	0x273b3c26	2.598407e-15
151	0x26b4b841	1.2539951e-15
152	0x24146854	3.2180754e-17
153	0x279276a7	4.0651784e-15
154	0x27832d75	3.640909e-15
155	0xa6edad0a	-1.6492081e-15
156	0x27338ebe	2.491862e-15
157	0x2665efb8	7.9775215e-16
158	0x26a07762	1.1134589e-15
159	0x2762cbda	3.1474309e-15
160	0x2732c261	2.4807835e-15
161	0xa793ed08	-4.1057686e-15
162	0x270e6736	1.976241e-15
163	0xa6fe63f9	-1.7651888e-15
164	0x266b14d3	8.1560225e-16
165	0xa75385ef	-2.9354738e-15
166	0x2772378c	3.3614359e-15
167	0xa6fc8ed7	-1.7524729e-15
168	0xa619b00c	-5.3321126e-16
169	0x272147d9	2.2382187e-15
170	0xa5dbab6d	-3.8106607e-16
171	0xa7846314	-3.674478e-15
172	0x275272f1	2.9205664e-15
173	0xa77e1f78	-3.526664e-15
174	0x26b58de5	1.2597859e-15
175	0xa6fc262f	-1.7496362e-15
176	0xa2b4638c	-4.8894497e-18
177	0x274e2b89	2.8611843e-15
178	0x2724432d	2.2795988e-15
179	0xa703dd2c	-1.82998e-15
180	0xa74ca36d	-2.839928e-15
181	0xa60e30ab	-4.9332104e-16
182	0x275811e1	2.9985714e-15
183	0xa7161aeb	-2.0831274e-15
184	0x275119dd	2.9018597e-15
185	0x2778c76c	3.452502e-15
186	0x271ac64f	2.1479297e-15
187	0x27247f86	2.2828703e-15
188	0xa771e552	-3.3569783e-15
189	0x278f620c	3.9796776e-15
190	0x278a0e18	3.8317975e-15
191	0xa5d283c1	-3.6518473e-16
192	0x271d3108	2.1814707e-15
193	0xa6f85156	-1.7230503e-15
194	0x26133dbb	5.108453e-16
195	0x278b1e8a	3.861336e-15
196	0xa7571383	-2.9847821e-15
197	0xa76b9aef	-3.269679e-15
198	0x2780fe07	3.5802554e-15
199	0x26c05b4a	1.334742e-15
200	0x2776d778	3.4256164e-15
201	0x25c4d635	3.4145732e-16
202	0xa38b2f2a	-1.5090385e-17
203	0x27830315	3.6363146e-15
204	0xa78b46fd	-3.8657216e-15
205	0x26ddd662	1.5393064e-15
206	0xa77314e9	-3.373436e-15
207	0xa739d7fd	-2.5790995e-15
208	0xa7614244	-3.1260945e-15
209	0xa725d0e8	-2.3011598e-15
210	0xa6453d57	-6.8431236e-16
211	0x277cb2f8	3.5069044e-15
212	0x2717494e	2.0995198e-15
213	0xa6fd37c8	-1.7570521e-15
214	0xa6d3e585	-1.4703278e-15
215	0x27790518	3.4558453e-15
216	0xa782b7db	-3.6281585e-15
217	0x274e08f7	2.8593103e-15
218	0x2791eac1	4.0500105e-15
219	0x2724606e	2.2811847e-15
220	0x25b698a7	3.1675409e-16
221	0x27581fc5	2.9993244e-15
222	0x261b839e	5.39548e-16
223	0xa61051bd	-5.007081e-16
224	0xa75c8356	-3.060233e-15
225	0x276ce725	3.2876883e-15
226	0xa786b498	-3.738827e-15
227	0x278bb737	3.877889e-15
228	0xa7230fa9	-2.2629284e-15
229	0x274d165e	2.846159e-15
230	0x27355ec0	2.517016e-15
231	0xa7674a10	-3.209784e-15
232	0xa790b1d8	-4.0160847e-15
233	0x25a4fd8a	2.862127e-16
234	0xa75fb619	-3.1046182e-15
235	0xa74e838b	-2.8659552e-15
236	0x277564de	3.405526e-15
237	0x259176c4	2.523397e-16
238	0xa74e1a4f	-2.8602505e-15
239	0x2704f7ab	1.845294e-15
240	0x27887e92	3.788481e-15
241	0xa74e1462	-2.8599292e-15
242	0x278bc60c	3.8794973e-15
243	0xa74f310a	-2.8753605e-15
244	0xa7827435	-3.620824e-15
245	0x2767bb35	3.2159175e-15
246	0x27881807	3.7773633e-15
247	0xa6b4a424	-1.2534499e-15
248	0x25831dc0	2.2745037e-16
249	0xa793228b	-4.0838148e-15
250	0x277378ea	3.3788572e-15
251	0xa7160d98	-2.082405e-15
252	0x2769e388	3.245859e-15
253	0x271414af	2.0550339e-15
254	0xa78f4af1	-3.9771725e-15
255	0xa6be0c04	-1.3187155e-15

cnn.conv_net.1.conv2.bias f4 [16]
0	0x27df333d	6.1950486e-15
1	0x276ff016	3.3298064e-15
2	0x25142317	1.2848843e-16
3	0x25e4df86	3.970316e-16
4	0x263fa56f	6.649064e-16
5	0xa7af1508	-4.859506e-15
6	0x26ee3874	1.6529869e-15
7	0xa7266f13	-2.3097341e-15
8	0xa708fcbb	-1.9010797e-15
9	0x275611ac	2.9708046e-15
10	0x252b4125	1.4853958e-16
11	0x2699f8a7	1.0683905e-15
12	0xa76fc2cb	-3.327351e-15
13	0xa7aa3b2e	-4.724864e-15
14	0xa7a32b57	-4.5288577e-15
15	0xa6b3b6ec	-1.2470201e-15

cnn.conv_net.3.conv1.weight f4 [16, 16, 3]
0	0x278fb9a9	3.9891766e-15
1	0xa634d15a	-6.273377e-16
2	0xa79659c7	-4.17307e-15
3	0xa77d3cbd	-3.514373e-15
4	0x27736f85	3.378348e-15
5	0xa7547872	-2.9486204e-15
6	0x270dc25b	1.9673041e-15
7	0x276f258f	3.3188273e-15
8	0x277f5df2	3.5439287e-15
9	0xa70c06be	-1.9432558e-15
10	0xa69a194b	-1.0692752e-15
11	0xa755f650	-2.9693214e-15
12	0x273b4c9f	2.5993e-15
13	0x2765f61b	3.1913548e-15
14	0x26f1b704	1.6772341e-15
15	0x2788db65	3.798545e-15
16	0xa6bc88b0	-1.308217e-15
17	0x26709c23	8.347833e-16
18	0x2789db86	3.8263146e-15
19	0x27696fbd	3.239582e-15
20	0xa6d42e77	-1.4723049e-15
21	0xa6927c61	-1.0164498e-15
22	0xa5834c22	-2.2776467e-16
23	0x278cfc8e	3.9131626e-15
24	0xa7573fed	-2.9871898e-15
25	0x2718a2f2	2.118257e-15
26	0x26ed8540	1.6481296e-15
27	0x266b9849	8.173839e-16
28	0xa787ccfa	-3.7692263e-15
29	0x2786633a	3.7300053e-15
30	0xa789067e	-3.8032177e-15
31	0xa76056a5	-3.1133215e-15
32	0x26720eee	8.398085e-16
33	0x2660dbaa	7.801331e-16
34	0xa71a73d3	-2.1434582e-15
35	0xa5354697	-1.5723164e-16
36	0x26523bc9	7.293941e-16
37	0xa73165dd	-2.4618905e-15
38	0x269cfa40	1.0892505e-15
39	0x26b40c49	1.2493339e-15
40	0x277386f8	3.3796191e-15
41	0x270e7650	1.9770596e-15
42	0xa78e35f7	-3.9471426e-15
43	0xa74725dc	-2.7637321e-15
44	0xa65cc106	-7.658943e-16
45	0xa776acdd	-3.4233067e-15
46	0xa742d547	-2.7038526e-15
47	0xa72b0e33	-2.3738715e-15
48	0x26860166	9.298497e-16
49	0x268b0462	9.64625e-16
50	0x27405501	2.6691433e-15
51	0xa5b5d26d	-3.1541085e-16
52	0x2743ffe6	2.720041e-15
53	0xa4692d78	-5.0562335e-17
54	0xa69ac792	-1.073999e-15
55	0x266af591	8.1517863e-16
56	0xa78f7f31	-3.9828374e-15
57	0xa6b574f0	-1.2591094e-15
58	0x27866315	3.7299896e-15
59	0xa592c58d	-2.5460828e-16
60	0x2712c5a6	2.0368716e-15
61	0x2628ecd8	5.860769e-16
62	0x2753f64c	2.941565e-15
63	0xa6eea51c	-1.655932e-15
64	0xa795872f	-4.1502374e-15
65	0xa5f52783	-4.25275e-16
66	0xa7188378	-2.1165507e-15
67	0xa6e1d67d	-1.5670648e-15
68	0xa6aca5bb	-1.1979819e-15
69	0xa6a5d2bc	-1.1506295e-15
70	0xa77a3d03	-3.4727544e-15
71	0xa79600f7	-4.163441e-15
72	0xa52dd3d6	-1.5077131e-16
73	0xa7386c22	-2.5593748e-15
74	0xa70e48c7	-1.9745911e-15
75	0x278b289b	3.8624275e-15
76	0x2629c39a	5.8898743e-16
77	0xa7798351	-3.4626878e-15
78	0xa70db6fa	-1.9666873e-15
79	0x27810c47	3.5818004e-15
80	0x270990d0	1.9091072e-15
81	0x2791c424	4.045824e-15
82	0x278e4dc2	3.9497223e-15
83	0x26d6e2eb	1.4910739e-15
84	0x26f092ed	1.669317e-15
85	0xa7733186	-3.3749871e-15
86	0xa73b4def	-2.5993711e-15
87	0x2791e587	4.049444e-15
88	0x27943236	4.113269e-15
89	0x2790acec	4.015551e-15
90	0xa78e23f0	-3.945188e-15
91	0x27530075	2.928238e-15
92	0x26d72d3c	1.4930883e-15
93	0x268c4f43	9.735935e-16
94	0xa75a2d81	-3.0278245e-15
95	0xa7695e51	-3.2386375e-15
96	0xa692e360	-1.0192415e-15
97	0xa75f6b2f	-3.1005571e-15
98	0xa74f2f0e	-2.875253e-15
99	0xa6ce7872	-1.4326768e-15
100	0x275308c9	2.9286895e-15
101	0xa76d3e17	-3.2924016e-15
102	0xa6dd8b0a	-1.5372642e-15
103	0xa7966300	-4.17407e-15
104	0xa50f54b9	-1.2431978e-16
105	0x26a8a3ce	1.1701741e-15
106	0x274734db	2.764545e-15
107	0x274f487d	2.8766317e-15
108	0xa68d110f	-9.788464e-16
109	0xa6ed00e5	-1.6445421e-15
110	0x269d5f2e	1.0919862e-15
111	0xa6935ba5	-1.0225014e-15
112	0x2747ea2a	2.7743738e-15
113	0x269c86d6	1.0861222e-15
114	0x27315e02	2.4614646e-15
115	0xa744be6b	-2.730369e-15
116	0x2718a096	2.1181291e-15
117	0x27237de4	2.268904e-15
118	0x278e814d	3.9553106e-15
119	0x273dcc8a	2.63399e-15
120	0xa7145647	-2.0585897e-15
121	0xa73256c9	-2.4749509e-15
122	0xa760ab88	-3.1179232e-15
123	0x2771d6e4	3.356196e-15
124	0xa61c4faa	-5.423134e-16
125	0x27934665	4.087702e-15
126	0xa718d953	-2.121205e-15
127	0x25deec58	3.8671014e-16
128	0x27245706	2.2806748e-15
129	0x2778b90f	3.4517234e-15
130	0xa786dc7b	-3.7431517e-15
131	0xa779f635	-3.468916e-15
132	0x25375505	1.5901526e-16
133	0xa6e4d188	-1.5877472e-15
134	0xa7477237	-2.7678714e-15
135	0x27938606	4.0946005e-15
136	0x2755e5a4	2.9684176e-15
137	0xa7865232	-3.7281588e-15
138	0xa70ac4ef	-1.9258105e-15
139	0x278dc69c	3.9350694e-15
140	0x2694e2b8	1.0331015e-15
141	0x275e1377	3.081924e-15
142	0x26bdde1d	1.3174713e-15
143	0xa6edf67c	-1.6511988e-15
144	0x2753e87b	2.940816e-15
145	0xa76c0b5b	-3.2757735e-15
146	0xa78ba580	-3.8759686e-15
147	0x26a6effb	1.1583611e-15
148	0x272cfe13	2.4007529e-15
149	0x26ad0cbb	1.2007737e-15
150	0x2792d1b8	4.075052e-15
151	0xa790ccb5	-4.0189973e-15
152	0x263b6495	6.501497e-16
153	0x278a4e24	3.8387415e-15
154	0x26157615	5.185479e-16
155	0x25af17ad	3.0373704e-16
156	0x2510cbe7	1.2559094e-16
157	0xa715a686	-2.0768176e-15
158	0x2787d2fd	3.769878e-15
159	0x2515c58a	1.2990619e-16
160	0x252c3f3f	1.494005e-16
161	0x27830b51	3.6372073e-15
162	0x25a22a16	2.813104e-16
163	0x250e19eb	1.2325318e-16
164	0x25b85b84	3.1980925e-16
165	0xa738dbd3	-2.5654297e-15
166	0xa74e76a1	-2.8652552e-15
167	0x275406d7	2.9424618e-15
168	0xa76d8f53	-3.2968053e-15
169	0xa788def9	-3.798933e-15
170	0x26e32537	1.5761376e-15
171	0xa61f58bf	-5.528448e-16
172	0x273c1e12	2.6106542e-15
173	0xa77d457f	-3.5148477e-15
174	0x278b59cc	3.867761e-15
175	0x2765e67a	3.1905076e-15
176	0x27951170	4.1374713e-15
177	0xa70b2ef3	-1.9315576e-15
178	0xa67ba0bf	-8.730097e-16
179	0x27897fc9	3.8163684e-15
180	0xa70d8492	-1.9639547e-15
181	0xa738f5e9	-2.5668438e-15
182	0x26630cd5	7.8773836e-16
183	0x274eb9cf	2.868897e-15
184	0x27034cf0	1.822161e-15
185	0x2685684b	9.256998e-16
186	0xa795fec7	-4.1632038e-15
187	0xa71db8ff	-2.1888413e-15
188	0xa7286f75	-2.3375104e-15
189	0xa716f035	-2.0946898e-15
190	0x2793507a	4.088795e-15
191	0xa7807f01	-3.5664835e-15
192	0xa633bd51	-6.235967e-16
193	0xa710cb81	-2.0094334e-15
194	0x27877464	3.759622e-15
195	0x27525083	2.9187e-15
196	0x279503f9	4.1360115e-15
197	0x262f3a0b	6.0793985e-16
198	0xa75c5b53	-3.058064e-15
199	0xa77d1284	-3.512084e-15
200	0xa7245396	-2.2804884e-15
201	0xa764ed77	-3.1770086e-15
202	0xa721e275	-2.2466e-15
203	0xa753be10	-2.9385165e-15
204	0xa7111994	-2.0136658e-15
205	0xa7097d15	-1.9080376e-15
206	0x278dc589	3.934953e-15
207	0x24a07ba0	6.959837e-17
208	0xa7840359	-3.664099e-15
209	0xa6a2ecd4	-1.13052e-15
210	0xa791763c	-4.0373775e-15
211	0x272226b2	2.2502993e-15
212	0x2785a6a2	3.709558e-15
213	0x241bd6c9	3.3792197e-17
214	0x27384e9a	2.557774e-15
215	0x26cad174	1.4073338e-15
216	0xa7336759	-2.4897265e-15
217	0xa7836166	-3.6465404e-15
218	0x27813171	3.5858297e-15
219	0xa7902b32	-4.001486e-15
220	0xa59dcdd7	-2.737464e-16
221	0xa7817a8a	-3.593755e-15
222	0x2750ac0d	2.8959068e-15
223	0xa6325e8b	-6.1884285e-16
224	0x26ccaf37	1.4202836e-15
225	0xa7784571	-3.4454558e-15
226	0x26e2d763	1.5740281e-15
227	0xa6ae08f6	-1.2076104e-15
228	0x270cc3d6	1.9535066e-15
229	0xa790f760	-4.0236233e-15
230	0xa721dc1a	-2.2462556e-15
231	0x27089c3c	1.8958486e-15
232	0x278d9994	3.930187e-15
233	0x274094ce	2.672602e-15
234	0x25daec0c	3.7976923e-16
235	0x265cb7cd	7.657693e-16
236	0x27907562	4.0095296e-15
237	0xa74bd33c	-2.828642e-15
238	0x26e3a3e0	1.5795708e-15
239	0x27890b74	3.8037556e-15
240	0xa6a32900	-1.132151e-15
241	0x270f90b6	1.9923685e-15
242	0x278da245	3.9311295e-15
243	0xa77e7a94	-3.531603e-15
244	0xa78f7396	-3.981579e-15
245	0x27767d31	3.4207224e-15
246	0x275b9e8a	3.04783e-15
247	0xa62cbad3	-5.992768e-16
248	0x278f56bd	3.9784515e-15
249	0x26e31f16	1.5759715e-15
250	0xa6bebd9b	-1.3235291e-15
251	0x275d2c45	3.069391e-15
252	0x278d2f88	3.9186895e-15
253	0xa660d4dd	-7.8004095e-16
254	0x264ef9eb	7.180931e-16
255	0x274478ab	2.7265878e-15

cnn.conv_net.3.conv1.bias f4 [16]
0	0x2766071f	3.1922772e-15
1	0xa721e283	-2.246603e-15
2	0xa786b7c8	-3.7391727e-15
3	0x278e3513	3.947046e-15
4	0xa6b387ed	-1.2457463e-15
5	0xa78d4466	-3.920952e-15
6	0xa6b66c4b	-1.265814e-15
7	0x273b291e	2.5973753e-15
8	0x2787a365	3.764718e-15
9	0x27880136	3.7748896e-15
10	0xa687b1c1	-9.415687e-16
11	0x275a639f	3.0307582e-15
12	0x275b740c	3.0455264e-15
13	0x272cc30f	2.3975537e-15
14	0xa741f226	-2.69154e-15
15	0xa78a5601	-3.839594e-15

cnn.conv_net.3.conv2.weight f4 [16, 16, 3]
0	0x27762ffa	3.4165366e-15
1	0x2704998f	1.8401924e-15
2	0xa74eb8b9	-2.8688381e-15
3	0xa791c7d0	-4.046222e-15
4	0x26f56507	1.7027674e-15
5	0x278ef1b0	3.9674955e-15
6	0xa785a9e5	-3.7099116e-15
7	0x2616d4e4	5.2330225e-16
8	0x277bf867	3.4967907e-15
9	0x27404b5f	2.6686211e-15
10	0xa60dc797	-4.9189697e-16
11	0x26107bda	5.0127886e-16
12	0x278c255a	3.8898303e-15
13	0xa7034085	-1.8214878e-15
14	0x27849403	3.6797834e-15
15	0x2640cc5e	6.689035e-16
16	0xa68be215	-9.706342e-16
17	0x270df6a2	1.970138e-15
18	0x27294195	2.3489013e-15
19	0xa6d9b371	-1.5106037e-15
20	0x277081d2	3.3377066e-15
21	0xa709c8be	-1.9121392e-15
22	0x25dcd875	3.8310593e-16
23	0x27720321	3.3585943e-15
24	0x270a02ed	1.9152933e-15
25	0x26a5b4e2	1.1498203e-15
26	0x278bdf05	3.882205e-15
27	0x2717ad89	2.1049533e-15
28	0xa794048f	-4.1083194e-15
29	0x27896663	3.8136146e-15
30	0x27136674	2.0455888e-15
31	0xa77d16f7	-3.5123252e-15
32	0x2762bb8c	3.146547e-15
33	0x278b07ea	3.858883e-15
34	0x274ea220	2.867613e-15
35	0x2700a51a	1.785307e-15
36	0xa7634c2f	-3.1543878e-15
37	0x27898c15	3.8177016e-15
38	0x278c4c1c	3.8940324e-15
39	0xa77c7257	-3.503401e-15
40	0x276d78a3	3.2955754e-15
41	0xa78e2ea8	-3.9463502e-15
42	0xa6b9231e	-1.2846472e-15
43	0x271b0b97	2.1516854e-15
44	0x272c0e0f	2.3877416e-15
45	0x271bb438	2.1608268e-15
46	0x2715480a	2.0716956e-15
47	0xa722b213	-2.257855e-15
48	0x2738d1f0	2.5648937e-15
49	0xa790de08	-4.0208756e-15
50	0xa7810dbd	-3.5819588e-15
51	0x2793a1d8	4.0976168e-15
52	0x277cfe7a	3.5109977e-15
53	0x2764ac26	3.1734678e-15
54	0xa714808e	-2.0608816e-15
55	0xa78d16b3	-3.9159972e-15
56	0xa75cf88e	-3.0665875e-15
57	0x278641c0	3.7263758e-15
58	0x2720c595	2.231157e-15
59	0x2698edef	1.0611611e-15
60	0x27906a8b	4.0083543e-15
61	0x27299114	2.3532108e-15
62	0x26ce7704	1.4326381e-15
63	0xa72d61b9	-2.4061548e-15
64	0x2764108c	3.1650326e-15
65	0x27713891	3.3476133e-15
66	0xa7595fd1	-3.0166742e-15
67	0xa7187806	-2.1159302e-15
68	0xa78ca912	-3.9041112e-15
69	0xa7737312	-3.3785404e-15
70	0x2497e0ea	6.586683e-17
71	0x27877dae	3.760629e-15
72	0x253e3fd0	1.6501494e-16
73	0x25d1f2e3	3.6420307e-16
74	0xa780cd96	-3.5750034e-15
75	0x26813edf	8.968214e-16
76	0xa6ada435	-1.2048795e-15
77	0xa71b42ac	-2.1546714e-15
78	0xa790fef7	-4.0244462e-15
79	0xa6fba4db	-1.7461308e-15
80	0x277ffc48	3.552512e-15
81	0xa64a1841	-7.01157e-16
82	0xa5851378	-2.3085015e-16
83	0x278c7dbe	3.8994136e-15
84	0xa780921c	-3.568555e-15
85	0xa719c5e0	-2.1340284e-15
86	0xa5d8f58f	-3.7636424e-16
87	0xa731fefe	-2.4701916e-15
88	0x2724361c	2.2788905e-15
89	0x2781b344	3.5999053e-15
90	0x26bf38db	1.3268698e-15
91	0x23e49168	2.4781391e-17
92	0x23d0d00d	2.2639518e-17
93	0xa78a8fea	-3.8458726e-15
94	0x278b6cad	3.8698077e-15
95	0xa657e1a3	-7.4898904e-16
96	0x2783f63f	3.6626785e-15
97	0x26c5f766	1.3736678e-15
98	0x270f0a8e	1.9850958e-15
99	0xa742895a	-2.6997367e-15
100	0x24c1ef65	8.410596e-17
101	0x25fd5e1a	4.395227e-16
102	0xa692fdd9	-1.0199591e-15
103	0xa5ac68f9	-2.9908376e-16
104	0xa7336d1f	-2.4900395e-15
105	0x270e0fae	1.9714959e-15
106	0xa69b3d61	-1.0771922e-15
107	0x2790a6df	4.014895e-15
108	0x27938b2f	4.09516e-15
109	0xa7813443	-3.5861355e-15
110	0xa77386d6	-3.379612e-15
111	0x25c383c9	3.391641e-16
112	0x274e6337	2.8642027e-15
113	0x27578929	2.9911598e-15
114	0x26dcf81f	1.533282e-15
115	0x27394f8c	2.571703e-15
116	0xa771ffce	-3.358414e-15
117	0x27603425	3.1114512e-15
118	0x272dd793	2.4125436e-15
119	0xa787e48b	-3.7717814e-15
120	0x26af59f0	1.2167442e-15
121	0x2770e69f	3.343171e-15
122	0xa701475d	-1.7941032e-15
123	0xa778345f	-3.4445304e-15
124	0xa79605a3	-4.1639475e-15
125	0x27411009	2.6792823e-15
126	0x2788845a	3.789108e-15
127	0x276e3cd8	3.3062118e-15
128	0x274baa55	2.8264246e-15
129	0x259ba803	2.7002063e-16
130	0xa7914618	-4.032158e-15
131	0x25c301ad	3.3828243e-16
132	0xa607f487	-4.716893e-16
133	0xa687dd50	-9.427494e-16
134	0xa754488f	-2.9460244e-15
135	0xa795c9f0	-4.157475e-15
136	0x26e7b080	1.6076685e-15
137	0x270ad597	1.9267134e-15
138	0x277aa98e	3.4786385e-15
139	0x273b9d84	2.6036853e-15
140	0x278df8fe	3.940532e-15
141	0xa4c640f6	-8.597886e-17
142	0x277e7cc1	3.531721e-15
143	0xa6b88349	-1.280315e-15
144	0xa5f945ef	-4.3242003e-16
145	0x26873a67	9.383337e-16
146	0xa7787cc7	-3.4484556e-15
147	0x2795f9cf	4.162665e-15
148	0x272e1e39	2.4163735e-15
149	0x26b412d3	1.2495111e-15
150	0xa7712273	-3.3464144e-15
151	0x26f2a737	1.6837447e-15
152	0xa70f57fb	-1.989293e-15
153	0x278cec0a	3.911372e-15
154	0xa74d76ca	-2.851386e-15
155	0x276b28e1	3.2634962e-15
156	0x2766febd	3.2057006e-15
157	0xa77077a8	-3.3371557e-15
158	0xa727b052	-2.327149e-15
159	0x272c41d6	2.3905485e-15
160	0xa78e7189	-3.9536012e-15
161	0x27542be1	2.9444697e-15
162	0x27912183	4.028192e-15
163	0xa74ae3bf	-2.8156593e-15
164	0xa719abfa	-2.1326244e-15
165	0xa791f75f	-4.0513785e-15
166	0xa7373d89	-2.542971e-15
167	0x271ae576	2.1496184e-15
168	0x27973876	4.1972134e-15
169	0xa764731e	-3.1703761e-15
170	0x27927b51	4.065684e-15
171	0xa72f0262	-2.428742e-15
172	0x2619f99d	5.342083e-16
173	0xa7430606	-2.7064952e-15
174	0xa66bf6f0	-8.1866666e-16
175	0x26fd9bc0	1.7597618e-15
176	0xa7344a76	-2.5020383e-15
177	0x268a6cd7	9.605175e-16
178	0xa76fba04	-3.3268752e-15
179	0x27862b9a	3.7239744e-15
180	0x2771e7e3	3.3571175e-15
181	0x269f556a	1.1055993e-15
182	0xa7298e4b	-2.3530599e-15
183	0xa6d5119e	-1.4784619e-15
184	0xa7084305	-1.8910123e-15
185	0x2780261f	3.5568468e-15
186	0x278753a3	3.7560706e-15
187	0xa71fe03c	-2.218724e-15
188	0xa2f5ecf8	-6.6658283e-18
189	0xa7322ec7	-2.472782e-15
190	0xa6b8ad43	-1.2814527e-15
191	0xa78966cf	-3.8136604e-15
192	0xa768d1be	-3.231017e-15
193	0x27835d68	3.6461075e-15
194	0xa64c471f	-7.0873105e-16
195	0x2713fa95	2.0536189e-15
196	0x270d1766	1.9580365e-15
197	0x274e6aea	2.8646201e-15
198	0xa7069fa7	-1.8682783e-15
199	0x26ca3308	1.4030398e-15
200	0xa7159e79	-2.0763812e-15
201	0x277749c9	3.4318135e-15
202	0x2522086a	1.4054111e-16
203	0x278d92de	3.9294595e-15
204	0xa77163b6	-3.3499522e-15
205	0x274eb480	2.8686092e-15
206	0x2791f892	4.0515085e-15
207	0xa699be6c	-1.0668122e-15
208	0x273e0ffc	2.6376462e-15
209	0x27913c87	4.031121e-15
210	0x278e9645	3.957584e-15
211	0xa74bb812	-2.8271694e-15
212	0x26e695f6	1.6000103e-15
213	0x26cfcc6f	1.4418922e-15
214	0xa79287d8	-4.0670422e-15
215	0xa78fd69f	-3.9923166e-15
216	0xa7580144	-2.9976708e-15
217	0xa7924edc	-4.060864e-15
218	0x2692ab04	1.0177139e-15
219	0x26ae53df	1.2096409e-15
220	0x279148fd	4.032472e-15
221	0x273573b0	2.518151e-15
222	0xa5d5ce71	-3.70895e-16
223	0xa76790ee	-3.2136256e-15
224	0xa751057d	-2.9007552e-15
225	0xa774fc4e	-3.3998577e-15
226	0x27145e68	2.0590304e-15
227	0xa780b004	-3.5717973e-15
228	0x27921f7e	4.0557284e-15
229	0x26fc6a9c	1.7514909e-15
230	0x2791f36f	4.0509516e-15
231	0xa6a6e675	-1.1581029e-15
232	0x27511cde	2.9020225e-15
233	0x27910e43	4.0261047e-15
234	0xa6468a5a	-6.888255e-16
235	0xa6bb2953	-1.2986933e-15
236	0xa760867b	-3.1159147e-15
237	0xa765428c	-3.181621e-15
238	0x2791abe6	4.0431957e-15
239	0xa77d2153	-3.5128868e-15
240	0xa789edb9	-3.828288e-15
241	0xa702fe36	-1.8178932e-15
242	0x26e63953	1.5974994e-15
243	0xa5ba4d17	-3.2318095e-16
244	0x26cba4c9	1.413062e-15
245	0xa761f12f	-3.1355768e-15
246	0xa7899b9b	-3.8193846e-15
247	0x26d93446	1.5071569e-15
248	0xa77b0f92	-3.4841688e-15
249	0xa61c079d	-5.413369e-16
250	0xa77cf2e6	-3.51037e-15
251	0xa747e1b3	-2.773915e-15
252	0x27503468	2.8894208e-15
253	0x2565cafa	1.9931355e-16
254	0x2767449e	3.2094887e-15
255	0x27759a1f	3.408413e-15

cnn.conv_net.3.conv2.bias f4 [16]
0	0x27db9a49	6.0951987e-15
1	0x276e3504	3.3057875e-15
2	0x26baa02a	1.2949755e-15
3	0x2625f12b	5.757272e-16
4	0xa598bc75	-2.64955e-16
5	0xa8104644	-8.008842e-15
6	0x26c32d94	1.3543197e-15
7	0xa72cc6a7	-2.3977485e-15
8	0xa6e1d2e9	-1.5669679e-15
9	0x273f2f1e	2.6532117e-15
10	0xa4f03b9f	-1.0418441e-16
11	0x2718b439	2.1191936e-15
12	0xa74de5c7	-2.8574028e-15
13	0xa7924218	-4.05948e-15
14	0xa64274ef	-6.7465745e-16
15	0x27b7e6e2	5.1043027e-15

cnn.fc.0.weight f4 [1, 16]
0	0xa7802b30	-3.557396e-15
1	0xa500e7e4	-1.1180798e-16
2	0x28152aa1	8.280405e-15
3	0x27ea8577	6.509275e-15
4	0xa7f04af2	-6.6694637e-15
5	0xa7291363	-2.346397e-15
6	0xa70e425d	-1.9742434e-15
7	0x27fdece7	7.0478456e-15
8	0xa7a4870c	-4.5665562e-15
9	0x274faa27	2.881926e-15
10	0xa74adff7	-2.8154543e-15
11	0xa69397c3	-1.0241309e-15
12	0xa7057dc3	-1.8525633e-15
13	0xa7a85e27	-4.6731447e-15
14	0xa6e96e5a	-1.6197534e-15
15	0x26ab09fb	1.1868214e-15
