examples/models/gibbsphen_mlp_filter_32_16.pth (torch, 9634 bytes, 13 tensors)

model.0.weight f4 [32, 5]
000000 3e 08 b4 bd 11 fb b1 3e d8 a4 a0 be 78 94 8f 3d
       -0.087906346 0.3476186 -0.31375766 0.0701074
000010 4d 6d a5 3d 5f 6c 94 bc 47 2e 5a be cb 68 23 be
       0.08077488 -0.018118082 -0.21306716 -0.15957944
000020 6f bb 23 3e 21 24 81 3d 9a 9d 8f 3d 43 f2 8f bd
       0.15989469 0.06305719 0.07012482 -0.0702863
000030 4d 4e ed bd 30 95 a3 3b d5 0b 64 bd 11 68 03 3e
       -0.115872 0.00499215 -0.055675346 0.12832667
000040 38 9b 21 bd ce 08 ec bd 95 2d 61 3d da 81 67 bc
       -0.03945467 -0.11525117 0.05497511 -0.01413008
000050 e4 c2 49 bd 73 5c e9 bc 5e bb e0 3c af 74 19 bd
       -0.049258128 -0.028486466 0.027433094 -0.037464794
000060 78 01 91 bc ab 2b e1 3d c2 37 04 3d e1 ca a2 bd
       -0.017700896 0.10994657 0.032279737 -0.07948852
000070 e5 f1 83 bd f3 5d ae bd 1e 01 cb bb 70 f5 35 ba
       -0.06442622 -0.08514013 -0.0061952015 -0.0006941175
000080 4a f0 6b bc 62 53 41 bd 0e 9b 95 3b 1b dc c8 3d
       -0.014400551 -0.04719866 0.004565603 0.09807607
000090 71 d0 88 bd 40 bb 54 bd 60 de 61 bd 6f b6 85 3c
       -0.06680382 -0.051936388 -0.055143714 0.016322343
0000a0 93 69 6a 3e da f8 d3 be 94 08 af bd a1 02 b5 3e
       0.22891836 -0.41400796 -0.08546558 0.35353568
0000b0 19 92 c9 bd c4 75 9b 3e 0f b9 87 be 03 5d 9d 3d
       -0.09842319 0.30363286 -0.26508376 0.07683756
0000c0 17 ea e4 bd 99 7b 8c 3e 61 26 d2 3d 3a 80 e2 bd
       -0.111774616 0.27438048 0.102612264 -0.110596135
0000d0 77 6b 89 3e 2a ee 73 be 2e 43 3c be 85 3a 1f 3d
       0.26839802 -0.23821321 -0.18385002 0.038874168
0000e0 56 5a 5c bd 1c c2 2f bd 8a 64 bd bc ca 18 46 bd
       -0.05379709 -0.042909727 -0.02311923 -0.048363484
0000f0 97 4f 3f bd 97 c4 aa bd 2c ad d3 3d ba 62 1f 3d
       -0.046706762 -0.08338278 0.10335764 0.038912512
000100 f9 ba 2d 3d ce 93 35 3d 7e 34 ad 3c 47 f9 3c 3c
       0.04241464 0.04433041 0.021143194 0.011534042
000110 2e 10 65 3c 41 5f 2b bd 31 22 3b bd 07 ac 4e bc
       0.013980908 -0.041838888 -0.045686904 -0.012614257
000120 ea 50 d2 bb bf 4e f9 3b 02 53 5b bc d1 08 c8 3c
       -0.006418337 0.007608264 -0.01338649 0.024418266
000130 43 ab 04 3d 4f 13 84 bb eb f0 0b bd 5b ba f2 bd
       0.03238989 -0.004030622 -0.034165304 -0.11851951
000140 08 c4 44 be 7a 13 50 3e d5 39 74 be 44 d1 60 3e
       -0.19215405 0.2031993 -0.23850186 0.21954829
000150 b5 34 6d be 1d f3 ec bd 2e 38 df 3c 51 67 c5 3c
       -0.23164637 -0.11569808 0.027248468 0.024097117
000160 3c 8e 6d bc 7f 09 fa bc 87 ae b0 bb 06 f6 7d 3d
       -0.014499243 -0.030522106 -0.005391899 0.062002204
000170 8c 6b b0 3d d6 09 2c bd 73 06 01 bd ea de 3b be
       0.08614263 -0.042001568 -0.03150029 -0.18346754
000180 78 3a 2b 3e 45 3f e1 3c 5a db 28 3e 31 22 d0 bd
       0.16721523 0.02749599 0.16489926 -0.101627715
000190 22 73 1b 3e 29 b7 1c 3e fe e7 18 3d dd 86 6c be
       0.15180638 0.15304245 0.03733062 -0.23098321
0001a0 09 82 42 3d 6d f7 11 bc 29 82 8f 3d 2e 54 4b 3d
       0.047487292 -0.008909089 0.07007248 0.049640827
0001b0 71 de fd bb e5 d4 ef 3d 81 47 39 bc bc 3a 80 bd
       -0.0077474643 0.11710528 -0.011308552 -0.06261203
0001c0 28 2c ed bc 21 79 17 bd 35 69 06 bd 9b cd de 3d
       -0.02895172 -0.036980752 -0.032815177 0.1087906
0001d0 b8 4b c9 bb 26 9c 9a bd f4 31 08 bd e9 80 e0 bd
       -0.0061430596 -0.07549314 -0.033250764 -0.10962088
0001e0 99 4f 7a 3e d6 8f 9f be 88 62 fa 3d 47 dd 03 be
       0.24444427 -0.31164426 0.122258246 -0.1287738
0001f0 a1 bc 20 3d 07 ae 9e 3d 83 40 85 3d 69 a4 46 3d
       0.03924239 0.07748037 0.06506445 0.048496637
000200 29 29 e5 bb 4d 4f a1 bd c4 31 23 bc 03 9a 8c 3b
       -0.006993432 -0.078764535 -0.0099605955 0.0042908206
000210 ae 8b 57 3e 6f 7c 16 bd f4 7d 60 3d 1e f3 f2 bb
       0.21049377 -0.036739763 0.05480762 -0.0074142357
000220 df fb 16 3e 8a 60 19 be b5 bd 09 be 84 bf d8 3d
       0.14744519 -0.14978233 -0.13451274 0.10583404
000230 46 60 4b 3c 50 8d 8b 3b bf 4b 88 bd 45 5b af bc
       0.01241309 0.004258789 -0.066550724 -0.021405825
000240 88 59 d4 bc 06 e2 de bd 4b f4 d2 bd 8b c8 8b bd
       -0.025921598 -0.10882954 -0.103005014 -0.0682536
000250 b6 4c 17 3e 46 dc 8d 3d cc a8 a4 bc 3c e8 d2 3c
       0.14775357 0.069267794 -0.02010002 0.025745504
000260 d6 f3 01 3d 3c fa 08 3d ca 19 7f 3c 7e f1 fa 3b
       0.03172668 0.033441767 0.015570113 0.0076581826
000270 d5 67 c0 bc 0d 90 c9 3c 8a 74 19 3d d2 aa 87 3d
       -0.023487011 0.024604822 0.037464656 0.06624378

model.0.bias f4 [32]
000000 68 0c 37 3c 51 d9 97 bc 21 b6 70 bc 68 5d 75 39
       0.0111723915 -0.018536242 -0.01469186 0.00023399817
000010 45 d8 81 3b 90 32 67 3b 61 d8 b0 bb 5e b7 98 bb
       0.003962549 0.003527794 -0.005396888 -0.004660531
000020 4c 25 95 bc a7 86 96 bc 30 8c a3 bc d0 8c a8 3c
       -0.018206261 -0.018374754 -0.019964308 0.020574957
000030 a8 31 0a bc d2 ae 91 bc bb c6 1e 3c f1 45 b7 bc
       -0.008434691 -0.017783556 0.009690936 -0.022372218
000040 a5 32 96 3c e9 c6 a3 3c ed 47 77 3c 02 d9 48 3a
       0.018334696 0.019992309 0.015092832 0.0007661731
000050 bf b3 05 bc 81 19 50 3c 7e 66 6e bb 6c 5b 72 ba
       -0.008160531 0.012701393 -0.0036377008 -0.00092451903
000060 e0 ac e2 3a 88 29 a0 3c 33 a8 68 bc dc c5 07 bc
       0.0017293952 0.019551054 -0.014200258 -0.008286919
000070 62 b8 23 3c c6 10 a3 bb 8b 79 b0 3c 99 71 4b bc
       0.009992691 -0.004976365 0.021542331 -0.0124172205

model.1.weight f4 [32]
000000 9f 67 11 3f f3 7c 0b 3f d2 ad 0a 3f 0f 22 09 3f
       0.5679874 0.5448753 0.5417148 0.53567594
000010 6f 7c 0a 3f 88 c9 09 3f e2 1e 0b 3f 57 47 0c 3f
       0.5409612 0.5382314 0.54344 0.54796356
000020 a2 bb 18 3f 5d 50 19 3f 58 50 07 3f 44 15 09 3f
       0.59661305 0.5988825 0.5285697 0.53548074
000030 41 16 15 3f c9 5f 08 3f a2 19 0a 3f 8b d7 08 3f
       0.5823708 0.53271157 0.5394536 0.5345389
000040 55 b5 1d 3f f0 46 0d 3f 20 90 0a 3f 57 72 0e 3f
       0.61604816 0.5518637 0.5412617 0.5564322
000050 9f aa 0d 3f 2c f6 06 3f da 94 0a 3f 0b a3 0d 3f
       0.5533847 0.5271938 0.5413338 0.5532691
000060 a9 d1 15 3f 2c b0 08 3f 5c 65 08 3f 1f 3b 0d 3f
       0.5852304 0.53393817 0.5327966 0.55168337
000070 77 a8 09 3f cf 2b 0f 3f 66 f7 06 3f 98 1d 09 3f
       0.5377268 0.5592622 0.5272125 0.5356078

model.1.bias f4 [32]
000000 3f d6 81 3b 76 7c 1e bd 58 d8 2f 3a a8 87 d5 bc
       0.0039623077 -0.038692914 0.0006707958 -0.026065663
000010 5b 4e 41 3c 31 ee 87 bd 02 93 62 ba 45 ac 27 3d
       0.011798467 -0.06637228 -0.00086431217 0.040935773
000020 60 a9 7b be ac 35 e1 bc 41 28 fe bc f8 b6 a4 3b
       -0.2457633 -0.027491413 -0.031025054 0.0050266944
000030 38 d9 39 3c da 94 35 bd 2a 44 2a bc 13 71 3d bd
       0.011343293 -0.04433141 -0.010392228 -0.046250414
000040 c1 c7 43 bd 83 90 a1 bc ba 5c b1 bd 73 71 70 bc
       -0.047797922 -0.019722229 -0.08660264 -0.014675486
000050 1e 8e 8c bd 7d de ef bc 8c eb 6b 3c 8c c2 4f bc
       -0.06863044 -0.029280895 0.0143994205 -0.012680661
000060 3e 53 a9 bd 44 61 d2 bd e4 5e 79 ba 61 7d 04 bd
       -0.0826783 -0.10272458 -0.0009512736 -0.032346133
000070 77 1f 7e bc b1 08 c4 bd 2f 77 3d bc 3e 4b 29 bc
       -0.0155104315 -0.0957197 -0.01156406 -0.010332881

model.1.running_mean f4 [32]
000000 12 65 58 3d e9 67 d6 bd d9 1f d0 bd 54 b8 57 3a
       0.052830763 -0.10469038 -0.101623245 0.0008229066
000010 cf 27 56 bd 44 43 24 bd f4 54 22 bd a7 52 1c bd
       -0.05228406 -0.040103212 -0.0396318 -0.03816476
000020 be 24 0a bd 64 7c fb 3d f8 b5 cc bd 33 43 33 bd
       -0.033726446 0.12279585 -0.09995645 -0.043765258
000030 6f e9 36 3c 79 08 18 3b 26 25 b8 bc 9f 09 75 bd
       0.011164053 0.002319841 -0.022478651 -0.05982363
000040 c1 fa cf bd 18 e4 06 bd 37 aa 4c 3d 3e 01 1e 3d
       -0.101552494 -0.03293237 0.049967017 0.038575403
000050 05 a9 8b 3d 44 56 fa 3d 8a f1 c7 bd b2 7a 83 bd
       0.06819347 0.12223485 -0.09762867 -0.06419887
000060 38 4f 8d bc fc de 8f 3d cc db cd 3d c7 7a 09 bd
       -0.017249689 0.07024953 0.100516886 -0.033564355
000070 72 4c 1d bd ee 9c 0c bd 19 f0 90 3d 26 98 d5 3c
       -0.038402982 -0.034329347 0.07077045 0.026073527

model.1.running_var f4 [32]
000000 50 d9 a3 3a 40 6a b2 3b 60 c8 ae 3b c6 6c 20 38
       0.0012500677 0.005444795 0.005333945 3.8248276e-05
000010 e8 7b 06 3b ce 70 c0 3a bf f0 45 3a 69 a7 5a 3a
       0.0020520631 0.0014682056 0.00075508276 0.0008340986
000020 84 d9 4e 39 da b2 57 3c f3 56 9b 3b 40 a8 4d 3b
       0.00019726722 0.0131652 0.0047405898 0.0031380802
000030 3a d3 b4 39 82 0e d0 39 aa 6a 28 3a 53 dc 6b 3a
       0.0003448965 0.0003968366 0.00064245856 0.00089973694
000040 77 22 20 3c 3d 25 fc 3a c7 bd 6e 3a 2a 1d 82 3a
       0.009773842 0.0019237172 0.00091072585 0.0009926904
000050 22 d4 94 3b 8a bd 08 3c c7 37 bb 3b c8 43 3a 3b
       0.0045418898 0.008345971 0.0057134363 0.0028421748
000060 5d 91 8d 39 0a 91 f3 3a 2d 23 11 3c 0c d3 ec 39
       0.0002700192 0.0018582654 0.008858484 0.0004517067
000070 d0 fb eb 3a 81 fb 6b 3a ba 88 be 3a 2e 1f 92 3a
       0.0018004123 0.00090020156 0.0014536597 0.0011148208

model.4.weight f4 [16, 32]
000000 b6 4c 79 bc 09 9f 59 bd a2 f5 18 bd 75 d6 53 bc
       -0.015216043 -0.053130183 -0.03734363 -0.0129295485
000010 8c 31 e8 bc b4 a1 2f 3d 86 b6 ce bb e9 90 37 bd
       -0.028343938 0.04287882 -0.0063083796 -0.04481593
000020 75 4b ee 3d 6d 1d 16 bd 5b f9 90 3d c1 74 37 bd
       0.11635486 -0.036649156 0.07078811 -0.04478908
000030 8a cf a5 3d 9b b1 18 bd 33 3e 7b bc ac 5e 09 3d
       0.080962256 -0.037278753 -0.015334654 0.03353755
000040 ae 2c 79 bc 60 1f dc 39 31 08 4c 3d d8 f5 85 bd
       -0.015208406 0.00041985046 0.0498125 -0.065410316
000050 65 7f 54 3d 35 b0 91 bd 93 e6 9e 3b 22 73 73 3c
       0.051879305 -0.07113687 0.004849264 0.014858993
000060 99 4f 69 bd a7 2d 59 3d 87 83 15 bd a9 09 c6 bd
       -0.056960676 0.053022053 -0.036502387 -0.09669811
000070 c6 a2 6d bd 39 49 f5 3d 58 24 1a bd 7c 35 84 3d
       -0.05801656 0.11976857 -0.037632316 0.06455514
000080 57 ae 5d bd 1d c5 2e bd 58 ea 10 3c 11 93 65 3d
       -0.05412134 -0.04266845 0.008844934 0.056048457
000090 97 1b d2 bc 8c 32 2c bb 82 e7 a6 3c d8 8e 01 3e
       -0.025647921 -0.0026275245 0.020374063 0.12652147
0000a0 eb 2d 39 3c c4 e8 97 3c 6e 0c 45 3d 50 c3 13 3d
       0.011302452 0.018543608 0.048107557 0.036074936
0000b0 c7 89 01 bd 6f c9 d0 3c ba bf a1 3a fa a3 ae 3c
       -0.031625535 0.025486676 0.0012340464 0.021318424
0000c0 f1 4a 83 3d e0 7e 8a bc 7f 2a 42 bd 61 7a 3f bd
       0.06410778 -0.016906202 -0.04740381 -0.04674757
0000d0 6b 2e 1a bd 61 eb 62 3d 5b bb e2 3c 18 70 de 3b
       -0.037641924 0.055400256 0.027677229 0.006788265
0000e0 c8 ba fa 3c 5a 6f 83 bd 43 98 04 3d ee 88 5f 3d
       0.030606642 -0.06417723 0.03237177 0.054573946
0000f0 72 07 8f 3c 64 ba bd bd 71 79 5d bc 41 4e 0c 3c
       0.017459605 -0.09264067 -0.013517723 0.008563579
000100 36 dd 3a 3d 82 f9 30 3c 30 a0 e6 bb ea 32 d2 3d
       0.04562112 0.010801675 -0.007038139 0.10263617
000110 3c 81 45 bd 9a 4b 38 bd a6 b8 a0 bc 61 6b a8 3c
       -0.04821895 -0.044993974 -0.019619297 0.020559015
000120 66 9b bc ba bd 70 82 bc 3d dc 99 bd 61 d6 63 bb
       -0.0014389574 -0.015922898 -0.0751271 -0.003476523
000130 67 cf 81 bd 2a 0e ba bb 5d 13 2f bd 7a a3 25 bd
       -0.06338387 -0.005677958 -0.042743076 -0.040439107
000140 4f 1a 95 3d 26 fb 23 bd 76 91 c4 bc 23 34 56 3d
       0.072804086 -0.040034436 -0.023995142 0.052295815
000150 34 a9 f0 bb 3b 55 9e 3c dc 11 98 bc 94 1a 8d 3a
       -0.0073443893 0.01932775 -0.018563204 0.0010765367
000160 ce cb 64 3d c9 a0 a3 3b 2f 1d 17 bb 88 8e f6 3d
       0.055858426 0.0049935323 -0.0023058166 0.120389044
000170 be a6 88 bc 7a 1d 7f 3b d5 3d 0c 3d 1d 06 2b bd
       -0.016681071 0.0038927482 0.034238655 -0.041753877
000180 67 86 7b bd e3 68 b8 3d 48 04 70 bd ca d9 2f 3c
       -0.061407473 0.090043806 -0.058597833 0.010733077
000190 1d ef 13 bd 98 28 2b 3d 2a 9a 75 bd 7f e3 29 3b
       -0.036116708 0.04178676 -0.059961475 0.0025922952
0001a0 9f cd 6e 3e b9 0a 6a 3d 65 b1 e9 bd 4e 47 80 bd
       0.23320626 0.057139132 -0.114107884 -0.062636
0001b0 f1 c8 56 3d c7 0e 9a bc 9a b3 00 bd 36 73 89 3c
       0.052437726 -0.018805875 -0.03142128 0.01677857
0001c0 14 c1 4b bd 20 f0 31 bd 5c 6e d2 3b f9 c1 83 bd
       -0.04974468 -0.04344189 0.0064218473 -0.06433482
0001d0 15 bd f7 ba fa 4f 0c be 95 94 ab bb 2c c6 6a bb
       -0.0018900955 -0.13702384 -0.005236218 -0.0035823686
0001e0 58 d8 ea bd 3d c0 7a 3d 9d 8c 23 be c5 17 ea bd
       -0.114670455 0.06121849 -0.15971608 -0.11430315
0001f0 06 a3 a6 bd 57 3c 00 3e 44 05 8a bd ce d1 11 3c
       -0.08136563 0.12523018 -0.067392856 0.008900119
000200 88 58 0f 3e 42 a6 b5 bd a6 95 c5 bb f4 17 98 3d
       0.13998616 -0.08869602 -0.0060298024 0.07426444
000210 01 b2 26 bd f6 57 6a bd 28 59 8d 3c ee 5e 79 3d
       -0.0406971 -0.057212792 0.017254427 0.060881548
000220 8a 7f da bc fc 8a a2 bd dd 4f 95 bd e1 93 be 3c
       -0.026672143 -0.079366654 -0.07290623 0.023263874
000230 b5 a9 93 bc d3 19 7d bd 86 dc 99 bc 9a a9 8a bd
       -0.018025259 -0.061792206 -0.018781912 -0.0677063
000240 77 4c 27 3e 9a ea 03 bd da b6 12 bd 3e 29 0e 3e
       0.16337763 -0.032206155 -0.035818912 0.1388292
000250 35 4f 82 bd 05 c5 ef bc e9 4f 63 bd 06 2a 4f bd
       -0.06362764 -0.02926875 -0.05549613 -0.050577186
000260 65 a5 af 3d be 0d 94 3c 8d d1 c9 3b 19 a8 05 3e
       0.085764684 0.018072959 0.0061590136 0.13052405
000270 b6 48 c9 3c f3 7d 43 bb 03 a3 99 3c 10 3e 6c 3c
       0.024570804 -0.002982971 0.018754488 0.014419094
000280 8e 6f 29 bd 10 e8 8a 3d b6 2c 41 bd c4 83 bc bc
       -0.041366152 0.06782544 -0.04716178 -0.02301205
000290 58 91 14 bd 59 e7 67 3d 41 ce 24 bd f2 78 1e bd
       -0.036271423 0.056617115 -0.04023576 -0.03868956
0002a0 02 fa 2e 3e be 2c c1 bd 8b a6 b9 3c fc 5e 7b bd
       0.17087558 -0.09432362 0.022662422 -0.06136988
0002b0 50 44 2b 3d 33 0e b0 bc 82 c2 ae bc 3b 4d 84 3d
       0.041813195 -0.021491146 -0.021332983 0.06460043
0002c0 f8 65 3d bd 0b d3 e6 bc 61 19 b0 3d b8 fb 3f bd
       -0.046239823 -0.028176805 0.08598591 -0.046870917
0002d0 64 8a e8 3c 9c 59 a9 bd 9d b9 48 bc f6 e3 c9 3c
       0.028386302 -0.08269045 -0.012251285 0.024644833
0002e0 64 fa b0 bd 73 93 c7 3d df 04 12 bb 98 b6 9d bd
       -0.08641508 0.097449206 -0.0022280735 -0.077008426
0002f0 d8 44 84 bd fb 4b d3 3d d3 4b 2c bd a9 82 03 3d
       -0.064584434 0.103172265 -0.0420645 0.03210703
000300 ce 62 3a 3d e5 46 c5 bd 92 ba c6 bb 70 79 a1 3d
       0.045504384 -0.09632663 -0.0060647214 0.078844905
000310 2c be 0e bd 79 7e 83 bc a0 9e c4 bc c6 de dd bb
       -0.03484933 -0.016051518 -0.02400142 -0.0067709414
000320 54 12 14 bd 8a f7 cb bc 84 b3 67 bd 64 e5 1b bc
       -0.03615029 -0.02489831 -0.056567684 -0.00951514
000330 c6 0a cb bc 36 b5 a8 bc 2d 54 b4 bc 1c 33 cb bc
       -0.02478541 -0.02059422 -0.022012794 -0.024804644
000340 97 9d 76 3c 3b 4c 47 bd dd 31 a8 bd 86 64 52 3b
       0.015052221 -0.048656683 -0.08212636 0.0032103374
000350 96 d7 9b bd 5f c6 a4 bb 4b c2 41 bd 8e ba 14 bd
       -0.07609479 -0.0050285305 -0.047304433 -0.036310725
000360 3e 72 d1 3d f9 fb 39 bd 50 25 f4 bc 80 37 98 37
       0.10226868 -0.045406315 -0.029802948 1.8145656e-05
000370 30 7e 74 bb 00 2d 11 bd 0c 1e 49 3c 0d 63 63 bd
       -0.003730666 -0.035443306 0.01227523 -0.055514384
000380 89 09 db 3c 29 e0 27 bd bf 63 23 bb 27 40 ce 3c
       0.026737945 -0.04098526 -0.002493128 0.025177075
000390 13 6a c4 bc aa 59 01 bd 4d e8 17 3c 9b b8 92 3c
       -0.023976361 -0.03157965 0.009271693 0.017910292
0003a0 7b 39 0a bd 95 c7 ea bc fb aa f2 bc c0 7b 3f 3b
       -0.033746224 -0.028659621 -0.029622545 0.0029218048
0003b0 ae 2a 18 bd e9 cf 44 bc ab 29 8c bc a8 b7 a4 bc
       -0.037150078 -0.01201246 -0.017109713 -0.020107105
0003c0 7f fd ec bc 54 58 cc bc 6d f3 80 bc 78 8e 59 3d
       -0.02892947 -0.024944462 -0.015741074 0.053114384
0003d0 f5 5a 00 bd 92 16 c4 bb 2e af 8b bb e0 2f fa bc
       -0.031336743 -0.005984136 -0.0042628264 -0.030540407
0003e0 2d 51 27 3d 8e d0 b8 bc 6c b5 07 3a ef 61 5c 3d
       0.0408489 -0.022560384 0.0005176875 0.053804334
0003f0 57 4d 5a 3b 38 d3 98 bb 2a 56 aa 3b b2 f4 f7 bc
       0.0033310258 -0.004663851 0.00519826 -0.030268047

model.4.bias f4 [16]
000000 a6 22 3a bb ee 6a 8f bb ae 14 63 bb 95 50 91 bb
       -0.0028402 -0.0043767607 -0.0034649777 -0.004434655
000010 6b 8b a0 ba d3 3d 43 bb f7 04 0a bc d8 c8 95 ba
       -0.0012248581 -0.0029791489 -0.008424035 -0.0011427654
000020 4a 51 88 ba 28 2e 4b 39 52 ae f9 b9 40 fe f2 37
       -0.0010400203 0.00019376783 -0.0004762286 2.8967042e-05
000030 96 a6 f1 b9 22 c5 fd bb ed 3e a2 bb 0c 7b 9c ba
       -0.00046091218 -0.0077444473 -0.004951349 -0.0011938526

model.5.weight f4 [16]
000000 e0 f3 46 3f 11 ab 50 3f 65 2f 4e 3f 72 fd 52 3f
       0.77715874 0.81511027 0.8054107 0.82417977
000010 6d 96 73 3f 36 69 57 3f 6c 2c 5a 3f f5 a3 0b 3f
       0.95151407 0.84144914 0.8522403 0.54547054
000020 27 a9 54 3f 31 15 65 3f e2 a0 21 3f 66 0f 4f 3f
       0.83070606 0.8948546 0.6313611 0.8088287
000030 ea 70 12 3f 4a e1 0c 3f 84 e7 55 3f 53 74 20 3f
       0.57203543 0.55031264 0.8355639 0.62677497

model.5.bias f4 [16]
000000 3d 2f 52 bd 9c 5c 78 3d cd 83 81 3d be 5f 62 bd
       -0.05131458 0.060635194 0.06323967 -0.055267088
000010 f0 8c 96 3d e3 da 4e bd d8 c0 91 3d bb 34 9f 3d
       0.073511004 -0.050501715 0.0711686 0.077737294
000020 f6 c6 68 bd 06 8a 88 3d 83 fe 88 3d 68 94 9f 3d
       -0.05683037 0.06666951 0.06689169 0.07791978
000030 07 c7 15 3d 05 1d 7b 3d 1a 12 94 3d 87 d5 13 bd
       0.03656676 0.061306972 0.07230015 -0.036092307

model.5.running_mean f4 [16]
000000 d3 2b 4a bd 1a d2 67 3d 68 af 26 3c 6a f8 3c be
       -0.0493582 0.056596853 0.010173656 -0.18454137
000010 9e 42 3b 3d b2 e7 85 bd f3 51 1d be 7c 14 5c bd
       0.045717828 -0.06538333 -0.15363292 -0.053730473
000020 72 49 5c bd 87 4d a3 3d 97 54 7a bd 1e fc cc bc
       -0.05378098 0.079737715 -0.061115827 -0.025022563
000030 0c a9 a6 bc 84 63 b2 bd 50 34 ad 3c ed bb 08 bd
       -0.02034428 -0.08710387 0.021143109 -0.033382345

model.5.running_var f4 [16]
000000 db 75 3b 3c ee 71 c6 3c 52 64 6a 3b f3 d8 ee 3c
       0.011441673 0.024224248 0.0035765362 0.029156184
000010 7f de 0b 3c 9f 13 5d 3c b6 be 00 3c db a0 e7 3a
       0.008536934 0.013493448 0.007857969 0.001767184
000020 4c f5 0e 3c c7 2a 37 3d 2e a5 29 3b b6 9b 8d 3b
       0.0087254755 0.04471853 0.0025885808 0.0043215407
000030 9d e1 be 3a da 72 e2 3a 7d 40 b3 3c a4 88 2b 3a
       0.0014563088 0.001727666 0.021881336 0.00065434934

model.8.weight f4 [1, 16]
000000 08 6a ea bd 5b 0c 1a 3e 22 b5 2e 3e c5 fb 33 be
       -0.11446005 0.15043776 0.17061284 -0.17576511
000010 a3 f0 9f 3e a7 00 29 be 81 3c 54 3e 55 c7 c3 3d
       0.3123828 -0.16504155 0.20726205 0.09559504
000020 83 34 09 be 39 40 77 3e 8a de d8 3d 80 f4 35 3e
       -0.13398938 0.24145593 0.10589321 0.1776905
000030 a9 24 7e 3d dd 41 a6 3d 4a 4c 4f 3e 5e 1f c2 3c
       0.06204668 0.08118031 0.20243946 0.023696598
