examples/models/gibbsphen_mlp_filter_32_16_8_normalizer.pth (torch, 13931 bytes, 23 tensors)

normalizer.mean f4 [5]
0	0x00000000	0.0
1	0x00000000	0.0
2	0x00000000	0.0
3	0x00000000	0.0
4	0x00000000	0.0

normalizer.std f4 [5]
0	0x3f800000	1.0
1	0x3f800000	1.0
2	0x3f800000	1.0
3	0x3f800000	1.0
4	0x3f800000	1.0

model.0.mean f4 [5]
0	0x00000000	0.0
1	0x00000000	0.0
2	0x00000000	0.0
3	0x00000000	0.0
4	0x00000000	0.0

model.0.std f4 [5]
0	0x3f800000	1.0
1	0x3f800000	1.0
2	0x3f800000	1.0
3	0x3f800000	1.0
4	0x3f800000	1.0

model.1.weight f4 [32, 5]
0	0xb6504e5d	-3.1040029e-06
1	0x36307a10	2.6297093e-06
2	0x356bea16	8.788496e-07
3	0xb625a988	-2.4685596e-06
4	0xb68e0ff5	-4.2337874e-06
5	0x361432c3	2.2083266e-06
6	0x35a6a81f	1.2416893e-06
7	0xb6230fed	-2.4298163e-06
8	0x365cefe4	3.292219e-06
9	0xb668e6b4	-3.470498e-06
10	0xb5b265dc	-1.3291678e-06
11	0xb660fd6d	-3.3526114e-06
12	0xb684e803	-3.9609163e-06
13	0xb623ecd9	-2.4426756e-06
14	0xb5453ec7	-7.347957e-07
15	0xb6a6e5bc	-4.97393e-06
16	0x35776bd1	9.2171564e-07
17	0xb60ab771	-2.067038e-06
18	0xb50ed644	-5.321092e-07
19	0xb62f1d18	-2.6093967e-06
20	0xb58ecd3b	-1.0639554e-06
21	0x34cfebaf	3.8728237e-07
22	0x344df5a5	1.9181478e-07
23	0xb5779589	-9.223227e-07
24	0xb5cce663	-1.5266236e-06
25	0xb5100a9a	-5.365961e-07
26	0x3690ccf8	4.315396e-06
27	0xb534f067	-6.7405057e-07
28	0xb63baed9	-2.7966946e-06
29	0x36461a20	2.9519506e-06
30	0x351e2008	5.89062e-07
31	0x366af689	3.501222e-06
32	0xb62eaaa6	-2.602735e-06
33	0xb6270bc5	-2.489179e-06
34	0xb5c7c196	-1.4882996e-06
35	0xb6956be5	-4.4531066e-06
36	0x363d5211	2.8210964e-06
37	0x366af689	3.501222e-06
38	0x3629fc3e	2.5329787e-06
39	0xb5aaed11	-1.2734982e-06
40	0xb6610df3	-3.3535732e-06
41	0xb5978e80	-1.129185e-06
42	0xb5fe2ada	-1.8936946e-06
43	0xb547f9a3	-7.4496546e-07
44	0xb50d62a8	-5.2670157e-07
45	0xb619bb55	-2.2907818e-06
46	0x3625e44c	2.4719802e-06
47	0x36238b89	2.4370113e-06
48	0x35ab6754	1.2770565e-06
49	0xb6598336	-3.2411895e-06
50	0xb461ee8d	-2.1041542e-07
51	0xb628fc79	-2.518091e-06
52	0x36771792	3.6819588e-06
53	0xb4d2e148	-3.9279462e-07
54	0xb61ae139	-2.3078885e-06
55	0x361e03f6	2.354614e-06
56	0x35c73e83	1.4844849e-06
57	0x36a91167	5.0386184e-06
58	0xb64e642d	-3.0754702e-06
59	0x35fdd90c	1.8913138e-06
60	0x361b8222	2.3172547e-06
61	0xb5cce5b3	-1.5266036e-06
62	0x362ae4f9	2.5465254e-06
63	0x3621fc8d	2.4137873e-06
64	0xb5fbeaa9	-1.8769252e-06
65	0x3625a774	2.4684387e-06
66	0x362f67c9	2.6137443e-06
67	0xb6658d78	-3.4206005e-06
68	0xb59a653e	-1.150336e-06
69	0x35abafd9	1.2791671e-06
70	0x350b0cf0	5.180036e-07
71	0xb5faa161	-1.8673419e-06
72	0x35d86f1d	1.6125592e-06
73	0x35a11ff9	1.200474e-06
74	0x352b074a	6.371307e-07
75	0x35efb645	1.7859935e-06
76	0x35a466a5	1.2248826e-06
77	0xb50335ea	-4.887976e-07
78	0x35209b14	5.9830313e-07
79	0x34b8e784	3.444112e-07
80	0xb62c2be1	-2.5655538e-06
81	0xb602c8bd	-1.9488355e-06
82	0xb6a9118a	-5.0386343e-06
83	0x369716c1	4.5027996e-06
84	0x3680314c	3.820436e-06
85	0xb63f753e	-2.8529462e-06
86	0x35e240de	1.6857191e-06
87	0xb60df8b2	-2.1155397e-06
88	0xb4a0c1ea	-2.9943413e-07
89	0x363412ea	2.68331e-06
90	0xb5222200	-6.039918e-07
91	0x35481f72	7.4551565e-07
92	0x3661ac5f	3.3627946e-06
93	0xb5f929de	-1.8564131e-06
94	0x35cc09c9	1.5202032e-06
95	0xb508ade9	-5.091702e-07
96	0x359be4da	1.1615004e-06
97	0xb6267b10	-2.480756e-06
98	0xb60fff9c	-2.1457445e-06
99	0x3666e102	3.4403643e-06
100	0x3627d240	2.500732e-06
101	0xb5c8e623	-1.496814e-06
102	0x3667d063	3.454298e-06
103	0x36639d9c	3.3917377e-06
104	0x36a1df6b	4.824183e-06
105	0xb68e71fa	-4.2451984e-06
106	0x361dfed0	2.3543143e-06
107	0xb684ed0d	-3.961503e-06
108	0x36504150	3.1032432e-06
109	0xb660f135	-3.3519002e-06
110	0xb612eedb	-2.1894728e-06
111	0x35d5012c	1.5870078e-06
112	0xb59f9bce	-1.1891768e-06
113	0x361596af	2.229044e-06
114	0x3615f95b	2.2347874e-06
115	0xb5fceadb	-1.8843815e-06
116	0xb66edbf5	-3.5592795e-06
117	0x365f166a	3.3242636e-06
118	0x365a25d9	3.2506562e-06
119	0x34c9649b	3.7512368e-07
120	0xb51d0fd3	-5.8510085e-07
121	0x35c805bc	1.490283e-06
122	0xb64fe099	-3.0976137e-06
123	0x35ccd317	1.526062e-06
124	0x35ab1d05	1.2748939e-06
125	0xb6a7d349	-5.0015847e-06
126	0xb647c036	-2.9765192e-06
127	0xb5c68334	-1.4790335e-06
128	0x36a9441f	5.044523e-06
129	0xb665a200	-3.4217956e-06
130	0x35a90b61	1.2594793e-06
131	0xb631cff1	-2.6496093e-06
132	0xb647a887	-2.9751407e-06
133	0x360d1f1e	2.102875e-06
134	0x35d09d52	1.5542994e-06
135	0x3601abba	1.9322456e-06
136	0xb61c0565	-2.3248951e-06
137	0xb6a6b994	-4.9687897e-06
138	0x3669b522	3.4825139e-06
139	0xb442bfe8	-1.8137473e-07
140	0xb5c48864	-1.4642833e-06
141	0x3692ba3a	4.3728187e-06
142	0x36128645	2.183385e-06
143	0x36a7b413	4.9979512e-06
144	0x35411fd4	7.194442e-07
145	0x3687f355	4.051641e-06
146	0x3607fbfd	2.0263244e-06
147	0xb692fb50	-4.3803957e-06
148	0x36319acc	2.646516e-06
149	0xb51013a8	-5.3672784e-07
150	0x3660c30f	3.349214e-06
151	0x36a11b11	4.801325e-06
152	0x368016f2	3.8173685e-06
153	0x35b48016	1.3448323e-06
154	0xb5c9bf4a	-1.503134e-06
155	0x35ef97b2	1.7851037e-06
156	0x34e72fdb	4.3061922e-07
157	0x358b9095	1.0398386e-06
158	0x35d34b7a	1.5742692e-06
159	0xb5b3e1b0	-1.3402223e-06

model.1.bias f4 [32]
0	0x36994349	4.5675883e-06
1	0xb61e04b7	-2.354658e-06
2	0x359e01d6	1.1772452e-06
3	0xb6073a97	-2.0150671e-06
4	0x3623ec67	2.4426497e-06
5	0xb606e724	-2.0102098e-06
6	0x35c45b9d	1.4629801e-06
7	0xb642ada7	-2.9009332e-06
8	0x368e3fa5	4.239339e-06
9	0x362a95b8	2.5419122e-06
10	0x35c050e4	1.4328657e-06
11	0x34ce7597	3.8456048e-07
12	0x34cfef18	3.8730718e-07
13	0xb6a87d72	-5.021394e-06
14	0xb61c6994	-2.3307266e-06
15	0x35aee54c	1.3030744e-06
16	0x3687ca79	4.0468844e-06
17	0xb668b5a8	-3.4676432e-06
18	0x36234d9f	2.4334074e-06
19	0xb6648c5e	-3.4056352e-06
20	0xb5973228	-1.1264974e-06
21	0x35c6270b	1.4763513e-06
22	0xb5d7b42c	-1.6071185e-06
23	0xb61cb881	-2.3353207e-06
24	0xb4c0a2dd	-3.5881285e-07
25	0x36314509	2.641524e-06
26	0x365c0ef2	3.2791254e-06
27	0xb557bc65	-8.036789e-07
28	0xb67ffbbc	-3.814449e-06
29	0xb48fa6d8	-2.675722e-07
30	0x3601e10e	1.9353497e-06
31	0x365cb2f0	3.288671e-06

model.2.weight f4 [32]
0	0x361b4919	2.3139348e-06
1	0xb5c8e6a8	-1.4968291e-06
2	0x366aad2e	3.496952e-06
3	0x36a7234c	4.981097e-06
4	0xb669e459	-3.4852621e-06
5	0xb6106493	-2.1516214e-06
6	0x358feb01	1.0722725e-06
7	0xb69b811a	-4.6343894e-06
8	0x36419133	2.8843758e-06
9	0xb634bc3a	-2.6931652e-06
10	0x35b57cd3	1.352188e-06
11	0xb690707e	-4.3046302e-06
12	0xb64c0d58	-3.0406136e-06
13	0x360319b5	1.9535485e-06
14	0xb667eb52	-3.4558657e-06
15	0x36a29a5a	4.845945e-06
16	0x35c69c0b	1.4797564e-06
17	0xb5a1cffa	-1.2055964e-06
18	0xb5f8861e	-1.8516473e-06
19	0x35b63f6f	1.3578518e-06
20	0xb5cca742	-1.5247863e-06
21	0xb6a7ea12	-5.004237e-06
22	0x36311392	2.6386447e-06
23	0xb58f64f1	-1.0683708e-06
24	0x36a8cbc0	5.03051e-06
25	0x3667f6a9	3.4565257e-06
26	0xb59b9efd	-1.1594672e-06
27	0x368b6ec6	4.1554185e-06
28	0x362dba65	2.5887505e-06
29	0xb6a761a8	-4.9883565e-06
30	0xb620e0af	-2.397264e-06
31	0xb65dac3d	-3.3031822e-06

model.2.bias f4 [32]
0	0x34b46d9e	3.360737e-07
1	0xb5c09a0e	-1.434995e-06
2	0xb5f2cd20	-1.8090104e-06
3	0x34c17dce	3.6040586e-07
4	0xb65fe7d4	-3.3364531e-06
5	0xb5d784e0	-1.605742e-06
6	0xb630380e	-2.6258672e-06
7	0xb49b4b57	-2.8925817e-07
8	0xb56e80db	-8.884942e-07
9	0xb580fd05	-9.610382e-07
10	0xb63114bd	-2.6387127e-06
11	0x36a8f9cf	5.0358717e-06
12	0xb5a8fca0	-1.2590499e-06
13	0xb5a17771	-1.2030197e-06
14	0x368f6115	4.273034e-06
15	0xb6125d14	-2.1809874e-06
16	0x365468ec	3.1651534e-06
17	0xb62ab9e2	-2.5440172e-06
18	0xb62fa527	-2.6173163e-06
19	0x3630ab43	2.6325731e-06
20	0x349dba9e	2.937931e-07
21	0xb5da1e2b	-1.6251046e-06
22	0x36444374	2.9245539e-06
23	0x35e2010c	1.6838617e-06
24	0x361c47e1	2.328765e-06
25	0xb52b4f68	-6.3818015e-07
26	0xb6a93773	-5.0430476e-06
27	0xb5caa571	-1.5098323e-06
28	0x3504865f	4.936937e-07
29	0x35b84255	1.3728373e-06
30	0x3595de73	1.1166106e-06
31	0xb5e7eecc	-1.728034e-06

model.2.running_mean f4 [32]
0	0xb39231ea	-6.807734e-08
1	0x3514ae97	5.538836e-07
2	0xb688daba	-4.078579e-06
3	0xb7716a7c	-1.4389512e-05
4	0x3635397a	2.7004558e-06
5	0xb7177b1c	-9.028965e-06
6	0x36224c1b	2.418418e-06
7	0x36bc40ed	5.610395e-06
8	0xb638aa26	-2.7517176e-06
9	0x3689bb67	4.1047347e-06
10	0xb692e02a	-4.377235e-06
11	0xb5572343	-8.0145054e-07
12	0xb57fbea2	-9.527231e-07
13	0xb69a13ea	-4.591876e-06
14	0x3483cd00	2.454981e-07
15	0x36e8a743	6.9336106e-06
16	0xb69471f6	-4.4240105e-06
17	0xb6f6f59b	-7.3599635e-06
18	0x37357159	1.08148315e-05
19	0x35a2a9f8	1.2119408e-06
20	0xb6753cba	-3.6543192e-06
21	0x36b526a9	5.398721e-06
22	0xb62c6ec7	-2.5694478e-06
23	0xb6685983	-3.4622797e-06
24	0x36a5b3f8	4.9383343e-06
25	0xb6fe8348	-7.585073e-06
26	0x36f0fd85	7.182071e-06
27	0xb5f28552	-1.8069206e-06
28	0x36adec4e	5.1833113e-06
29	0x336167f2	5.2481433e-08
30	0x37347b36	1.0757523e-05
31	0x37413cd5	1.151786e-05

model.2.running_var f4 [32]
0	0x2b8e690c	1.0118863e-12
1	0x2ab5ee01	3.2317207e-13
2	0x2dca3565	2.2988453e-11
3	0x2de753c1	2.6298854e-11
4	0x2c0bb01b	1.9850846e-12
5	0x2ca65aba	4.7280764e-12
6	0x2c1b191b	2.2040761e-12
7	0x2cf3af2c	6.9259234e-12
8	0x2c9e3c53	4.4973274e-12
9	0x2afe75cb	4.52012e-13
10	0x2b8924f4	9.744692e-13
11	0x2c32f179	2.5429366e-12
12	0x2c101ff9	2.048138e-12
13	0x2a1bd5af	1.3840902e-13
14	0x2d213838	9.1642735e-12
15	0x2bed5a64	1.6864951e-12
16	0x2d137a30	8.383114e-12
17	0x2b913e18	1.0320104e-12
18	0x2d237bf3	9.2929995e-12
19	0x2abfaba2	3.404751e-13
20	0x2afb5e00	4.4651782e-13
21	0x2a3b72ac	1.6648721e-13
22	0x2c02fd1a	1.861461e-12
23	0x2ba38a5f	1.1620252e-12
24	0x2b3d8ef4	6.7344676e-13
25	0x2d64d25c	1.3007009e-11
26	0x2b600441	7.958669e-13
27	0x2c0ba9cf	1.984735e-12
28	0x2d2a79cd	9.690426e-12
29	0x2caf6407	4.9849044e-12
30	0x2d343390	1.0243265e-11
31	0x2d3da46c	1.0779915e-11

model.5.weight f4 [16, 32]
0	0x35c7f989	1.489928e-06
1	0x3625bb94	2.46961e-06
2	0xb5a76a8f	-1.2473482e-06
3	0xb62c1a65	-2.564536e-06
4	0xb66290bb	-3.3760869e-06
5	0xb5665df0	-8.5818374e-07
6	0xb62f451e	-2.6117264e-06
7	0xb58a9d54	-1.032759e-06
8	0x3596e8c1	1.1243611e-06
9	0xb5e264e6	-1.6867677e-06
10	0xb5161b72	-5.591929e-07
11	0xb69aafee	-4.6100386e-06
12	0x3613b176	2.2008003e-06
13	0x358f6544	1.0683802e-06
14	0x361e62f5	2.3601435e-06
15	0xb5cd3052	-1.5287753e-06
16	0xb5119e29	-5.424686e-07
17	0xb56d892a	-8.848898e-07
18	0xb580abdb	-9.58676e-07
19	0xb302a167	-3.041478e-08
20	0x361399ce	2.1994233e-06
21	0x36551a08	3.1754626e-06
22	0xb5933f33	-1.0970747e-06
23	0xb657f1f6	-3.2178336e-06
24	0xb663da19	-3.3952585e-06
25	0xb61cf8a6	-2.3390544e-06
26	0x3649df49	3.0081303e-06
27	0x362697e2	2.4824335e-06
28	0x361957af	2.2849815e-06
29	0xb62800b5	-2.5034362e-06
30	0x35c9e18d	1.5041311e-06
31	0x354cf3ae	7.635052e-07
32	0x365f9da6	3.3321353e-06
33	0x340bd02c	1.3021116e-07
34	0xb603f8c1	-1.9665315e-06
35	0xb5f4eb5d	-1.8247916e-06
36	0xb5b98cdc	-1.382457e-06
37	0x36a8699a	5.019084e-06
38	0xb5ee5e1a	-1.7759769e-06
39	0xb6690ffc	-3.472901e-06
40	0xb6181161	-2.265988e-06
41	0xb5b8fc02	-1.3782412e-06
42	0xb6a8fe4e	-5.036395e-06
43	0x3655302e	3.1767518e-06
44	0x367c7c7d	3.7623388e-06
45	0x36a7f17a	5.0050994e-06
46	0xb5b4d4ed	-1.3473015e-06
47	0xb6a62bf0	-4.9523005e-06
48	0x36a761a8	4.9883565e-06
49	0xb5ded850	-1.6603244e-06
50	0xb58ed8e3	-1.0642947e-06
51	0x365b5e2c	3.2688358e-06
52	0xb504f9a7	-4.9537124e-07
53	0xb5c0927f	-1.4347751e-06
54	0x3690f7d4	4.3203854e-06
55	0xb591fbb9	-1.0876603e-06
56	0x36580aa2	3.2192697e-06
57	0x36300e5c	2.6234402e-06
58	0xb569243c	-8.685199e-07
59	0x35bbc5eb	1.3990187e-06
60	0xb6932a8d	-4.385895e-06
61	0xb66252d6	-3.3724841e-06
62	0x35897d82	1.0243823e-06
63	0xb5cd9f76	-1.53201e-06
64	0xb56704eb	-8.606136e-07
65	0xb484bc94	-2.4724125e-07
66	0xb6006b6c	-1.9136014e-06
67	0x3637bbce	2.7378442e-06
68	0x35ccd44f	1.5260974e-06
69	0x36693a0b	3.475349e-06
70	0x33ad71bb	8.076628e-08
71	0x362e40cc	2.5965737e-06
72	0x36114eb4	2.1652495e-06
73	0xb64bfeb7	-3.039762e-06
74	0xb5f8e0a3	-1.8542818e-06
75	0x36288103	2.5109046e-06
76	0xb5c7f940	-1.4899197e-06
77	0xb5fd4637	-1.8870404e-06
78	0xb5abe428	-1.2806895e-06
79	0x35a53426	1.2308635e-06
80	0xb5a99c03	-1.2636887e-06
81	0xb46d46df	-2.2098128e-07
82	0x3628d9d0	2.5160734e-06
83	0xb612a1d4	-2.1849892e-06
84	0x3586ca0c	1.0042581e-06
85	0x35c7d3a7	1.4888254e-06
86	0x3635d82a	2.7096926e-06
87	0xb6151369	-2.2214028e-06
88	0x366af6a0	3.5012272e-06
89	0x36a8829d	5.0219955e-06
90	0x361abe7a	2.305866e-06
91	0x36196e08	2.2862823e-06
92	0xb602a8df	-1.9469805e-06
93	0xb65f8d7d	-3.3311946e-06
94	0xb664b86c	-3.4081995e-06
95	0x35d851c7	1.6117054e-06
96	0xb5e472ed	-1.7020772e-06
97	0xb5ca12ee	-1.5055682e-06
98	0xb663bb16	-3.3934534e-06
99	0x3605d0a4	1.993999e-06
100	0x363af4c2	2.7858628e-06
101	0x35a7d697	1.2504923e-06
102	0x35a3cc25	1.220386e-06
103	0xb68cab25	-4.192249e-06
104	0xb60af01c	-2.0703364e-06
105	0xb6844ec1	-3.9430747e-06
106	0x3591484d	1.0824384e-06
107	0x3657dbe6	3.2165494e-06
108	0xb62a7224	-2.5398413e-06
109	0x353e70d4	7.09447e-07
110	0x354e1a88	7.677959e-07
111	0xb5b258d6	-1.3287888e-06
112	0xb568cd3c	-8.672539e-07
113	0x363df579	2.8306079e-06
114	0x3601a55a	1.9318745e-06
115	0x34da2836	4.0634922e-07
116	0x35d575f3	1.5904064e-06
117	0xb65363c2	-3.1499517e-06
118	0x366a5ebc	3.492386e-06
119	0xb4dc28f1	-4.1007982e-07
120	0x35a5cdf2	1.2353396e-06
121	0xb5e69d83	-1.7182177e-06
122	0x35eef73f	1.780434e-06
123	0xb654a07d	-3.1683878e-06
124	0x3611a89a	2.1704823e-06
125	0x3593c2fa	1.1009099e-06
126	0xb62f5f0e	-2.6132361e-06
127	0xb61fe7f6	-2.3827865e-06
128	0x369ee55c	4.735468e-06
129	0x36534220	3.147994e-06
130	0x367b37a5	3.7434304e-06
131	0x36222553	2.4161607e-06
132	0x36a51560	4.9198716e-06
133	0x362bc679	2.5596512e-06
134	0xb4dbd586	-4.0947288e-07
135	0xb6166091	-2.240795e-06
136	0x366263e4	3.3734768e-06
137	0xb5887234	-1.0166027e-06
138	0xb6a92d77	-5.0418853e-06
139	0x36508b13	3.1075367e-06
140	0x359ac942	1.1532468e-06
141	0x365ec182	3.3193214e-06
142	0xb628e953	-2.5169763e-06
143	0xb5af2fb4	-1.30524e-06
144	0x36698206	3.479539e-06
145	0x35c1d4c3	1.4441542e-06
146	0xb52fbd8b	-6.54684e-07
147	0x34b674a1	3.3985e-07
148	0xb6246a39	-2.4499734e-06
149	0xb58ff3d0	-1.0725289e-06
150	0x354ddf89	7.669374e-07
151	0x35dd19f4	1.6473336e-06
152	0xb5a7944d	-1.2485631e-06
153	0xb52e1f58	-6.486566e-07
154	0x357c926f	9.4090404e-07
155	0xb6208124	-2.3917028e-06
156	0x3680cac6	3.838303e-06
157	0xb6501a12	-3.100959e-06
158	0xb5a1767c	-1.2029918e-06
159	0x35ee5065	1.775578e-06
160	0xb5e6368c	-1.7152211e-06
161	0x36a28c89	4.8443367e-06
162	0x368cb11f	4.1929447e-06
163	0x362b86f7	2.5559546e-06
164	0x36a94c27	5.045458e-06
165	0xb62aeb84	-2.5469062e-06
166	0xb51fec60	-5.9576087e-07
167	0x358c3665	1.0446644e-06
168	0xb612ebae	-2.189288e-06
169	0xb49384d2	-2.7477523e-07
170	0xb6353804	-2.7003707e-06
171	0x36a4977a	4.905215e-06
172	0x35577eb8	8.027814e-07
173	0x3655615e	3.1796149e-06
174	0x334ad436	4.7224795e-08
175	0x36447bb3	2.9278278e-06
176	0xb5814ac2	-9.633006e-07
177	0x36386055	2.747421e-06
178	0x364ea6f5	3.0793574e-06
179	0xb66ac7c0	-3.4984987e-06
180	0x361bcc2b	2.3215641e-06
181	0x35ddf5d0	1.6537324e-06
182	0xb628f201	-2.5174816e-06
183	0x368140de	3.852051e-06
184	0xb3bad839	-8.7006306e-08
185	0xb64552c2	-2.940346e-06
186	0x36786cce	3.7018212e-06
187	0xb5e985d5	-1.7398803e-06
188	0xb64d9bd0	-3.0638075e-06
189	0x36836d4b	3.9168276e-06
190	0x35939a3f	1.0997245e-06
191	0xb5c0fb5a	-1.4378268e-06
192	0x362ad433	2.545549e-06
193	0x35caf853	1.5122445e-06
194	0xb66ae4e1	-3.5001942e-06
195	0xb4ce6a72	-3.844794e-07
196	0xb5b725bd	-1.3645546e-06
197	0x369a442b	4.5974934e-06
198	0xb5cc9417	-1.5242284e-06
199	0xb6256df3	-2.4650915e-06
200	0x3642c431	2.9022451e-06
201	0xb5e49b1e	-1.7032469e-06
202	0xb607308d	-2.0144828e-06
203	0xb65440e2	-3.1628228e-06
204	0xb62c00a0	-2.563036e-06
205	0xb695875a	-4.456303e-06
206	0xb6823687	-3.8806497e-06
207	0xb5387725	-6.871872e-07
208	0xb65fb0b5	-3.3332446e-06
209	0x369611f3	4.472438e-06
210	0xb57428de	-9.0956553e-07
211	0x36271760	2.4898545e-06
212	0x35cb4c78	1.5146934e-06
213	0x36965a7e	4.480883e-06
214	0x3639e65d	2.7701237e-06
215	0xb628e953	-2.5169763e-06
216	0x358d434d	1.0524906e-06
217	0x361eada6	2.3644911e-06
218	0xb4bfa720	-3.5698122e-07
219	0x362b50e9	2.5528082e-06
220	0x35db2226	1.632671e-06
221	0x35c46867	1.4633523e-06
222	0x366556fa	3.4174286e-06
223	0xb4c63c9e	-3.692448e-07
224	0xb6677d52	-3.4494628e-06
225	0xb62f3a4c	-2.6110965e-06
226	0xb63196ff	-2.6462947e-06
227	0xb6674ac7	-3.4465209e-06
228	0x3621c882	2.410758e-06
229	0xb682a2b0	-3.8932412e-06
230	0xb56f6507	-8.918145e-07
231	0xb62da55c	-2.587526e-06
232	0x3602dad6	1.9498889e-06
233	0xb6525a68	-3.1345062e-06
234	0x361223c7	2.177652e-06
235	0x3165aac0	3.3420946e-09
236	0x34cbc823	3.7957315e-07
237	0x358a5904	1.0307708e-06
238	0xb4684631	-2.1632219e-07
239	0x35bebb4e	1.4210616e-06
240	0x3647623f	2.9710498e-06
241	0x36131300	2.1915766e-06
242	0x359cf988	1.1695529e-06
243	0xb668065e	-3.45744e-06
244	0x3635536f	2.7019667e-06
245	0x342edd4c	1.628552e-07
246	0xb601acbb	-1.932304e-06
247	0x35ccac65	1.5249358e-06
248	0x35b958ff	1.3809475e-06
249	0xb5c98296	-1.5013673e-06
250	0xb68148d0	-3.852976e-06
251	0x3544e3b6	7.3347053e-07
252	0xb5bef5c1	-1.4227627e-06
253	0xb5babcf3	-1.3913071e-06
254	0xb5db7c76	-1.6352994e-06
255	0xb61fc1d7	-2.3805676e-06

model.5.bias f4 [16]
0	0x36206bef	2.3904684e-06
1	0x364c1213	3.040889e-06
2	0xb5b73bbd	-1.3651949e-06
3	0xb6322bf6	-2.6549656e-06
4	0x35bb65a1	1.3962164e-06
5	0xb5d4aebe	-1.5846088e-06
6	0xb66ae95a	-3.5004546e-06
7	0x35efd282	1.7868153e-06
8	0xb600e977	-1.920938e-06
9	0x34cb273d	3.7840246e-07
10	0x35c5231c	1.4687862e-06
11	0xb57cad6f	-9.4129695e-07
12	0xb6401ee0	-2.86282e-06
13	0xb62270b7	-2.420549e-06
14	0x364af7ad	3.0244512e-06
15	0xb4f01fc8	-4.4726607e-07

model.6.weight f4 [16]
0	0x3678164c	3.6967858e-06
1	0x3628e820	2.5169065e-06
2	0xb6a8941f	-5.0240337e-06
3	0xb600f1ac	-1.9214158e-06
4	0x35c6b41e	1.4804571e-06
5	0xb659a793	-3.243306e-06
6	0x3630d686	2.6350913e-06
7	0x350881d5	5.085288e-07
8	0x362616cf	2.4749204e-06
9	0x361d98be	2.348373e-06
10	0x358698ea	1.0028282e-06
11	0xb58b9de2	-1.0402257e-06
12	0xb4c31e99	-3.6343843e-07
13	0xb64243c9	-2.894771e-06
14	0x3600a289	1.9168094e-06
15	0x368b7c47	4.1569906e-06

model.6.bias f4 [16]
0	0x364cf4d5	3.054088e-06
1	0xb62145f8	-2.4031597e-06
2	0x362a7dd9	2.5405227e-06
3	0xb615aa67	-2.2301917e-06
4	0x36947858	4.4247536e-06
5	0xb5223337	-6.042423e-07
6	0xb6965331	-4.480033e-06
7	0x3597e7ef	1.1317878e-06
8	0x355e74a3	8.2871173e-07
9	0xb6585305	-3.2234832e-06
10	0x35a19c1b	1.2040867e-06
11	0xb5e962b0	-1.7388575e-06
12	0x36a5e61c	4.9441715e-06
13	0xb64bbedb	-3.036045e-06
14	0xb62c9b15	-2.5720267e-06
15	0x36a400d7	4.8876786e-06

model.6.running_mean f4 [16]
0	0xb5ccc4fb	-1.5256513e-06
1	0x36b8d353	5.5082287e-06
2	0xb69ef959	-4.737795e-06
3	0xb6a94d98	-5.0456256e-06
4	0x369f972b	4.7561675e-06
5	0xb6a33a93	-4.8645975e-06
6	0xb6bcb1a3	-5.6235162e-06
7	0x364b3939	3.0282665e-06
8	0xb6a94611	-5.0447493e-06
9	0x3689138b	4.0851933e-06
10	0x36a10325	4.79854e-06
11	0xb6961cd4	-4.4737044e-06
12	0xb5560952	-7.9734775e-07
13	0xb6b12672	-5.2794867e-06
14	0x3629a64b	2.5279758e-06
15	0x365b1552	3.2645953e-06

model.6.running_var f4 [16]
0	0x1d14c34a	1.9688599e-21
1	0x1d038623	1.7407053e-21
2	0x1cf17666	1.5978647e-21
3	0x1d115d20	1.9238735e-21
4	0x1d23e3eb	2.1690701e-21
5	0x1cec55eb	1.5639379e-21
6	0x1cc090d5	1.2742932e-21
7	0x1d097291	1.8191028e-21
8	0x1d0e4766	1.8830456e-21
9	0x1cde60f1	1.4715786e-21
10	0x1ce43048	1.5100255e-21
11	0x1d04c627	1.7572497e-21
12	0x1d02915f	1.7280512e-21
13	0x1d17e79a	2.0104419e-21
14	0x1c987670	1.0089132e-21
15	0x1cde06a0	1.469244e-21

model.9.weight f4 [8, 16]
0	0x36338fc4	2.6756761e-06
1	0x33ad858c	8.080232e-08
2	0x33d39b61	9.8537164e-08
3	0x36a36a0f	4.8701254e-06
4	0xb5bf1f4c	-1.4239718e-06
5	0x35b5d6e6	1.3548095e-06
6	0xb5ca033a	-1.5051112e-06
7	0x33542636	4.939485e-08
8	0xb5a128ed	-1.2007346e-06
9	0x349fdb02	2.9775407e-07
10	0xb5086219	-5.08067e-07
11	0x35cc553c	1.5223991e-06
12	0xb66af613	-3.5011951e-06
13	0xb6a152ea	-4.8078264e-06
14	0x36939d04	4.3992204e-06
15	0x366987cd	3.4798752e-06
16	0xb61e12f0	-2.3554858e-06
17	0x3594e523	1.1093547e-06
18	0xb6a3eeae	-4.8855645e-06
19	0xb65984e8	-3.2412881e-06
20	0xb4836c31	-2.447937e-07
21	0xb64fd4fa	-3.0969372e-06
22	0xb407b530	-1.263877e-07
23	0xb62834de	-2.5064724e-06
24	0x35735a01	9.065553e-07
25	0x35852d45	9.922447e-07
26	0x3626a96b	2.4834542e-06
27	0xb692e69f	-4.377987e-06
28	0x36302349	2.6246582e-06
29	0xb5138c3a	-5.4965824e-07
30	0x36671c72	3.443824e-06
31	0x367bd9cd	3.7528691e-06
32	0x35e03186	1.6703714e-06
33	0xb62d433f	-2.5818151e-06
34	0xb4ceb73a	-3.8503805e-07
35	0x35a7dbbb	1.250642e-06
36	0x360a09ea	2.0569373e-06
37	0xb568a5a5	-8.666778e-07
38	0x354822e0	7.4556556e-07
39	0x363e0e5b	2.8320562e-06
40	0x35099bcf	5.126321e-07
41	0x36a366cc	4.8697457e-06
42	0x36179fd4	2.2593786e-06
43	0x35f691b0	1.8370829e-06
44	0x365a0bfd	3.249151e-06
45	0xb62558eb	-2.4638673e-06
46	0x366a31ab	3.4897628e-06
47	0x366662d2	3.4330192e-06
48	0xb699fa46	-4.588891e-06
49	0x35e11dd5	1.6772489e-06
50	0x36521bad	3.1308548e-06
51	0xb62914cf	-2.5195075e-06
52	0x35ae55a1	1.2988932e-06
53	0x36537d74	3.1514473e-06
54	0xb62df583	-2.5921915e-06
55	0x361250d0	2.1802734e-06
56	0xb66aec9f	-3.5006449e-06
57	0xb62eae1a	-2.602936e-06
58	0xb6425199	-2.8955749e-06
59	0x3699fc45	4.5891234e-06
60	0xb623151e	-2.4301185e-06
61	0x35031743	4.8835153e-07
62	0x356079a8	8.3623536e-07
63	0x36894ff7	4.0922273e-06
64	0x3650f479	3.1136717e-06
65	0xb66ace08	-3.4988643e-06
66	0xb400f5e9	-1.201039e-07
67	0x356bb717	8.781075e-07
68	0xb6706038	-3.5818794e-06
69	0xb63bccb5	-2.7984327e-06
70	0xb651e837	-3.1278594e-06
71	0xb65aeaea	-3.262127e-06
72	0xb6622993	-3.3700824e-06
73	0x35516511	7.800564e-07
74	0x3605bb28	1.9927484e-06
75	0x3522e8d0	6.068849e-07
76	0x369596d0	4.458103e-06
77	0xb672ecd7	-3.619867e-06
78	0x359c05d5	1.1624603e-06
79	0x356841e9	8.6522647e-07
80	0x35d6c602	1.600187e-06
81	0x3688dd60	4.0788873e-06
82	0xb3a68995	-7.7550034e-08
83	0xb5924260	-1.0897165e-06
84	0x36599391	3.2421415e-06
85	0xb4f9bf24	-4.6518937e-07
86	0xb643fce9	-2.9204477e-06
87	0xb352efa5	-4.911239e-08
88	0x36025e85	1.9426527e-06
89	0xb44228c6	-1.8082491e-07
90	0x369a2350	4.5936686e-06
91	0xb617c282	-2.2613972e-06
92	0xb66a39f1	-3.4902444e-06
93	0x358a3b0a	1.0298984e-06
94	0xb62faec4	-2.617876e-06
95	0xb58096e4	-9.580658e-07
96	0x35c894ce	1.4944469e-06
97	0x36a40012	4.887589e-06
98	0x36100adc	2.1463993e-06
99	0xb5814fdb	-9.63449e-07
100	0x3579e398	9.309092e-07
101	0x3613bed6	2.2015788e-06
102	0xb67506e6	-3.651186e-06
103	0xb428f58b	-1.5735547e-07
104	0x367d9cdd	3.7791244e-06
105	0xb6315ae4	-2.642796e-06
106	0x36653cd5	3.4159068e-06
107	0x35d044db	1.5517247e-06
108	0xb64e1a5d	-3.0711738e-06
109	0xb6631758	-3.3839224e-06
110	0xb631c13f	-2.648754e-06
111	0x34e382af	4.237713e-07
112	0xb4ae9dc7	-3.2524824e-07
113	0xb62c7b74	-2.5701856e-06
114	0xb60a15bf	-2.057626e-06
115	0x3685c569	3.9866904e-06
116	0xb5f1439a	-1.7975574e-06
117	0xb58a47e6	-1.0302726e-06
118	0xb61fc225	-2.3805853e-06
119	0x35c857f5	1.492676e-06
120	0xb61ccb75	-2.336424e-06
121	0xb5f8febd	-1.8551578e-06
122	0x35c35ae4	1.4555085e-06
123	0xb68941a7	-4.090561e-06
124	0x360c1e5b	2.0879295e-06
125	0xb696e64f	-4.49716e-06
126	0x361c22a5	2.3265977e-06
127	0xb685815c	-3.9787683e-06

model.9.bias f4 [8]
0	0x358e9a81	1.0624791e-06
1	0xb5a96059	-1.2619522e-06
2	0xb50dfc09	-5.289335e-07
3	0x3595f9f3	1.117411e-06
4	0xb56c3d03	-8.8005635e-07
5	0x3570b2f7	8.9667395e-07
6	0x366af53c	3.5011462e-06
7	0xb6898903	-4.0988684e-06

model.10.weight f4 [8]
0	0xb5ab815b	-1.277814e-06
1	0xb66ad53e	-3.499284e-06
2	0x359dacbe	1.1747686e-06
3	0x361c0ad5	2.3252117e-06
4	0xb4dcc800	-4.1123712e-07
5	0xb64209f3	-2.8914044e-06
6	0x3515ac5d	5.5757647e-07
7	0x36a36e20	4.870599e-06

model.10.bias f4 [8]
0	0xb5dc1be7	-1.6399398e-06
1	0xb686dd1c	-4.0192517e-06
2	0xb59c7924	-1.1658162e-06
3	0x3639d2c5	2.7689832e-06
4	0xb611b7ae	-2.17136e-06
5	0xb5e4e850	-1.7054936e-06
6	0xb5181b56	-5.666419e-07
7	0xb6259c77	-2.467799e-06

model.10.running_mean f4 [8]
0	0xb642597d	-2.8960342e-06
1	0xb69ce579	-4.6758764e-06
2	0xb68cb325	-4.1931803e-06
3	0x3699e699	4.5866004e-06
4	0xb694c502	-4.4336784e-06
5	0x36952341	4.44465e-06
6	0x36bcb2c5	5.623648e-06
7	0xb67a94cd	-3.7339516e-06

model.10.running_var f4 [8]
0	0x1c5712bc	7.1161746e-22
1	0x1c5ecf61	7.372167e-22
2	0x1c862cf4	8.878996e-22
3	0x1c98df9f	1.0116321e-21
4	0x1c6e480b	7.884071e-22
5	0x1c7667b3	8.15286e-22
6	0x1c221e35	5.3640345e-22
7	0x1c64efc0	7.574874e-22

model.13.weight f4 [1, 8]
0	0x35dc1ced	1.6399696e-06
1	0x3688b3aa	4.0740315e-06
2	0x35985bc7	1.1351593e-06
3	0xb639d31f	-2.7690037e-06
4	0x3611b9cd	2.1714834e-06
5	0x35d4a9a2	1.58446e-06
6	0x351833df	5.6699895e-07
7	0x36259b81	2.4677431e-06
