examples/models/gibbsphen_mlp_filter_32_16_16_colab.pth (torch, 13509 bytes, 19 tensors)

model.0.weight f4 [32, 5]
0	0xba10140d	-0.0005496152
1	0x39a05705	0.00030582413
2	0xba0a1084	-0.0005266743
3	0x39f9a531	0.00047616058
4	0x3a036ea6	0.00050137413
5	0x3a07bb35	0.00051777373
6	0x3a0ca843	0.0005365649
7	0x39d85672	0.00041263137
8	0xba0c658b	-0.0005355707
9	0x3a0a2c10	0.0005270848
10	0x3a0d9ace	0.0005401791
11	0xba000202	-0.00048831117
12	0x39e94a4d	0.00044496582
13	0x3a0c4644	0.00053510466
14	0xb9d92013	-0.00041413362
15	0x3a0a2718	0.00052701076
16	0xba0a6432	-0.00052792125
17	0xba0f17a6	-0.0005458541
18	0x3a060892	0.00051129714
19	0xba07f9a2	-0.00051870395
20	0xba0e8c4e	-0.0005437777
21	0x39ebf98e	0.00045008626
22	0xba0e6f36	-0.0005433442
23	0x3a0258d0	0.00049723405
24	0xba0d5c17	-0.00053924456
25	0xba0cfdc2	-0.0005378389
26	0xb9d83532	-0.00041238364
27	0x39d3a9aa	0.00040371466
28	0xba0b8af7	-0.00053231366
29	0x3a0e9e11	0.0005440424
30	0x3a08f363	0.0005224256
31	0xba07dcdd	-0.00051827525
32	0x3a09b9d1	0.0005253824
33	0xba02c9e4	-0.00049891905
34	0x39f67b56	0.0004701267
35	0x39c40fec	0.00037395896
36	0xb9f1ee18	-0.00046144496
37	0x3a0a17bc	0.0005267819
38	0x39f8437f	0.00047352535
39	0xba0f334e	-0.0005462662
40	0x3a0d7065	0.0005395471
41	0x39fabd92	0.00047824957
42	0x3a0d9ce8	0.0005402104
43	0x39c4ba74	0.00037522952
44	0x3a0bf376	0.00053387077
45	0x39e86347	0.00044324456
46	0xba1132a0	-0.0005538855
47	0x39de0870	0.00042349426
48	0xba0f4288	-0.0005464931
49	0xba0eccac	-0.00054473686
50	0xba0b5eb3	-0.00053165405
51	0xb9fc72a8	-0.0004815061
52	0xba039314	-0.000501917
53	0xba0a1657	-0.0005267611
54	0xb9faef3c	-0.0004786196
55	0xb9ed7dbf	-0.0004529785
56	0xba092911	-0.00052322546
57	0xb9eee4eb	-0.00045565455
58	0x39f0abc5	0.00045904345
59	0x3a08589c	0.0005201192
60	0x3a0439d5	0.0005044018
61	0xb9fff100	-0.0004881695
62	0xb9f41f85	-0.0004656279
63	0xba0ad391	-0.0005295808
64	0xba02b07e	-0.0004985406
65	0xba0d8699	-0.000539878
66	0xba0ce7ce	-0.0005375118
67	0xba0df1c1	-0.0005414747
68	0x39ff6dd8	0.0004871923
69	0xb9d56810	-0.00040704058
70	0xb9f9b0ac	-0.00047624612
71	0x3a09c254	0.00052550924
72	0xba024934	-0.00049700146
73	0x3a0ac304	0.0005293342
74	0xba00deea	-0.0004916029
75	0xba0c3d00	-0.0005349666
76	0x3a0ade22	0.00052973826
77	0x3a03c5a9	0.0005026707
78	0x3a0d868b	0.00053987716
79	0x3a07fe88	0.00051877694
80	0x39c97b70	0.00038429676
81	0xba0c9b79	-0.00053637434
82	0x3a08a5e8	0.000521271
83	0x3a0bab6f	0.0005327975
84	0x3a0d8cef	0.0005399724
85	0xba0a82aa	-0.00052837527
86	0xba0b1f13	-0.00053070596
87	0xba07b9a0	-0.00051775016
88	0xba09f1e1	-0.0005262178
89	0xb9faab63	-0.0004781141
90	0xba09acc7	-0.0005251881
91	0xb9fb949c	-0.00047985173
92	0xba06b5a0	-0.00051387586
93	0xba0ab258	-0.00052908575
94	0x3a01a913	0.00049461535
95	0x3a03b459	0.00050241273
96	0xb9f610a8	-0.00046933186
97	0x3a0cd042	0.0005371609
98	0xb9e2fc87	-0.00043294227
99	0xb9fa9780	-0.00047796592
100	0xb9c3f8bc	-0.0003737862
101	0xb9f354c8	-0.0004641174
102	0xba06ebe3	-0.0005146844
103	0x3a0b73e4	0.0005319698
104	0x39c9ec0c	0.00038513576
105	0x3a0e0ae8	0.0005418495
106	0xba0005db	-0.0004883685
107	0xb9e40cb4	-0.00043497013
108	0x3a0d8c2c	0.00053996104
109	0xb9e4deb5	-0.00043653478
110	0xba0d353b	-0.0005386655
111	0x39f48abc	0.00046642672
112	0xba04ac30	-0.00050610583
113	0xb9dc36da	-0.00042002538
114	0xb9f126d5	-0.00045996034
115	0xba089604	-0.00052103424
116	0xba0edd12	-0.0005449812
117	0x3a076ff9	0.00051665265
118	0x3a089668	0.00052104006
119	0xba0e1e6d	-0.0005421404
120	0xba08f54a	-0.0005224539
121	0x3a068ae0	0.00051323883
122	0x3a02ecfb	0.0004994419
123	0xba0a51de	-0.00052764814
124	0x39e1eaa2	0.0004309016
125	0xb9eecde3	-0.00045548295
126	0x3a0dd9b0	0.0005411161
127	0x3a02d975	0.000499151
128	0xba0b7430	-0.00053197425
129	0xb9f7597d	-0.00047178185
130	0xba03ad97	-0.00050231203
131	0x3a107f9e	0.00055121805
132	0x3a015ff1	0.0004935256
133	0xba092b5d	-0.0005232597
134	0xba01aed1	-0.0004947009
135	0xba0d2a1b	-0.00053849973
136	0xba07a2af	-0.0005174083
137	0xba0de808	-0.00054132985
138	0xba0e4699	-0.000542739
139	0xba0928b8	-0.0005232203
140	0xb9be5f3f	-0.00036310588
141	0xba0d5e57	-0.0005392781
142	0xb9b282d5	-0.00034048283
143	0x3a0d49e6	0.0005389735
144	0x39f8cb4f	0.00047453723
145	0xba053a87	-0.00050822686
146	0xba01ab2c	-0.0004946466
147	0x3a0b000e	0.00053024373
148	0xba0941d6	-0.00052359456
149	0xba09f77e	-0.00052630145
150	0x39c71226	0.0003796976
151	0xba065db6	-0.00051256584
152	0x3a0c73dd	0.0005357841
153	0x3a08f320	0.0005224217
154	0x3a0b2dce	0.00053092546
155	0x3976192f	0.0002346977
156	0x39ea608e	0.00044703897
157	0xba0df5fc	-0.00054153777
158	0xba104979	-0.00055041123
159	0x39f4a025	0.00046658624

model.0.bias f4 [32]
0	0x3a0a1904	0.000526801
1	0x3a0bb69f	0.0005329642
2	0x39eba1cb	0.00044943238
3	0x3a0d81f5	0.0005398088
4	0x3a0b0269	0.00053027883
5	0xba0b1689	-0.0005305787
6	0xba044a89	-0.0005046507
7	0xba080bc3	-0.0005189741
8	0x39e719f6	0.00044079096
9	0xba0dc5d3	-0.0005408201
10	0xba048d94	-0.0005056497
11	0x3a0bcaa1	0.0005332623
12	0xb9e24ce4	-0.00043163367
13	0x3a0d9d30	0.0005402146
14	0x39e32c03	0.00043329605
15	0xba0d0780	-0.0005379841
16	0x3a0dc356	0.00054078305
17	0xba0135ed	-0.0004928995
18	0x39d9b4ab	0.00041524073
19	0xb9df11af	-0.0004254705
20	0x3a0d904f	0.0005400227
21	0xba0a8036	-0.0005283387
22	0xba06296b	-0.0005117866
23	0x3a0b4216	0.0005312277
24	0xba0b70da	-0.00053192454
25	0x3a08828d	0.0005207442
26	0x3a089547	0.00052102323
27	0xba0a1146	-0.0005266856
28	0xb9f2982d	-0.00046271217
29	0xba0da753	-0.00054036564
30	0x39d8a23b	0.00041319602
31	0xb9e98e49	-0.00044547234

model.1.weight f4 [32]
0	0xb99c3c65	-0.00029799636
1	0xb956f263	-0.00020498926
2	0x3950fb9e	0.0001993016
3	0xb94f8020	-0.00019788789
4	0xb934ac1c	-0.00017230253
5	0xb97275f2	-0.00023122857
6	0xb8c5901d	-9.420535e-05
7	0xb95af87f	-0.00020882672
8	0xb9567adc	-0.00020454399
9	0xb892fabf	-7.0085276e-05
10	0xb94bf25e	-0.00019449877
11	0xb982afd2	-0.0002492653
12	0xb9695663	-0.00022252793
13	0xb923c4f1	-0.00015618258
14	0xb94128ca	-0.0001842111
15	0xb95a65aa	-0.00020827973
16	0xb9169521	-0.0001436067
17	0xb94cf5d8	-0.0001954654
18	0xb9812585	-0.00024632752
19	0xb9146543	-0.00014152103
20	0xb920a936	-0.00015321825
21	0xb93eca4f	-0.00018195178
22	0xb948d33f	-0.00019152182
23	0xb8f7a70b	-0.00011808992
24	0xb946a0d7	-0.00018942669
25	0xb9222675	-0.0001546385
26	0xb9810b64	-0.00024613284
27	0xb9834848	-0.0002504012
28	0xb96f654b	-0.00022830551
29	0xb912be55	-0.00013994549
30	0xb939bbbf	-0.00017712916
31	0xb978b0b0	-0.00023716944

model.1.bias f4 [32]
0	0x3a06d61b	0.00051435985
1	0xba066335	-0.00051264773
2	0xba103e40	-0.000550244
3	0xba08a28b	-0.0005212209
4	0x3a07a1e1	0.0005173963
5	0xba091245	-0.00052288576
6	0xba0b695f	-0.0005318131
7	0xba08c4df	-0.00052173244
8	0xba035cc5	-0.0005011077
9	0x3a0a9e2d	0.0005287852
10	0x3a057dd2	0.0005092296
11	0x39fb13b7	0.0004788914
12	0x3a0c8c9e	0.000536153
13	0x3a0daeda	0.0005404778
14	0x3a067cd3	0.00051302946
15	0xba08d623	-0.0005219897
16	0xba0a7b2f	-0.0005282638
17	0x3a0789b6	0.0005170362
18	0x3a01859a	0.00049408677
19	0x3a042dc4	0.000504222
20	0xba0b13a5	-0.00053053565
21	0xba07fa46	-0.0005187135
22	0x3a05a3f0	0.0005097976
23	0xba0925fc	-0.00052317954
24	0x3a093d85	0.00052353024
25	0x3a01fe55	0.0004958858
26	0xba0408c7	-0.00050367083
27	0x3a0358b7	0.0005010473
28	0xba04e688	-0.0005069752
29	0xba0b8ed4	-0.0005323712
30	0xba087a1a	-0.0005206183
31	0x3a0fb348	0.0005481732

model.1.running_mean f4 [32]
0	0x3a66dfb6	0.0008807139
1	0x3aab46bc	0.0013067345
2	0x3a4ba19e	0.0007767918
3	0x3986a1a4	0.00025678903
4	0x39b219cc	0.00033970026
5	0xba477315	-0.0007608396
6	0xb991bf30	-0.00027799
7	0xb9666e21	-0.00021975535
8	0x3af474c0	0.0018650517
9	0xba264127	-0.0006342106
10	0xbaf52253	-0.0018702246
11	0x39778fec	0.0002360937
12	0xbab496cb	-0.001377785
13	0xb9857fb7	-0.00025462892
14	0x39868126	0.00025654695
15	0x3996d717	0.00028770484
16	0x3aa7b4c8	0.0012794966
17	0xbaf2dc46	-0.0018528781
18	0xb962ff53	-0.00021648155
19	0xba699411	-0.0008910308
20	0x39532dfd	0.0002013966
21	0xba63a465	-0.00086838595
22	0xbaae5090	-0.0013299156
23	0x399a93d3	0.00029483307
24	0xb9509083	-0.0001989026
25	0x396a3bb8	0.00022338226
26	0x3957bdfd	0.00020574774
27	0xbae799b4	-0.0017669708
28	0xba5e5a98	-0.00084821275
29	0xbaa93004	-0.0012907987
30	0x3ab0afe6	0.0013480156
31	0xb93f5130	-0.00018245424

model.1.running_var f4 [32]
0	0x3411d071	1.3580008e-07
1	0x351f39f1	5.931643e-07
2	0x334d8a44	4.7856034e-08
3	0x336c5efe	5.5034427e-08
4	0x32ebdf49	2.7459139e-08
5	0x339cb270	7.296774e-08
6	0x3384ed6a	6.1899144e-08
7	0x33c11d71	8.992618e-08
8	0x35d0f14f	1.5567438e-06
9	0x3318858c	3.5511718e-08
10	0x35db8c1f	1.6357552e-06
11	0x33de787f	1.0359599e-07
12	0x3529c1d7	6.323948e-07
13	0x35085d05	5.079931e-07
14	0x33baee82	8.704684e-08
15	0x351d5a60	5.861857e-07
16	0x351a8db2	5.7575664e-07
17	0x35d2e4ae	1.5712774e-06
18	0x351ebd2f	5.9134885e-07
19	0x33f34bee	1.1329381e-07
20	0x33f8bfe2	1.1583303e-07
21	0x34045026	1.2322616e-07
22	0x351e0188	5.8861815e-07
23	0x333c5522	4.384959e-08
24	0x33c743a8	9.278966e-08
25	0x33afd116	8.187105e-08
26	0x33c3dbb1	9.120357e-08
27	0x35c1eeac	1.4449083e-06
28	0x33f40a9b	1.13640645e-07
29	0x351c7392	5.8282706e-07
30	0x35165f82	5.6018337e-07
31	0x340d95c1	1.3186128e-07

model.4.weight f4 [16, 32]
0	0xba0c1d32	-0.00053449266
1	0xba0b4622	-0.000531288
2	0xba0767ae	-0.0005165291
3	0xba0dba1d	-0.0005406456
4	0xba083be4	-0.00051969127
5	0x3a0c753b	0.0005358045
6	0x3a0b315b	0.0005309784
7	0x3a0cd27a	0.00053719396
8	0xba0a03a5	-0.00052648253
9	0xba0d804b	-0.000539784
10	0x3a05e8f0	0.0005108258
11	0xba0b646c	-0.0005317393
12	0x3a09c006	0.0005254749
13	0x3a06822d	0.0005131092
14	0x3a0c458f	0.0005350941
15	0x3a0bbff6	0.00053310336
16	0x397bfcc5	0.0002403139
17	0xba0b686d	-0.000531799
18	0x3a0ba487	0.00053269457
19	0xba0cb3ae	-0.00053673505
20	0xba0e439d	-0.0005426945
21	0xba0d27a3	-0.00053846295
22	0xba094ab3	-0.00052372663
23	0x39b1db92	0.00033923663
24	0x3a0b6085	0.0005316812
25	0xba07d1ed	-0.00051811227
26	0xba0c7211	-0.00053575734
27	0xba08ab0f	-0.0005213478
28	0x3a06997d	0.0005134566
29	0xba03d4ef	-0.0005028983
30	0x3a0db6c4	0.00054059573
31	0xba0e909c	-0.00054384186
32	0xba0492d6	-0.00050572807
33	0xba0bcee0	-0.0005333256
34	0xba0ab98b	-0.000529193
35	0xba0b1b97	-0.00053065404
36	0xba0cecd1	-0.00053758646
37	0xba0b5580	-0.00053151697
38	0x3a0be58f	0.0005336636
39	0x3a0d501c	0.00053906604
40	0x3a0da36e	0.0005403076
41	0x3a0b8ae3	0.0005323125
42	0xba08ce95	-0.00052187714
43	0x3a0ee053	0.0005450297
44	0x3a0adc2b	0.000529709
45	0xba0a620f	-0.0005278894
46	0xba023414	-0.00049668667
47	0x3a0cefec	0.00053763273
48	0x3a0b5ddb	0.0005316415
49	0xba0a6ca2	-0.000528047
50	0xba0dc18a	-0.0005407563
51	0x3a0a17af	0.00052678114
52	0x3a0ab4cb	0.00052912225
53	0x3a03b520	0.0005024243
54	0x3a099fbe	0.00052499387
55	0xba0c0562	-0.0005341378
56	0x3a07a19a	0.0005173922
57	0x3a096386	0.00052409654
58	0x3a0bdd81	0.0005335436
59	0xba08ee56	-0.0005223503
60	0xba0bc64f	-0.00053319795
61	0xba0dcd0b	-0.0005409277
62	0xba0b8599	-0.0005322337
63	0x3a0bda93	0.00053349993
64	0x3a03946a	0.0005019369
65	0x3a0a7c30	0.00052827876
66	0x3a0a1c18	0.00052684685
67	0xba0c326e	-0.0005348091
68	0x3a08e656	0.0005222311
69	0x3a0b23c6	0.000530776
70	0x3a096b31	0.0005242108
71	0xba0a9602	-0.0005286635
72	0x3a0bd455	0.0005334069
73	0x3a0dd58f	0.0005410546
74	0xba0bbcef	-0.00053305825
75	0x3a0cfdde	0.00053784053
76	0x3a0e6acf	0.0005432786
77	0xba0cec4f	-0.0005375789
78	0x3a0d85da	0.00053986686
79	0x3a0a5d98	0.0005278229
80	0x3a0c8a04	0.0005361142
81	0xba0d8390	-0.00053983275
82	0xba09e0c3	-0.00052596274
83	0xba08d408	-0.00052195834
84	0x3a051d51	0.0005077916
85	0x3a0c30d3	0.00053478515
86	0x3a0a98c8	0.00052870484
87	0xba0cb6fa	-0.0005367842
88	0xba0a28da	-0.00052703696
89	0xba05fe72	-0.00051114627
90	0x3a0c1673	0.00053439214
91	0xba099654	-0.0005248536
92	0x3a0b105b	0.00053048664
93	0x3a073a8b	0.0005158565
94	0xba0d6bd6	-0.0005394792
95	0x3a0bb8d1	0.0005329969
96	0xba0e5a73	-0.0005430348
97	0x3a0a3179	0.0005271654
98	0x3a074f3a	0.0005161647
99	0xba0c5018	-0.0005352511
100	0x3a0c8ad3	0.00053612626
101	0xba07d98a	-0.0005182257
102	0x3a0d02de	0.00053791504
103	0x3a0546c0	0.000508409
104	0x3a0ae40a	0.00052982627
105	0xba08aa46	-0.0005213361
106	0x3a0b2e3a	0.00053093175
107	0x3a0ce0ff	0.0005374103
108	0x3a0e7007	0.00054335635
109	0x3a0db3b9	0.0005405504
110	0xba0d9283	-0.0005400555
111	0x3a0d3a47	0.0005387407
112	0xba0b7fea	-0.000532149
113	0x3a084ac2	0.0005199128
114	0xba0bb8d3	-0.000532997
115	0xba0b7dec	-0.0005321193
116	0x3a0b6e39	0.00053188537
117	0x3a097b83	0.000524454
118	0xba012ccb	-0.0004927634
119	0xba0d3527	-0.00053866435
120	0xb95065fc	-0.00019874418
121	0xba0d9b16	-0.0005401833
122	0xba0aea14	-0.00052991626
123	0x3a09aaa2	0.00052515615
124	0x3a0c1ce9	0.0005344884
125	0x3a0c2b83	0.000534706
126	0x3a0aef1b	0.0005299912
127	0x3a0f6019	0.0005469337
128	0x3a0b4026	0.0005311988
129	0xba0bd4e8	-0.00053341547
130	0x3a057929	0.00050916016
131	0x3a0dc9bd	0.00054087845
132	0x3a0befea	0.0005338179
133	0x3a0b995c	0.00053252815
134	0xba0b097e	-0.00053038436
135	0x3a0ab501	0.0005291254
136	0xba0c1dd1	-0.0005345019
137	0x3a0ce6e2	0.00053749804
138	0xba06efc5	-0.0005147423
139	0xba08b8cd	-0.0005215526
140	0xba07d253	-0.0005181182
141	0x3a0dcc4b	0.0005409165
142	0xba081a60	-0.00051919185
143	0xba0da972	-0.00054039725
144	0xba0b0cd0	-0.00053043384
145	0xba070f82	-0.0005152152
146	0xba027ac4	-0.00049774
147	0xba0a8f88	-0.000528567
148	0x3a0bb568	0.0005329461
149	0x3a0c9aea	0.000536366
150	0xba0c6545	-0.00053556665
151	0x3a0bc3cb	0.00053316046
152	0x3a08477c	0.000519864
153	0x3a0d165d	0.00053820555
154	0x3a0b6df7	0.0005318815
155	0x3a0c7cec	0.0005359191
156	0x3a0df9de	0.0005415956
157	0x3a0c5350	0.00053529907
158	0x3a0ca9bc	0.00053658686
159	0xba0be6ec	-0.0005336839
160	0x3a0e5ebb	0.0005430986
161	0xba0d326f	-0.00053862383
162	0x3a0a0b2a	0.0005265946
163	0xba0bfa15	-0.00053396943
164	0x3a0d497d	0.0005389674
165	0xba0b2195	-0.00053074333
166	0xba0a9dc9	-0.0005287794
167	0xba0cbe58	-0.00053689396
168	0xba07901f	-0.0005171317
169	0x3a03ea67	0.0005032182
170	0x3a09ec46	0.0005261343
171	0xba048259	-0.00050548237
172	0x3a087335	0.00052051555
173	0xba0bf652	-0.0005339134
174	0xba0b7af2	-0.00053207495
175	0xba06f5c9	-0.0005148319
176	0xba0809f2	-0.000518947
177	0x3a0c1c1c	0.0005344765
178	0xba073a10	-0.00051584933
179	0x3a0a724c	0.0005281314
180	0x3a090bf5	0.0005227917
181	0x3a0a5817	0.00052774086
182	0x3a04067d	0.0005036367
183	0x3a08a3bc	0.00052123866
184	0x3a0dbbd5	0.00054067123
185	0x3a0cf943	0.0005377719
186	0x3a093a57	0.00052348286
187	0xba073958	-0.0005158386
188	0x3a0886ae	0.0005208057
189	0xba0d0d95	-0.0005380747
190	0xba0acda3	-0.00052949245
191	0x3a08f6ed	0.0005224783
192	0x3a09f579	0.00052627135
193	0xba06cba2	-0.0005142038
194	0x3a0cec50	0.00053757895
195	0xba0a4446	-0.0005274456
196	0xba0d7977	-0.0005396823
197	0x3a0cf0ef	0.0005376478
198	0xba0c7901	-0.0005358607
199	0x3a0ce554	0.0005374749
200	0xba0dc246	-0.0005407672
201	0x3a0d6b32	0.00053946965
202	0x3a0942d8	0.0005236096
203	0x3a08a81c	0.00052130385
204	0x3a0de5d2	0.0005412969
205	0x3a0c039a	0.0005341113
206	0xba0d5cfc	-0.0005392579
207	0xba06ac8e	-0.0005137407
208	0xba09def1	-0.0005259356
209	0x3a0c9445	0.000536267
210	0xba0949cb	-0.0005237131
211	0x3a0796bf	0.0005172304
212	0xba0cf459	-0.0005376987
213	0x3a0964d4	0.000524116
214	0xba01f38e	-0.0004957252
215	0xba083588	-0.0005195965
216	0x3a0b5848	0.0005315584
217	0x3a0a6b94	0.00052803126
218	0xba0b0c52	-0.0005304265
219	0xba0bf2f4	-0.0005338632
220	0x3a0af214	0.00053003547
221	0xba09d83a	-0.00052583555
222	0x3a0da2ad	0.0005402964
223	0x3a0bef67	0.0005338103
224	0x3a0cfc7c	0.0005378199
225	0xba0dd342	-0.0005410203
226	0x3a0dcf02	0.000540957
227	0x3a0a8795	0.00052844855
228	0xba094dcf	-0.00052377296
229	0x3a08002d	0.00051880145
230	0xba09bcef	-0.00052542886
231	0x3a08d3c8	0.0005219546
232	0x3a0cb6af	0.0005367798
233	0x3a0be13e	0.0005335993
234	0x3a0b7870	0.0005320376
235	0x3a09225e	0.00052312564
236	0x3a0bf3f0	0.0005338779
237	0xba0b1e3d	-0.0005306935
238	0xba0a6442	-0.0005279222
239	0xba0d8736	-0.0005398871
240	0xba0b98a9	-0.00053251773
241	0xba0d22b1	-0.00053838926
242	0x3a05da30	0.000510606
243	0xba0cf95a	-0.00053777325
244	0x3a0d1f43	0.00053833815
245	0x3a071e12	0.0005154322
246	0x3a0c3419	0.00053483393
247	0xba06ac32	-0.00051373534
248	0x3a03b090	0.0005023563
249	0x3a025b69	0.00049727276
250	0x3a0b4fbb	0.000531431
251	0x3a0796e9	0.00051723287
252	0x3a0340c4	0.0005006904
253	0xba074327	-0.0005159848
254	0x3a0bf994	0.0005339619
255	0xb9c657be	-0.00037830876

model.4.bias f4 [16]
0	0x3a0d14c1	0.0005381816
1	0x3a0cd706	0.0005372617
2	0xba0c1d92	-0.00053449825
3	0x3a06ad98	0.0005137562
4	0x3a0a7ae3	0.0005282594
5	0xba0d7312	-0.000539587
6	0x3a0b9fa1	0.0005326216
7	0x3a0ade6b	0.0005297425
8	0xba051af3	-0.0005077563
9	0xba0dbef1	-0.00054071756
10	0xba0397fd	-0.00050199014
11	0xba0d3123	-0.0005386045
12	0xba0a01ae	-0.00052645325
13	0x3a0d8c8b	0.00053996657
14	0x3a07b4c4	0.00051767775
15	0x3a0666e5	0.0005127027

model.5.weight f4 [16]
0	0xb9868f28	-0.0002566513
1	0xb933f208	-0.00017160934
2	0xb94eb08a	-0.00019711457
3	0xb97c4529	-0.00024058357
4	0xb943e720	-0.0001868275
5	0xb91f86a8	-0.00015213585
6	0xb957f765	-0.0002059616
7	0xb96635b6	-0.00021954518
8	0xb897a67a	-7.23125e-05
9	0xb9706e08	-0.00022929173
10	0xb95298c5	-0.00020084072
11	0xb924107a	-0.00015646397
12	0xb9795400	-0.00023777783
13	0x3941387f	0.00018426961
14	0xb9498ed6	-0.00019222064
15	0xb92ea128	-0.00016653968

model.5.bias f4 [16]
0	0x3a06aa9e	0.0005137118
1	0xba08e8bc	-0.00052226684
2	0x3a06dfcf	0.00051450444
3	0x3a0e6c64	0.00054330216
4	0xba06c9db	-0.0005141773
5	0xba09896a	-0.00052466115
6	0x3a06dd79	0.00051446963
7	0x3a03c67f	0.00050268316
8	0x3a090c36	0.0005227955
9	0x3a078134	0.0005169094
10	0xba0643a2	-0.00051217724
11	0xba097230	-0.00052431505
12	0x3a0bdba8	0.00053351605
13	0x3a0e5b6a	0.0005430492
14	0x3a0ac5ae	0.0005293739
15	0x3a09f2a9	0.00052622944

model.5.running_mean f4 [16]
0	0x3a012444	0.00049263635
1	0x3a01ec85	0.00049562036
2	0xba0369a8	-0.00050129974
3	0x3a0ac9e4	0.0005294366
4	0x3a05fcc1	0.00051112106
5	0xba003979	-0.00048913766
6	0x3a04b139	0.00050618086
7	0x3a05dbf8	0.0005106325
8	0xba0c1ed7	-0.00053451717
9	0xba001eb1	-0.0004887386
10	0xba0e0c2f	-0.00054186856
11	0xba01780f	-0.00049388496
12	0xba07aafa	-0.0005175319
13	0x3a0077e5	0.0004900678
14	0x3a097f67	0.00052451197
15	0x3a0ba40b	0.00053268735

model.5.running_var f4 [16]
0	0x2adb858c	3.8994882e-13
1	0x2b0dd28e	5.0385466e-13
2	0x2b066d69	4.77582e-13
3	0x2b0062cd	4.561185e-13
4	0x2b0ef381	5.0786464e-13
5	0x2ae94a4e	4.1440674e-13
6	0x2ae76e54	4.1110399e-13
7	0x2b067e0e	4.77813e-13
8	0x2b556166	7.580797e-13
9	0x2b0e44c1	5.054395e-13
10	0x2adf625d	3.968101e-13
11	0x2af448d2	4.3393636e-13
12	0x2b3b7a82	6.660576e-13
13	0x2ae870ff	4.1289885e-13
14	0x2ad4b390	3.7783362e-13
15	0x2ae29b12	4.0253266e-13

model.8.weight f4 [16, 16]
0	0x3a08df78	0.0005221288
1	0xba0cd7e3	-0.0005372746
2	0xba0cd344	-0.0005372057
3	0xba0d80a2	-0.0005397891
4	0xba0e5a12	-0.00054302916
5	0x3a0bee37	0.0005337926
6	0xba07d70e	-0.0005181887
7	0xba023ed8	-0.0004968471
8	0xba065459	-0.0005124263
9	0x3a0ba070	0.0005326336
10	0x3a0d8760	0.00053988956
11	0x3a00e253	0.00049165374
12	0x3a0dd2c0	0.00054101273
13	0x3a0d01a1	0.0005378966
14	0x3a060074	0.0005111762
15	0xba0cb9d0	-0.00053682644
16	0x3a0a6fed	0.00052809605
17	0x3a0b7b22	0.00053207774
18	0xba078d96	-0.0005170939
19	0x3a084055	0.00051975745
20	0xba029641	-0.0004981496
21	0x3a09bc9d	0.0005254241
22	0x3a05b694	0.00051007536
23	0x3a0ba0f4	0.0005326413
24	0x3a0bee70	0.0005337959
25	0xba0e8471	-0.00054366054
26	0xba0a9107	-0.0005285893
27	0x3a0c6c7e	0.0005356743
28	0x3a0a52e0	0.00052766316
29	0x3a0b0507	0.00053031783
30	0xba04a7da	-0.0005060412
31	0x3a0a62ed	0.00052790233
32	0x3a045790	0.0005048448
33	0x3a0e5b5b	0.0005430483
34	0xba0bdfdc	-0.0005335787
35	0xba0df391	-0.00054150174
36	0x3a09cacc	0.00052563543
37	0x3a0db2fc	0.0005405394
38	0x3a099ce4	0.0005249514
39	0x3a047821	0.0005053301
40	0x3a0ac6a2	0.0005293881
41	0x3a085a89	0.0005201479
42	0x39fa7384	0.00047769782
43	0xb9fa82ef	-0.0004778127
44	0xba0a7419	-0.0005281582
45	0x3a0377fd	0.0005015133
46	0xba0d1468	-0.0005381764
47	0xba0d80e5	-0.000539793
48	0xba08231c	-0.000519322
49	0x3a0b9788	0.0005325009
50	0x3a0d039a	0.000537926
51	0x3a0374c7	0.00050146546
52	0xba05bb4a	-0.00051014556
53	0xba077d92	-0.0005168553
54	0x3a097d63	0.00052448193
55	0xba0d76e4	-0.0005396439
56	0x3a035a5d	0.00050107186
57	0xba0a7998	-0.0005282401
58	0x3a02b5f9	0.00049862225
59	0x3a09a6b6	0.0005250977
60	0x39ff3fd1	0.00048684937
61	0x3a05ea0f	0.0005108425
62	0x3a0cdf53	0.0005373854
63	0x3a0d1a71	0.0005382663
64	0x3a0c9818	0.000536324
65	0xba0a97a1	-0.00052868767
66	0x3a0a28d3	0.00052703655
67	0xba0dc914	-0.0005408686
68	0x3a0b30f5	0.00053097244
69	0xba0d41a2	-0.0005388503
70	0x3a0b0644	0.0005303363
71	0x3a0bd9b2	0.00053348683
72	0xba09a0ef	-0.0005250116
73	0x3a0c8115	0.0005359811
74	0xba0d6213	-0.00053933373
75	0xba0804d6	-0.0005188709
76	0x3a0dbdf7	0.000540703
77	0x3a073593	0.00051578245
78	0xba09cf73	-0.00052570476
79	0xba0dbf78	-0.0005407254
80	0xba09d60a	-0.00052580296
81	0x3a0814b9	0.0005191076
82	0x3a02f58c	0.0004995696
83	0x3a067e18	0.0005130484
84	0xba085bf3	-0.000520169
85	0xb9ffe075	-0.00048804624
86	0x3a062442	0.0005117097
87	0xba0a3059	-0.00052714866
88	0xba0c1153	-0.00053431577
89	0xba0eb5e5	-0.00054439745
90	0xba084130	-0.0005197702
91	0x3a0af611	0.0005300949
92	0x3a07775e	0.00051676284
93	0x39fae6c4	0.0004785565
94	0xba0fc073	-0.0005483694
95	0xba080d6d	-0.0005189989
96	0x3a0ad543	0.00052960607
97	0x3a0ae55f	0.0005298461
98	0xba0a539c	-0.0005276741
99	0x3a0b6b6e	0.00053184375
100	0x3a091918	0.00052298745
101	0x3a0d5892	0.0005391921
102	0xba055a6f	-0.0005087023
103	0x3a0b9a89	0.0005325457
104	0xba0afd47	-0.00053020235
105	0x3a0c1213	0.00053432694
106	0xba076f67	-0.00051664416
107	0xba0cecbf	-0.0005375854
108	0xba0bdd88	-0.000533544
109	0x3a0b75f7	0.00053200073
110	0x3a068986	0.0005132187
111	0x3a0c4e7b	0.00053522707
112	0x3a0d2c33	0.00053853093
113	0xba09c788	-0.0005255868
114	0xba0e3a62	-0.000542557
115	0xba0ea2a0	-0.0005441103
116	0xba0bb2fe	-0.0005329101
117	0xba0bc250	-0.0005331384
118	0x3a089367	0.0005209953
119	0x3a0ce2eb	0.00053743896
120	0x3a0a95fc	0.00052866316
121	0xba0b614e	-0.0005316929
122	0x3a0ba9f3	0.00053277536
123	0x3a09e590	0.0005260343
124	0xba08a206	-0.00052121317
125	0xba085ad7	-0.00052015245
126	0xba078a9d	-0.00051704963
127	0xba0e5066	-0.00054288504
128	0x3a0ce0e1	0.0005374086
129	0xba0b969e	-0.0005324873
130	0xba07d005	-0.00051808386
131	0xba012210	-0.0004926035
132	0x3a0de6d6	0.00054131204
133	0x3a0a94db	0.00052864634
134	0xba08c656	-0.00052175426
135	0x3a05b3e1	0.00051003514
136	0xba08ebd1	-0.00052231277
137	0xba0ccd48	-0.00053711655
138	0xba09dc4e	-0.0005258963
139	0x39fff9b7	0.00048823442
140	0x3a070732	0.00051509135
141	0x3a09dff1	0.0005259505
142	0x3a0d6f93	0.0005395349
143	0xba0b144e	-0.0005305455
144	0xba0c4686	-0.0005351085
145	0x3a0dfed7	0.0005416697
146	0x3a096f18	0.00052426895
147	0x3a0af2a1	0.0005300437
148	0x3a09f47e	0.00052625674
149	0xba0e1a5c	-0.0005420798
150	0x3a0d2060	0.00053835474
151	0x3a0c3de6	0.00053498
152	0xba040e33	-0.0005037516
153	0xba0a2a54	-0.00052705896
154	0xba0b556d	-0.00053151586
155	0x3a0972f3	0.0005243264
156	0x3a040905	0.00050367444
157	0x3a0a086a	0.0005265536
158	0xba035ee4	-0.0005011393
159	0xba0c9f75	-0.0005364337
160	0x3a0c3bb9	0.00053494755
161	0x3a02bd1d	0.00049872865
162	0x3a053720	0.00050817616
163	0xba09da2b	-0.0005258645
164	0x3a08e61a	0.0005222276
165	0xba0962a5	-0.00052408344
166	0xba093344	-0.00052337744
167	0xba051f94	-0.0005078253
168	0x3a0a5983	0.00052776205
169	0xba001f26	-0.0004887454
170	0x3a07355b	0.0005157792
171	0xba004145	-0.00048925384
172	0x3a0e9e4c	0.0005440458
173	0xb9e5a962	-0.00043804484
174	0x3a0bb077	0.00053287245
175	0x3a08616a	0.0005202504
176	0x3a019245	0.00049427553
177	0xba0d7780	-0.000539653
178	0xba0d85b1	-0.0005398645
179	0xba0dd307	-0.00054101687
180	0x3a07b1c4	0.00051763305
181	0x3a0be5ef	0.0005336692
182	0xb9fcf403	-0.00048246988
183	0xba084876	-0.0005198786
184	0xba0334d5	-0.0005005126
185	0x3a0ae002	0.0005297662
186	0xba03ec6c	-0.0005032483
187	0xba0b47f3	-0.00053131505
188	0xba0c0ed9	-0.00053427886
189	0x3a05f9a2	0.00051107456
190	0x3a0d3fa8	0.00053882087
191	0x3a09e9fc	0.00052610016
192	0x3a0cb2b6	0.0005367206
193	0xba017a42	-0.00049391773
194	0xba074b31	-0.00051610457
195	0x39f2f852	0.0004634285
196	0x3a06eb37	0.0005146744
197	0x3a098dde	0.0005247275
198	0xba0c14e2	-0.0005343688
199	0xba0b9c99	-0.0005325764
200	0x3a071b36	0.0005153896
201	0xba029ec0	-0.0004982762
202	0x3a00d09f	0.00049138995
203	0x3a05d46c	0.00051052007
204	0x3a0e459e	0.0005427244
205	0x3a027362	0.00049763
206	0x3a0bc2ad	0.0005331438
207	0xba02b8ea	-0.0004986661
208	0x3a04717b	0.00050523103
209	0xba0cb7cf	-0.0005367966
210	0x3a0bfc77	0.00053400494
211	0xba0ce98e	-0.00053753785
212	0x3a0da9f7	0.000540405
213	0xba0a6f31	-0.0005280851
214	0xba03e03f	-0.00050306687
215	0x3a051e1b	0.00050780334
216	0xba0d9666	-0.0005401134
217	0x3a0a0954	0.0005265672
218	0xba09ae32	-0.00052520924
219	0x3a090b59	0.0005227826
220	0xba031f2f	-0.00050019
221	0xba0e28c9	-0.00054229476
222	0x3a0cb4ac	0.00053674984
223	0x3a0b76cd	0.0005320132
224	0x3a095dd5	0.00052401173
225	0x3a0d1420	0.0005381722
226	0x3a0b1c70	0.0005306667
227	0x3a0a84f7	0.00052840955
228	0x3a0c72a7	0.00053576607
229	0x3a0900ae	0.00052262365
230	0xba0402b0	-0.0005035801
231	0xba07eb75	-0.0005184927
232	0xba083c19	-0.00051969435
233	0xba028407	-0.000497878
234	0x3a0db3c4	0.00054055103
235	0xba0bd282	-0.00053337973
236	0xba0e6d19	-0.0005433127
237	0x3a06d35e	0.00051431905
238	0x3a0cbd7d	0.0005368812
239	0x3a0a5f1a	0.00052784535
240	0x3a052827	0.00050795305
241	0xba0cef6e	-0.0005376254
242	0xb9fa150c	-0.00047699397
243	0xba08f6e6	-0.0005224779
244	0xba0a434f	-0.0005274312
245	0x3a0c6f4a	0.00053571595
246	0x3a0be7a3	0.0005336946
247	0xba06fb94	-0.00051491824
248	0x3a0dd534	0.0005410493
249	0xba0682e0	-0.0005131196
250	0x3a0c091e	0.0005341935
251	0xba0a5d74	-0.0005278208
252	0x3a0578e0	0.0005091559
253	0x3a0c3030	0.00053477567
254	0x3a0d128f	0.00053814886
255	0xba084974	-0.00051989336

model.8.bias f4 [16]
0	0x3a09e7ea	0.0005260693
1	0xba0301b3	-0.00049975066
2	0xba0811fb	-0.00051906676
3	0xba068f2b	-0.0005133028
4	0x3a0dc6ec	0.0005408365
5	0xba0d3572	-0.0005386687
6	0xba0bae4b	-0.0005328401
7	0x3a068217	0.0005131079
8	0xba0bc341	-0.00053315243
9	0xba0dc6a1	-0.0005408321
10	0xba0becb1	-0.0005337699
11	0x3a0a5fa3	0.0005278533
12	0x3a0ad737	0.0005296352
13	0x3a0ca165	0.0005364626
14	0xba0a83ff	-0.0005283951
15	0x3a0259b5	0.0004972474

model.9.weight f4 [16]
0	0xb9b10569	-0.00033764102
1	0xb9530958	-0.00020126009
2	0xb8821eaf	-6.204598e-05
3	0xb91591be	-0.0001426404
4	0xb9ba0cb3	-0.00035486146
5	0xb9581cd9	-0.00020610112
6	0xb8333ca8	-4.2733416e-05
7	0xb924b6c6	-0.00015708347
8	0x38543d44	5.0601797e-05
9	0xb8ecc1dc	-0.00011289466
10	0xb966d4ac	-0.00022013736
11	0xb9b3c33a	-0.00034286996
12	0xb9acf8c9	-0.00032991756
13	0xb8d85ed7	-0.00010317348
14	0xb8e361b1	-0.000108424
15	0xb929d323	-0.0001619575

model.9.bias f4 [16]
0	0x3a0f1ce9	0.0005459325
1	0x3a167fd8	0.0005741096
2	0xb9e19261	-0.00043024405
3	0xb9ed6422	-0.00045278767
4	0x3a14e0f5	0.0005679273
5	0x3a15e3ae	0.0005717826
6	0xb9d6d67b	-0.0004097706
7	0x3a091b46	0.00052301993
8	0x3a0e0292	0.0005417253
9	0xba0dadcd	-0.00054046215
10	0x3a0feee6	0.0005490616
11	0xba069744	-0.00051342347
12	0x3a1afa36	0.0005911918
13	0xb9ed66b0	-0.0004528067
14	0x3a0c06af	0.0005341572
15	0xb9d7486f	-0.00041061963

model.9.running_mean f4 [16]
0	0x3a07132b	0.00051526976
1	0xba0d9930	-0.000540155
2	0xba0938e9	-0.00052346155
3	0xba0a985c	-0.00052869855
4	0x39ffff85	0.00048827767
5	0xba012ee9	-0.00049279496
6	0xba03fde4	-0.0005035086
7	0x3a0acb6e	0.00052945956
8	0xba041cfe	-0.00050397206
9	0xb9ff74e9	-0.00048724495
10	0xba03b0f2	-0.00050236203
11	0x3a064074	0.00051212986
12	0x3a05a4d1	0.0005098107
13	0x3a02784b	0.00049770315
14	0xba060b09	-0.00051133387
15	0x3a0e729a	0.0005433947

model.9.running_var f4 [16]
0	0x2a951224	2.6480304e-13
1	0x2a93e335	2.6270102e-13
2	0x2a971640	2.6838427e-13
3	0x2a8f19bc	2.541976e-13
4	0x2a8b352c	2.4728255e-13
5	0x2a94cac5	2.643078e-13
6	0x2a942ce0	2.632122e-13
7	0x2a8b2e07	2.4723298e-13
8	0x2a8a27c3	2.4541315e-13
9	0x2a8eaf2b	2.5345814e-13
10	0x2aa27b3a	2.8862486e-13
11	0x2a925202	2.5991714e-13
12	0x2a981be9	2.701999e-13
13	0x2a9216e2	2.5950688e-13
14	0x2a8dc992	2.51865e-13
15	0x2a9b12e2	2.7546634e-13

model.12.weight f4 [1, 16]
0	0xba090b6c	-0.0005227837
1	0x39da03dd	0.0004158308
2	0x39e13b38	0.00042959466
3	0x39f7a568	0.00047234748
4	0xba0c6235	-0.000535521
5	0x39fc9ca7	0.000481819
6	0x39d99369	0.00041499294
7	0xba0efdcf	-0.00054546905
8	0x3999d486	0.00029340776
9	0xba0646cc	-0.0005122244
10	0xba12784a	-0.00055873825
11	0xba169a8c	-0.0005745075
12	0xba017b90	-0.0004939372
13	0x39efb307	0.00045719018
14	0x39e0d401	0.00042882565
15	0x39dcdcec	0.0004212627
