examples/models/gibbsphen_mlp_filter_16_colab.pth (torch, 4698 bytes, 7 tensors)

model.0.weight f4 [16, 5]
000000 95 26 d1 b2 1c b8 68 b2 81 d1 d4 32 7d 8b 10 32
       -2.4348347e-08 -1.3546039e-08 2.477532e-08 8.413619e-09
000010 ba fe cc 31 64 f6 a3 b2 e0 3f 32 b3 71 56 e6 31
       5.9661405e-09 -1.9087743e-08 -4.150195e-08 6.7037083e-09
000020 78 1e a9 32 70 cb a2 31 70 c1 22 32 32 52 06 32
       1.9688045e-08 4.7379487e-09 9.473624e-09 7.818516e-09
000030 d0 84 27 b3 7f d9 a5 b2 2e f4 b0 32 c0 04 8a b3
       -3.900351e-08 -1.9307434e-08 2.0600137e-08 -6.42699e-08
000040 40 1e 0b b3 22 62 21 2e d4 f6 e2 b2 73 a7 31 33
       -3.239097e-08 3.669432e-11 -2.6422107e-08 4.1363318e-08
000050 3d 8d 1b 33 1d 9a 7c b3 b6 15 0c b3 89 f7 f0 31
       3.6217205e-08 -5.8813487e-08 -3.2616036e-08 7.013061e-09
000060 dd 1a 12 b2 64 14 04 33 8e 17 de 32 a2 2b df 32
       -8.5044265e-09 3.075219e-08 2.5854913e-08 2.5980459e-08
000070 e0 47 a6 32 2c 59 2a b3 82 2d 8c ae ef 9e 0a 33
       1.9357628e-08 -3.966231e-08 -6.374547e-11 3.2275178e-08
000080 fe e3 02 33 b3 5f 16 b3 3c 53 66 b3 42 06 b7 b2
       3.047534e-08 -3.5011634e-08 -5.362675e-08 -2.130685e-08
000090 5f 11 c6 32 37 88 3a b3 44 42 5d 33 46 8c 91 31
       2.3058133e-08 -4.3430386e-08 5.151584e-08 4.2360027e-09
0000a0 cf 9c af b2 72 27 16 32 e8 eb 01 b3 be e8 fd b2
       -2.044399e-08 8.740118e-09 -3.024971e-08 -2.9558915e-08
0000b0 a2 82 69 32 1a 11 8b b3 78 9e 4f b3 a3 15 2d 33
       1.35920875e-08 -6.475803e-08 -4.834007e-08 4.029938e-08
0000c0 0b ed 56 32 92 fc e4 32 3f 32 e0 32 ea 25 36 32
       1.2510337e-08 2.6657549e-08 2.6099881e-08 1.0602415e-08
0000d0 48 b0 25 32 e2 2b 48 b2 bd f9 59 b2 16 aa 09 b3
       9.644346e-09 -1.165151e-08 -1.2687846e-08 -3.205249e-08
0000e0 19 60 cc 32 a1 98 cc b1 90 90 ce b2 21 20 4f 33
       2.3792426e-08 -5.9545333e-09 -2.4047296e-08 4.8225164e-08
0000f0 b7 08 94 33 d7 01 5b 33 67 97 7f 33 5d 25 24 b3
       6.893372e-08 5.0991584e-08 5.9509514e-08 -3.8218207e-08
000100 b9 12 8a b2 82 64 bb af 20 b7 47 32 f7 92 47 b2
       -1.6073828e-08 -3.4086517e-10 1.1624962e-08 -1.16167405e-08
000110 3f 21 e7 31 fd 7b 10 b2 37 7f 8a 32 28 4b 8b 33
       6.7267645e-09 -8.410095e-09 1.6123165e-08 6.486363e-08
000120 1f c8 5d b2 a6 8b 99 b3 5a 02 83 33 ad 08 3c b3
       -1.2909395e-08 -7.1500196e-08 6.1005906e-08 -4.378005e-08
000130 e1 55 04 b3 54 cc 63 b1 0f 47 c8 32 2e e4 5d 32
       -3.081175e-08 -3.3148995e-09 2.3315378e-08 1.2915775e-08

model.0.bias f4 [16]
000000 cc 55 b3 b2 b6 66 09 b2 ba 1d 5f 32 30 56 68 b2
       -2.0877359e-08 -7.997803e-09 1.2987067e-08 -1.3523774e-08
000010 66 15 98 b2 0c 3f 27 2f 40 9a 34 b2 42 97 b9 b2
       -1.770486e-08 1.521096e-10 -1.0512451e-08 -2.1605619e-08
000020 80 7f 04 b2 2b a2 2a b2 a2 c0 b7 b1 85 61 65 32
       -7.712401e-09 -9.932175e-09 -5.347901e-09 1.3351728e-08
000030 b6 c3 b2 b2 05 48 93 b2 3f fa 67 b2 54 c9 6d 32
       -2.0810926e-08 -1.7145803e-08 -1.3502869e-08 1.3840992e-08

model.1.weight f4 [16]
000000 f6 93 e4 b2 9e 2c da 33 00 5e 38 b4 94 1c bb b3
       -2.6609978e-08 1.0159532e-07 -1.7170532e-07 -8.7130644e-08
000010 f9 0a 8e 33 0a 1b c9 33 9c 4c 99 b4 a6 ae 7b b4
       6.614386e-08 9.36471e-08 -2.8554211e-07 -2.3439733e-07
000020 d9 3e e9 b3 fe 06 1d 34 09 f4 8d b4 54 e0 39 b4
       -1.086134e-07 1.4624308e-07 -2.6440856e-07 -1.7311078e-07
000030 c2 ae 0c b1 1d 5e c6 33 92 52 63 b3 a5 3f 02 34
       -2.047202e-09 9.2372126e-08 -5.2927653e-08 1.2130347e-07

model.1.bias f4 [16]
000000 74 2a 16 33 a6 c6 a8 32 6e 0d 22 31 be 53 4c 32
       3.4963207e-08 1.9648109e-08 2.3581737e-09 1.1893404e-08
000010 07 98 0e 33 a8 30 55 32 37 3c be b1 0c ea 3f 32
       3.320022e-08 1.2409295e-08 -5.5365734e-09 1.1170879e-08
000020 c0 b9 3b b1 74 f9 ca 32 ce c5 80 32 dc 44 c7 b2
       -2.7317668e-09 2.3629333e-08 1.4991112e-08 -2.3197963e-08
000030 cb 74 e3 b2 d0 15 7a 32 d4 f9 4c 33 77 e1 cc 31
       -2.647939e-08 1.4556875e-08 4.772467e-08 5.962814e-09

model.1.running_mean f4 [16]
000000 2c 98 0b 32 91 69 53 32 3a 28 6f 32 92 65 2f b3
       8.125465e-09 1.23058195e-08 1.3920777e-08 -4.083774e-08
000010 c1 d3 fc b1 dd bd 86 33 fa fd 1e b3 11 9c a4 b1
       -7.358239e-09 6.274397e-08 -3.7018232e-08 -4.790771e-09
000020 51 da 08 b3 af b2 c9 32 78 12 09 b3 75 5a 4d 33
       -3.1863525e-08 2.3480736e-08 -3.1914595e-08 4.7812552e-08
000030 64 c7 1c 33 d6 7c bd b2 8f 43 7b 33 a3 73 5f b3
       3.6502925e-08 -2.2059265e-08 5.8501936e-08 -5.2026405e-08

model.1.running_var f4 [16]
000000 30 8d 39 26 09 63 40 23 c6 bb b6 23 6d 21 9d 26
       6.4376113e-16 1.0429312e-17 1.9812005e-17 1.0903124e-15
000010 c4 d2 b2 24 e8 be c9 26 48 9d 05 27 1d 8f 43 24
       7.7552246e-17 1.3998922e-15 1.854272e-15 4.2405106e-17
000020 f3 2d ed 26 3d 3b 54 25 01 72 bd 24 7a 04 f7 25
       1.6457633e-15 1.840814e-16 8.2158814e-17 4.2850703e-16
000030 94 8e c7 26 84 af 0f 23 94 06 5a 27 62 fb e0 26
       1.3847045e-15 7.789212e-18 3.0257143e-15 1.561126e-15

model.4.weight f4 [1, 16]
000000 18 4f cf b2 0f 94 10 b2 f7 4a d1 b0 25 f2 32 b2
       -2.413394e-08 -8.415568e-09 -1.5228058e-09 -1.0416021e-08
000010 0f 0c b1 32 46 35 cc b2 3b 76 fb 32 6b ca cf b1
       2.0610996e-08 -2.3772952e-08 2.927401e-08 -6.047505e-09
000020 fd 9c 1f 32 19 84 7f b3 86 4a 9a b1 2e a2 76 33
       9.290713e-09 -5.9491956e-08 -4.4904622e-09 5.742384e-08
000030 2f 15 64 b3 68 60 e4 31 d9 13 4d 32 1e 07 5e b3
       -5.3104653e-08 6.6466335e-09 1.1937083e-08 -5.1694876e-08
