examples/models/gibbsphen_mlp_filter_32_16_8.pth (torch, 12168 bytes, 19 tensors)

model.0.weight f4 [32, 5]
000000 cb 29 63 3c ee 8e 6c 3b 1d 26 52 bc 25 79 6b bc
       0.013864945 0.0036095935 -0.01282647 -0.014372145
000010 5f f8 78 bc 39 f9 17 3c 74 9f 81 3b ec e6 d4 ba
       -0.015195935 0.009275728 0.003955776 -0.0016243136
000020 d0 d8 19 ba 8c a0 f5 3b c0 35 eb b9 36 1e 01 bc
       -0.00058687944 0.0074959453 -0.0004486274 -0.007880738
000030 a3 ed 63 3b f6 99 bd 3c f2 8b cc 3b e0 b1 ac b9
       0.0034779094 0.023144703 0.0062422687 -0.00032938924
000040 32 4e e9 bb 38 01 48 3c 03 7c 41 3c ba ec 63 3b
       -0.0071199173 0.012207322 0.011809352 0.0034778551
000050 a9 0e a4 bc e7 24 88 bc a9 b9 5a bc cf d1 9a bc
       -0.020026522 -0.016619159 -0.013349929 -0.018898873
000060 59 a8 4c bc 7c e9 15 3d e3 98 8e 3c 2b 8a 88 bc
       -0.012491309 0.03659962 0.017406886 -0.016667446
000070 bc de a4 bc 92 c9 9a bc ab 74 03 bc 34 7e 40 3b
       -0.02012574 -0.018894944 -0.008023421 0.0029372098
000080 75 e7 c6 3c 30 06 98 3c e4 36 2d 3c be 57 16 3b
       0.02428029 0.018557638 0.010572169 0.0022940482
000090 c3 37 ac 3b 73 35 14 bc 00 22 bf b7 b0 7c 1f 3a
       0.0052556708 -0.009045946 -2.2784807e-05 0.00060839485
0000a0 1c 21 19 bc b6 f1 6f bc e8 2e 7f bb 54 de bc 3a
       -0.009346273 -0.014645031 -0.003893787 0.0014409521
0000b0 84 df 15 bc 5f 0c e7 3b 77 f4 4f 3c 7c 6e 2b bb
       -0.009147529 0.0070510353 0.012692562 -0.0026158383
0000c0 da 5b cf ba 08 5d b1 39 eb 20 d9 3c 00 56 ac b9
       -0.001582022 0.00033829384 0.026504954 -0.00032870471
0000d0 50 a7 64 bb 54 17 99 3c 14 0c 93 3c 2b 50 1c bc
       -0.0034889765 0.018687882 0.017950095 -0.009540598
0000e0 bd 93 fa bb d4 6c 55 3c d0 83 5e 3c 06 1a 06 bc
       -0.0076470063 0.013026435 0.013581231 -0.008184915
0000f0 c6 25 69 bc 40 61 4c bc 81 e2 86 3b 82 d6 09 3c
       -0.014230197 -0.012474358 0.004116357 0.008412959
000100 e4 26 e9 3a ea c8 aa 3c a0 8a b1 3c d9 44 51 3c
       0.001778808 0.020847756 0.021672547 0.012772762
000110 9b 49 e4 ba 98 ff c1 39 6b 43 08 bc 55 b8 b8 3b
       -0.0017416956 0.0003700226 -0.008316855 0.0056372085
000120 a5 d2 dd bb f0 a6 8d bb c0 e6 51 3c f4 17 bb bb
       -0.0067694956 -0.004322879 0.012811363 -0.0057096425
000130 72 59 3b 3c 18 2e 9c 3a 80 87 2f 38 4e a0 90 bc
       0.0114349 0.0011915592 4.1849446e-05 -0.017654564
000140 f7 39 df 3b 40 2c 68 39 e4 9e 27 3c f1 4d db 3b
       0.00681233 0.00022141729 0.010230754 0.006692641
000150 1b ab 52 3c 1a 03 56 bc fe e7 5c bb 26 52 cf 3c
       0.012858178 -0.013062263 -0.0033707614 0.025307726
000160 aa 17 49 3c aa b3 84 bc fe b2 8f bc 45 b4 08 bc
       0.012273708 -0.016198952 -0.017541405 -0.008343761
000170 21 9f cd 3b 34 22 01 3b e9 d0 d7 ba 49 5a 9c 3c
       0.006275073 0.0019704225 -0.0016465458 0.01908602
000180 64 16 eb 3a b8 af 2e 3c a5 8c 93 3b 37 b9 ef bc
       0.001793575 0.010662012 0.00450285 -0.029263122
000190 0d f9 e9 3c 3f 81 bf 3c 06 4a c0 3c 60 98 33 ba
       0.02856114 0.023377059 0.023472797 -0.0006851014
0001a0 f4 79 fa bc 06 d6 87 3c ae 87 81 bb 5c 0f 52 bb
       -0.03057573 0.016581547 -0.003952942 -0.0032052612
0001b0 b8 36 b3 3a 36 af b0 bc b6 be b8 3c 4c 6b 80 3b
       0.0013672924 -0.021567922 0.022551876 0.003919041
0001c0 a8 7f 30 3b 5a f3 ca 3c a8 58 9d bc c4 ca 9a ba
       0.0026931558 0.024774242 -0.019207314 -0.0011809696
0001d0 d0 f4 79 3b ac 60 aa 3b ba 1b 50 3c 98 49 78 bb
       0.0038140304 0.0051995125 0.012701923 -0.0037885662
0001e0 04 98 39 3c 7e e2 78 3c 71 4f 2e bc d0 df 1f 3a
       0.011327747 0.015190719 -0.0106390575 0.00060987193
0001f0 79 11 8e 3c 7e c2 83 3c 18 f1 53 3c 2c 1d 86 bb
       0.017342316 0.016083952 0.012935899 -0.004092833
000200 98 8f d4 3a 76 e5 44 bb 56 1f 56 bb ee 7d cd 3b
       0.0016217111 -0.0030043996 -0.0032672486 0.0062711155
000210 9e ef 83 bb 1f 36 8b bb 9c f7 25 bc 8e 32 1c 3d
       -0.0040263673 -0.004248395 -0.010129835 0.03813415
000220 ab 17 10 3d 40 cf 02 3d c6 ea e8 ba dd 95 fc 3b
       0.03517882 0.03193593 -0.0017770163 0.007708295
000230 5d 8f 2e 3c b6 09 35 3c c0 94 14 3b 40 14 4d 3c
       0.010654298 0.011049679 0.002267167 0.012517035
000240 c0 10 12 bc 71 c7 9a 3b 2e d9 0d 3b 00 f5 7a 3b
       -0.008915126 0.0047234823 0.0021644342 0.0038293004
000250 cc 49 84 3b f0 b3 c2 3b 54 39 35 bc 14 4f 9a bb
       0.0040371176 0.0059418604 -0.011061031 -0.004709134
000260 7f f7 22 bc 78 e6 27 bc e6 93 29 bc 82 77 11 3b
       -0.009946703 -0.010247819 -0.010350203 0.0022196476
000270 08 a1 2d 3c 11 f1 86 3c 97 66 36 3c 4c de 9e 3b
       0.010597475 0.016472371 0.011132858 0.004848277

model.0.bias f4 [32]
000000 20 18 1d bb 0d 0f 0f bb 10 f4 4d b9 c2 ad cb ba
       -0.0023970678 -0.002182904 -0.00019641244 -0.0015539455
000010 fe 71 18 3b 5c 73 11 bb a5 9e 1e bb d0 6b 91 bb
       0.0023261304 -0.0022194004 -0.0024203446 -0.004437901
000020 70 d1 11 3a d0 82 fe ba 00 39 ad b9 5e 3e 97 3b
       0.00055625197 -0.0019417647 -0.000330396 0.004615589
000030 04 c8 e7 ba e4 01 50 bb 24 fe be 3a 46 38 c6 ba
       -0.0017683511 -0.0031739408 0.0014571589 -0.0015122972
000040 b8 d6 ca ba e4 d5 2d bb a2 5e 73 3b 42 52 f2 ba
       -0.0015475368 -0.0026525194 0.0037135263 -0.001848765
000050 14 1a ca 3a 02 40 87 bb a8 3b 03 bb 1c 69 9c 3b
       0.0015419149 -0.0041275034 -0.0020024572 0.004773272
000060 eb dd a4 bb 51 b5 0f bb d8 a9 dc b9 0c f5 1c bb
       -0.0050313375 -0.0021928141 -0.00042088213 -0.002394977
000070 f0 9f c6 ba f3 30 14 bb 24 fd a3 bb f7 ff 9c bb
       -0.0015153866 -0.0022612184 -0.005004542 -0.0047912556

model.1.weight f4 [32]
000000 c2 67 4f bc 2a c8 4e 3b fc 07 b6 3c 27 75 1c 3b
       -0.012659015 0.0031552413 0.022220604 0.002387354
000010 4e 53 29 bc e6 e9 d6 3c ec f0 a7 3c e6 00 b3 bb
       -0.010334803 0.026234578 0.020500623 -0.0054627536
000020 8d f9 18 3b 2b f9 89 3c 33 34 8c bc 48 46 25 3c
       0.0023342103 0.016842445 -0.017114734 0.010087557
000030 e2 ea 90 bb c4 18 d6 bc 4e b3 07 bc 73 f6 aa 3c
       -0.0044225315 -0.026134856 -0.008282496 0.02086947
000040 2d 37 c5 3a e3 b8 8e bc cf eb 48 3b d4 ed 04 3b
       0.0015046351 -0.017422145 0.003065813 0.0020283358
000050 a5 da d3 3c 1c d5 06 3c 16 17 22 3d b8 00 ab ba
       0.025861094 0.00822952 0.039572798 -0.0013046479
000060 72 3c 6b bc 82 71 17 bc 4e 3d a0 ba fb a2 2f bd
       -0.014357673 -0.009243371 -0.0012225301 -0.04288004
000070 36 2e 06 3c 47 e0 c5 3a 39 4a 4d 3b 50 71 8d 3b
       0.0081897285 0.0015096747 0.0031324758 0.0043164864

model.1.bias f4 [32]
000000 7b 69 8a 3c a8 07 89 b9 80 b7 55 b9 a0 13 5f bc
       0.016896 -0.0002613638 -0.00020381622 -0.013615519
000010 c0 0f 4a ba aa 02 a2 3b b6 19 9b bc d2 50 fb bb
       -0.00077080354 0.0049441652 -0.018933158 -0.0076695466
000020 30 e7 08 bb a8 fe d1 3b 5f 83 a4 bc b0 37 dc 3a
       -0.0020889752 0.006408531 -0.020082174 0.0016801264
000030 be 46 38 3c f0 a4 c4 3b eb 83 92 3c 1d 02 9d bc
       0.011247335 0.0060011074 0.017885169 -0.019166047
000040 cd 15 60 3c 19 5b b6 3c 78 03 1a bb 30 aa fb 3b
       0.013677073 0.022260236 -0.0023500603 0.0076802
000050 36 1d d7 bb c5 a6 9c bc a5 65 34 bd 60 2b 64 ba
       -0.0065647615 -0.01912249 -0.04404225 -0.0008703973
000060 ab a7 63 3c 5d 14 5e ba 85 81 0d bc 38 4d db 39
       0.013894956 -0.00084716623 -0.008636837 0.00041828468
000070 f3 ee 7f 3b c8 63 35 bc 18 a4 39 3c 5e ee 59 bc
       0.0039052337 -0.011071153 0.011330627 -0.01330146

model.1.running_mean f4 [32]
000000 0f 39 7e bc 96 a7 c4 bb 62 64 98 3b f2 a5 32 3c
       -0.0155165335 -0.006001423 0.0046506384 0.010903822
000010 df 50 fc bc 68 b1 27 3c ff 30 64 3c 3f 40 97 bb
       -0.030800281 0.010235168 0.013927697 -0.004615813
000020 f2 ff c8 bc cb 4d f2 3b ac dc 2f 3d 4b 2c 85 3c
       -0.024536107 0.0073945276 0.04293506 0.016256472
000030 57 d7 2d bc 8d 5e 9f 3c f8 c4 04 3c 30 2f 92 bc
       -0.010610423 0.019454265 0.008103602 -0.017844766
000040 de 9c 62 3c 8b dc 70 bc 3b ca 03 3b 23 9c b1 bb
       0.013831345 -0.014701019 0.0020109552 -0.0054202243
000050 1e 5d e4 3c 72 d2 88 bb 42 ad dc 3a 1c af 4c 3c
       0.027876433 -0.0041754777 0.0016836303 0.012492921
000060 29 e4 8e b8 18 7f 93 3c 8b 7e b9 bb 74 c8 48 3d
       -6.813586e-05 0.018004939 -0.005660837 0.049019292
000070 51 62 23 3c ab 02 cc 3b 32 8d e6 bc ec c7 cf 3c
       0.009972171 0.006225904 -0.028143499 0.025363885

model.1.running_var f4 [32]
000000 aa a1 89 38 23 09 16 34 4b 38 4c 36 4c 90 2e 39
       6.562781e-05 1.3973163e-07 3.0431136e-06 0.00016647688
000010 0c 40 5e 3a a8 61 38 39 50 92 83 39 5c 04 89 36
       0.00084781717 0.00017583987 0.00025095278 4.0834257e-06
000020 2d 0f 0c 3a bd b9 df 38 27 51 7e 3a 26 5f 69 38
       0.00053428375 0.00010668065 0.00097014237 5.5640143e-05
000030 45 16 a8 37 f5 81 de 39 5c 35 d8 36 6c fa d5 38
       2.003753e-05 0.00042439965 6.4435135e-06 0.00010203276
000040 15 e2 73 39 80 7b 43 38 5b 0e 6e 37 3e 60 04 37
       0.00023258508 4.660664e-05 1.4189248e-05 7.890221e-06
000050 82 b5 b0 39 2f 9b 25 37 8b b4 19 38 bc 24 9e 37
       0.0003370457 9.870898e-06 3.6646186e-05 1.8852174e-05
000060 ef 49 03 38 60 b3 bb 39 1b 27 69 38 dc 62 fa 3a
       3.130169e-05 0.00035801064 5.558795e-05 0.0019102949
000070 66 ce 1b 39 62 d6 bf 38 42 cd 91 39 b7 24 2f 3a
       0.00014858841 9.1475216e-05 0.00027809484 0.0006681191

model.4.weight f4 [16, 32]
000000 6e e7 3b bb e8 9d 60 3a 28 18 ff ba 35 52 7e bb
       -0.0028671878 0.0008568452 -0.0019462155 -0.0038806323
000010 c9 50 ad bb 30 ac 9e bb 88 b6 62 bb a0 6a 0b 3a
       -0.0052891714 -0.0048423037 -0.003459366 0.00053183176
000020 b8 ca 61 ba 40 12 60 3a 96 80 ac 3b 3e 68 ed 3b
       -0.00086132763 0.00085476413 0.005264352 0.0072450927
000030 c1 6b b3 3b 3c f6 b9 3a 52 55 43 bb fb bf b5 bb
       0.0054754918 0.0014187763 -0.0029805494 -0.0055465675
000040 1f 2e 10 bc 00 0e f1 39 fc 6f 9d 3b c3 2a cb 3b
       -0.008800059 0.00045977533 0.0048046093 0.006200166
000050 78 04 74 3b c6 52 64 bb ed ec b9 3b f5 6b 1c 3c
       0.003723411 -0.0034839376 0.0056739957 0.009547223
000060 00 83 a1 38 cb 10 df bb 0a f5 31 bb c4 10 20 3b
       7.701479e-05 -0.006807422 -0.0027154111 0.0024424056
000070 e2 ec ae bb 54 2c 7a 3b 37 48 a5 bb 14 3b 92 3b
       -0.005338297 0.0038173394 -0.005044009 0.004462609
000080 60 62 3b b9 24 dc 3c 3a c5 0d 05 3b a6 17 94 3b
       -0.00017870357 0.00072044344 0.0020302397 0.0045194207
000090 38 73 52 3b 53 76 22 3b 60 44 d2 b9 eb 3a b9 3b
       0.0032112133 0.0024789765 -0.00040105265 0.0056527755
0000a0 91 e3 3a 3c 23 3c f9 bb 72 28 83 3b c2 f4 3a 3b
       0.011406795 -0.007606046 0.004002624 0.0028527235
0000b0 db ea ad 3b 20 36 f0 3a d4 74 a3 bb aa 60 24 3b
       0.005307538 0.0018326677 -0.004988292 0.002508203
0000c0 88 de 09 bc 18 c5 20 3b fa 7e a9 3b 88 82 ce 3a
       -0.008414872 0.002453154 0.0051726075 0.0015755454
0000d0 33 97 85 bb dd 9c 8d 3b 64 05 81 3b de da 75 bb
       -0.0040768622 0.004321678 0.00393741 -0.0037514488
0000e0 5d be a2 bb bc 01 13 bb fa 3f aa 3b 7d 85 9e 3b
       -0.0049665407 -0.0022431454 0.005195615 0.0048376904
0000f0 4d d3 6c 3b 2e 8b 93 bb 1c f2 8f 3b aa fa e8 3b
       0.0036136687 -0.0045026755 0.0043928754 0.0071099596
000100 20 58 dd 39 9c a3 93 bb 64 3a 29 bc 8a fe 44 bb
       0.00042218063 -0.0045055877 -0.010328863 -0.0030058944
000110 2c 6b b5 ba d8 99 10 bc 3d 82 9a 3c 95 08 ae 3b
       -0.0013841144 -0.008825742 0.01886093 0.0053110817
000120 7e 12 47 3b d2 89 06 bc 25 f0 36 bb f8 92 8c b9
       0.0030376012 -0.00821157 -0.0027914133 -0.0002681238
000130 fc ff 7c ba 0c f1 21 3c 2c 33 18 ba bc 81 b0 ba
       -0.0009651182 0.00988413 -0.0005805965 -0.0013466398
000140 48 06 a3 ba e1 a2 dc bb 1c ba ac ba c4 f5 ee 3a
       -0.0012437785 -0.006733284 -0.0013178024 0.0018231203
000150 6e 65 45 3c bb 59 8f bb 00 24 f9 b9 c3 68 73 3c
       0.0120481085 -0.0043747104 -0.00047519803 0.01485652
000160 33 66 e3 3a 12 af d7 3a 5c 08 5f bb 17 ff 20 3c
       0.0017349183 0.0016455373 -0.0034032082 0.009826443
000170 81 f8 2f 3b c4 e2 2b 3b b0 47 8b 3b 1a f9 08 3b
       0.0026851 0.0026227692 0.004250489 0.002090043
000180 ca a7 87 bc ac 95 24 3b bf ac 20 3b fe b2 d5 3b
       -0.0165595 0.0025113625 0.0024517027 0.0065215817
000190 76 d7 e8 bb 4c 36 ed ba 3f d5 a8 3c d4 93 86 3a
       -0.007105763 -0.0018097847 0.020609496 0.0010267445
0001a0 6c 0c b8 bb 5f 94 0a bc f6 7c 5c 3c d3 13 2f bc
       -0.005616715 -0.008458226 0.013457527 -0.010685879
0001b0 d2 fc 01 3b a7 b5 8b 3c 74 87 3f bb f8 3a d5 3a
       0.001983453 0.017054392 -0.0029225023 0.0016268184
0001c0 8c aa 97 3b e8 d8 86 3c f5 38 36 bb c0 95 11 bb
       0.004628485 0.01646085 -0.0027804945 -0.0022214502
0001d0 84 77 72 3b 44 93 ea bb 80 72 59 b9 08 a8 05 3b
       0.0036997506 -0.0071586687 -0.00020737387 0.0020394344
0001e0 e0 b9 3b 3a 5d 3c f5 3b ba 38 cb bb 46 05 95 3b
       0.00071611814 0.0074840025 -0.0062018307 0.004547748
0001f0 dd 5f 1c 3c 6c 2c 0b bc 40 f2 d6 3b a3 c9 93 bb
       0.00954434 -0.008494478 0.00655964 -0.004510121
000200 f5 f0 3b 3c 3c e3 c1 3a f2 e3 cf bb 30 81 0b 3c
       0.011471023 0.0014792453 -0.006344312 0.008514687
000210 df c7 f0 3b 44 09 a9 3a 56 97 81 3c a1 cb 81 3b
       0.0073480452 0.0012896438 0.015819233 0.003961042
000220 ca f3 7f 3c 96 65 28 bb 4c 9e 1c bb 08 0c 91 ba
       0.015622089 -0.0025695316 -0.0023898063 -0.0011066208
000230 e6 c2 35 3c b1 5e 0b bc 19 2c df 3b a4 98 51 3c
       0.011093831 -0.008506463 0.006810677 0.01279274
000240 b5 28 04 bc 3a 41 27 3b 98 d2 f8 bb 9e 82 6c 3b
       -0.008066346 0.0025521056 -0.007593464 0.0036088596
000250 de 98 4d bc 67 26 01 bc a8 c3 22 3a ee b5 a9 3c
       -0.012548653 -0.007882691 0.00062089646 0.020716634
000260 b4 35 c4 3a 92 f4 cb bb 80 29 8a b8 bc c0 8d bb
       0.0014969618 -0.0062242234 -6.588083e-05 -0.0043259542
000270 89 35 88 bb 95 37 bb bb a8 55 7f 3b 9c 65 b6 3b
       -0.0041567725 -0.005713413 0.0038960967 0.005566312
000280 27 19 8e 3c ea cd 06 3b 27 73 7b 3c 9e 56 25 3c
       0.017345978 0.0020569512 0.015347279 0.010091452
000290 71 de 6c 3b 79 f6 b0 bc ce ba 09 3b 04 c3 7e ba
       0.0036143328 -0.021601902 0.0021015885 -0.00097183906
0002a0 e6 9a 43 bc 82 3f ad bb 7b ca 43 bc f4 63 09 ba
       -0.011938786 -0.0052871117 -0.011950131 -0.00052410294
0002b0 19 e6 a0 3b ff 87 31 3c b4 a0 4f 3b 1f 8d 99 bb
       0.0049102423 0.010835647 0.003168148 -0.0046860124
0002c0 78 44 ed b9 e3 6f 37 bc 62 9e 85 bb 1f 8e 3d bc
       -0.00045255176 -0.0111961095 -0.0040777186 -0.011569529
0002d0 8a 08 9f bc 28 a9 c7 bb 50 2a f2 39 d1 9b b8 3b
       -0.019413251 -0.006093163 0.00046189362 0.005633809
0002e0 da 27 4d 3b 3c 65 05 3c 18 b6 62 3b c6 8f 85 bc
       0.003130427 0.008141812 0.00345934 -0.016303908
0002f0 f8 43 4e 3a 1c a0 af 3b 90 4a b8 ba 67 d6 0b bb
       0.00078684045 0.0053596627 -0.0014060307 -0.002133751
000300 8a 26 5d 3b 45 ff 37 bb c0 62 35 38 ff 5b b3 bb
       0.0033744895 -0.0028075736 4.324573e-05 -0.0054736133
000310 f1 94 dc bb 6e 6d e6 bb 89 57 15 3b aa 78 7b bb
       -0.0067316224 -0.007032088 0.002278777 -0.0038371482
000320 7c 4b b7 ba 6d 62 39 3b 00 9d ce 38 24 52 c3 3b
       -0.0013984288 0.0028287426 9.852089e-05 0.0059607197
000330 68 b5 ce bb 93 37 0d 3b bc 8c d3 bb 49 bf 63 3b
       -0.0063082464 0.0021548017 -0.006455986 0.0034751466
000340 6c 73 9c 3b 17 a5 99 3b 85 d5 8b 3b 1c d4 20 3c
       0.0047745015 0.0046888697 0.004267397 0.009816196
000350 18 1e ab 39 62 f5 47 bb e5 68 aa bb 14 9a cc bb
       0.00032638083 -0.003051125 -0.0052004927 -0.0062439535
000360 d0 b2 0b 3b 54 5d b5 bb 4b cb 76 3b 44 8f 34 bb
       0.0021316297 -0.005534807 0.0037657793 -0.0027551213
000370 2d e8 a7 bb f2 02 19 bb 92 83 65 3b 78 27 62 3a
       -0.005124113 -0.0023347703 0.003502105 0.0008627097
000380 1c 47 ac 3b 6e 3f 25 bb bb 3c ed bb 2a 89 15 bb
       0.0052575003 -0.002521481 -0.0072399057 -0.0022817352
000390 e9 7c fe 3a b0 a7 97 3b b0 7b b9 ba 64 fc 4c 3b
       0.0019415888 0.004628144 -0.0014151242 0.0031278366
0003a0 12 fc f1 bb 02 8d e8 bb f0 aa 0d bc 0c 49 ca 3b
       -0.0073847855 -0.0070968876 -0.008646712 0.0061732586
0003b0 80 b7 e4 b8 3b 95 d2 3b 00 16 b6 bb 50 de db bb
       -0.00010906067 0.006426481 -0.005556822 -0.0067098513
0003c0 83 59 6f bb e8 3c 42 3a 44 5e 7a 3b 44 24 82 bb
       -0.003652186 0.00074095884 0.003820316 -0.0039716084
0003d0 a4 cf 83 3b e0 3c 6c 3b e3 ae e4 3b 95 1d da 3b
       0.0040225554 0.0036047027 0.006978856 0.0066563585
0003e0 de c7 35 3a e0 3a ec ba ae 2e bf bb 10 92 85 b9
       0.00069343846 -0.0018022917 -0.005834422 -0.00025476562
0003f0 d5 40 9d 3b 10 5c c8 3a 51 09 0a 3c f4 68 1c 3a
       0.0047989883 0.0015286226 0.008425073 0.0005966567

model.4.bias f4 [16]
000000 ab f8 2b 3b 85 74 04 3b d8 42 82 bb 96 3f 3d 3b
       0.0026240747 0.0020211053 -0.0039752536 0.0028877012
000010 6c 90 52 3b 64 ac a6 bb d8 20 00 3b 03 9c 47 3b
       0.003212954 -0.0050864685 0.0019550826 0.003045798
000020 31 9f 53 3b 48 94 1b bb 7e f1 02 bb 4e 02 f8 ba
       0.003229093 -0.0023739506 -0.0019980366 -0.0018921585
000030 cc 52 a3 3b b0 68 1c bb e0 33 9b bb 45 6a 03 bb
       0.0049842354 -0.002386611 -0.0047364086 -0.0020052355

model.5.weight f4 [16]
000000 d2 68 7c 3b bc 4f df 39 78 11 8a 3c 9c 6a 95 bc
       0.0038514626 0.0004259328 0.016854033 -0.018239312
000010 a6 d0 80 bc 1e 4c 85 3b 0d d9 1b 3b 50 de d9 ba
       -0.015724491 0.0040679118 0.0023780495 -0.001662204
000020 e2 2d d4 bb ea d9 ba 3c 42 a9 d2 3c 52 3b 82 3b
       -0.006475196 0.022808988 0.025715474 0.0039743567
000030 b4 02 a2 bb fa 63 96 3a d3 53 c9 3c 52 18 06 bc
       -0.00494417 0.0011473887 0.024576103 -0.008184509

model.5.bias f4 [16]
000000 58 88 1f 3c b4 0b a1 3b 76 47 ca bb 29 21 9e 3c
       0.009737097 0.004914725 -0.0061730696 0.019302921
000010 96 d1 de 3c e4 94 ba 3c 2b 62 08 3c c8 4f 7f 3c
       0.027199548 0.022776075 0.008324186 0.015582986
000020 fe fb 50 bc 2a 43 99 bc 96 4c 8c 3b cc a6 0c 3c
       -0.012755392 -0.018708784 0.0042815907 0.008584689
000030 86 48 80 3c 7a 24 4c 3c e4 af 7c bc 3f 36 01 bb
       0.015659582 0.012459869 -0.015422795 -0.001971617

model.5.running_mean f4 [16]
000000 4b 0d c8 3b f5 e7 ae 3b 0e d9 ce bb eb 7e e4 3b
       0.0061051003 0.00533771 -0.006312496 0.0069731376
000010 0b 80 d5 3b cc a3 02 bc 9c f7 b6 3b 8b d3 ce 3b
       0.006515508 -0.0079736225 0.0055837166 0.006311839
000020 8a 98 d9 3b 56 b6 d0 bb 57 3e b8 bb 8d 64 b1 bb
       0.0066404985 -0.0063693924 -0.005622666 -0.005413598
000030 3c af f5 3b 84 81 c3 bb fe da dc bb d7 2b a9 bb
       0.007497696 -0.005966367 -0.006739973 -0.005162697

model.5.running_var f4 [16]
000000 e1 73 21 33 9e 92 0f 33 88 6c 01 35 29 a4 37 35
       3.7591125e-08 3.342813e-08 4.821418e-07 6.8411697e-07
000010 c2 ee 87 34 74 a2 3e 35 68 e4 59 33 74 45 24 33
       2.531943e-07 7.1016916e-07 5.0731984e-08 3.8247393e-08
000020 0e 12 b9 33 e0 28 32 34 e1 c7 74 34 99 d5 5f 33
       8.618018e-08 1.6592412e-07 2.2796986e-07 5.21155e-08
000030 16 44 5b 34 a4 22 a0 34 8f 0c 1a 36 90 98 01 33
       2.0420734e-07 2.9827527e-07 2.2955098e-06 3.0173908e-08

model.8.weight f4 [8, 16]
000000 6a 9c 39 3b e2 ed 7d bb 91 dd a9 bc 91 14 10 3c
       0.002832199 -0.0038746526 -0.020735534 0.008793966
000010 29 b3 ed 3b 10 62 c8 ba 69 fa 7d 3b a6 18 a0 3a
       0.0072540236 -0.0015288014 0.0038753992 0.0012214377
000020 c0 4d 26 bb 8b 1c fa bb 3a 2a 00 bb 74 14 99 ba
       -0.0025375932 -0.007632797 -0.001955642 -0.0011679069
000030 00 4c ba 3b 50 1e aa 3b 21 d3 4e 3c b2 db 94 3b
       0.0056853294 0.005191602 0.012623579 0.0045427913
000040 db c6 a7 3b 03 f1 bd 3b 6a 3c dd 3b 74 1c b0 bc
       0.005120141 0.005796553 0.0067515867 -0.021497943
000050 7c 5d fa bb 51 36 ba bb dc f2 55 3a e0 bd 6d bb
       -0.0076405387 -0.0056827446 0.0008161494 -0.0036276504
000060 96 2f fc 3b 42 33 7c bb a8 06 77 3c 86 fe 5e bc
       0.0076961024 -0.00384827 0.015077271 -0.013610488
000070 66 2e a5 3b 08 c9 b7 3b 8a 0d a4 3b f0 c6 30 3a
       0.0050409315 0.0056086816 0.005006497 0.0006743511
000080 8c 66 74 3b d5 b5 b2 3b 36 26 4e 3b 78 1e 80 bb
       0.0037292568 0.005453805 0.003145588 -0.003909882
000090 7c c8 91 3a b3 22 2e 3c 80 45 10 b8 00 e1 1a 38
       0.0011122371 0.01062839 -3.4397002e-05 3.692601e-05
0000a0 0c d2 88 bb f6 90 80 3a ae b8 da 3b 90 fc ab bb
       -0.00417543 0.0009808827 0.0066748476 -0.0052486137
0000b0 48 fc 9b b9 90 bc 96 3b f6 f7 c1 3b e0 fe 95 3b
       -0.00029751868 0.004600115 0.005919452 0.0045775026
0000c0 b0 c7 8a bb 62 9f 7f 3b 78 f8 88 3c d4 45 8f 39
       -0.0042352304 0.0039004912 0.016720042 0.00027327111
0000d0 5d 9a 24 bc 9b 10 70 bb 0c 32 86 bb de 48 af 3a
       -0.010046569 -0.0036630991 -0.0040953215 0.0013373157
0000e0 d9 ea dc ba 23 0d fa 3b 26 4b f0 bb c6 d1 4e bc
       -0.0016854658 0.0076309606 -0.007333177 -0.012623256
0000f0 69 4d c7 3a 19 3b c3 ba 3a 1b 9c 3b dc b9 1b bb
       0.0015205565 -0.0014894932 0.004763988 -0.0023761904
000100 59 70 dc 3b 10 6d 74 ba dc a1 53 bc 56 c0 14 3c
       0.00672726 -0.0009324113 -0.012917008 0.00907906
000110 0c 65 87 3b 98 b6 a7 3c 12 18 c0 3a 40 8c fb ba
       0.004131919 0.02047281 0.0014655611 -0.0019191578
000120 80 d6 a1 bb 0e f2 f7 bb 8a 46 87 bc 5c ca de 3b
       -0.0049389005 -0.007566697 -0.016513128 0.0067990255
000130 60 af e3 bb 40 14 af b9 cd 28 e0 bb a4 c1 5e 3b
       -0.0069483966 -0.00033393688 -0.0068408013 0.003398993
000140 1a fc b2 3b 9c 4c ee 3b 38 4b a8 3b bc b9 1f 3c
       0.0054621818 0.007272316 0.00513592 0.009748872
000150 62 58 3b 3b 00 98 5a 38 eb e5 36 bb f9 78 13 bb
       0.0028586616 5.211681e-05 -0.0027908038 -0.0022502525
000160 50 c7 36 3b fe 23 d5 ba 6b 5c 00 3c e6 31 35 bb
       0.0027889796 -0.0016261337 0.007834534 -0.002764815
000170 4c 91 d7 3a a0 69 be b9 cc 27 89 3a 92 84 32 bb
       0.00164465 -0.0003631832 0.0010464131 -0.0027239663
000180 00 a6 25 38 10 45 92 b9 0d 7b ba 3b 36 28 5c 3c
       3.9493665e-05 -0.00027898746 0.0056909383 0.013437321
000190 24 1c 71 3b 48 20 d2 ba 54 30 b8 bb 83 ab 02 bc
       0.0036790455 -0.0016031349 -0.0056209955 -0.007975462
0001a0 88 0d 88 3a 1a b1 b7 bb 29 19 91 bb 54 c3 2b bb
       0.0010380009 -0.005605829 -0.004428048 -0.0026208954
0001b0 30 d6 4b 39 1c 0f a3 ba 00 43 4e bb ce 24 51 3b
       0.0001943938 -0.0012440416 -0.003147304 0.0031912806
0001c0 f3 1e 6f bb 58 a0 34 3a 8c 62 d6 3b c5 aa 73 bc
       -0.0036486953 0.0006890348 0.0065425094 -0.014872258
0001d0 51 da 24 bc e8 48 55 3b 38 9d 17 bb 9a 6e 76 3b
       -0.010061816 0.0032544676 -0.002313448 0.0037602545
0001e0 28 64 25 3a b0 d2 a8 3a 74 b8 ec bb 84 ad 9f bb
       0.0006309175 0.0012880173 -0.007224137 -0.0048729796
0001f0 76 9c 90 bb ba 2b 0b 3c 3e d4 9f 3a 31 92 61 3a
       -0.004413183 0.008494312 0.001219399 0.0008604853

model.8.bias f4 [8]
000000 5a 52 00 bb 9d d2 20 bb 16 70 c6 3a 86 ee e7 3a
       -0.0019580335 -0.0024539598 0.0015139605 0.0017694987
000010 70 39 97 bb 2c 02 4a bb f3 a8 a5 bb 60 c1 8f bb
       -0.0046150014 -0.0030824048 -0.0050555407 -0.004387066

model.9.weight f4 [8]
000000 e4 90 05 3d de ff 0c bc 80 f9 d4 b8 01 ac 84 bb
       0.03260888 -0.008605925 -0.00010155421 -0.004048825
000010 58 71 d7 3a 8f 43 15 bb 20 8e 2f bb 83 b5 50 3b
       0.0016436977 -0.0022775864 -0.0026787594 0.003184647

model.9.bias f4 [8]
000000 76 ee 80 3c 48 e9 73 3a 58 ff 08 3d b6 7d 6e 3c
       0.015738707 0.0009304476 0.03344664 0.014556339
000010 80 e0 87 3b b2 99 25 bc 87 6a 95 3b 39 2d a4 3c
       0.0041466355 -0.010107445 0.004559818 0.020041095

model.9.running_mean f4 [8]
000000 c8 d6 a2 bb 47 2c d3 bb 40 88 b7 3b ba 4b a0 3b
       -0.0049694516 -0.0064444873 0.005600959 0.00489184
000010 82 09 cf bb 4a 3d c8 bb b8 68 eb bb 3d ce f6 bb
       -0.006318272 -0.006110822 -0.0071841143 -0.0075319097

model.9.running_var f4 [8]
000000 d7 0e 84 33 53 ff fd 33 52 14 44 33 40 5a 10 33
       6.149428e-08 1.1827674e-07 4.5653287e-08 3.3609695e-08
000010 01 95 08 34 c7 c1 c2 32 dc 95 ab 33 61 b3 c3 33
       1.2720194e-07 2.2672692e-08 7.990067e-08 9.113024e-08

model.12.weight f4 [1, 8]
000000 e8 9f d0 3c 06 be 9f 3c cf 6e 0e 3d 46 2e 34 3d
       0.025466874 0.01949979 0.034773644 0.043989442
000010 28 9a e1 bb d2 9f 20 bc 42 7a 21 bb 9c 8b 28 3d
       -0.006884832 -0.009803729 -0.0024639522 0.041148767
